src/deep_learning/artifacts/lstm_model_WMT.pt (torch, 217149 bytes, 12 tensors)

lstm.weight_ih_l0 f4 [256, 2]
0	0xbd104d8f	-0.035230216
1	0xbd29ed99	-0.041486356
2	0xbbbdc939	-0.00579181
3	0xbe11635a	-0.14198056
4	0x3d21fbe3	0.03954686
5	0x3d8bdc3b	0.06829115
6	0x3c75f5fb	0.01501226
7	0xbc98fc6c	-0.018675052
8	0x3deecc55	0.11660067
9	0xbd9517d8	-0.072799385
10	0xbdef6645	-0.11689428
11	0xbd28d186	-0.041215442
12	0x3d88e35e	0.06683992
13	0xbdcadc74	-0.09905329
14	0xbcee071a	-0.02905612
15	0xbc7c3ece	-0.015395833
16	0xbd1867f5	-0.037208516
17	0x3dd872c7	0.10568767
18	0x3e2c55b7	0.16829573
19	0x3d90044e	0.07032071
20	0xbdff7a63	-0.12474515
21	0x3d5fdd9c	0.054654703
22	0x3dbb6739	0.091505475
23	0x3dd6e718	0.104932964
24	0x3dd5e12a	0.10443337
25	0x3dbdccae	0.09267555
26	0xbb84e547	-0.0040556523
27	0x3ba88b54	0.0051435623
28	0x3e07fec9	0.13280787
29	0xbc34910c	-0.01102091
30	0x3d3651d7	0.044511642
31	0xbd964141	-0.07336665
32	0xbd72a336	-0.05923768
33	0xbd81a7f5	-0.063308634
34	0x3cf83d1a	0.030302573
35	0x3db7deea	0.08978064
36	0xbd42752c	-0.047475025
37	0xbe0b83ca	-0.13624492
38	0x3d61b4a9	0.05510393
39	0x3be709c0	0.007050723
40	0x3d44b9c2	0.048028715
41	0x3da8ba30	0.082386374
42	0x3e01cb4b	0.12675206
43	0xbdef9eb7	-0.11700194
44	0xbe066929	-0.13126053
45	0x3d8bdd47	0.06829315
46	0x3e2e99c6	0.17050847
47	0xbde06adc	-0.10957882
48	0x3da5fad5	0.08104483
49	0xbdc3c7d7	-0.09559601
50	0x3e3919df	0.18076275
51	0xbde301ca	-0.110843256
52	0x3e2c93a5	0.16853197
53	0x3d2aa693	0.041662764
54	0xbb1ecf36	-0.0024232394
55	0xbce62996	-0.028096002
56	0x3e09535c	0.13410705
57	0xbced8929	-0.028996067
58	0x3e1336dd	0.14376397
59	0xbc6f738f	-0.014614954
60	0xbcada78f	-0.021198062
61	0xbd512769	-0.051062975
62	0x3ca84730	0.020541757
63	0x3d7273f3	0.05919261
64	0x3d6d2faf	0.057906803
65	0xbd876248	-0.066105425
66	0x3dcd221c	0.100162715
67	0xbe17b16e	-0.14813778
68	0x3e10994c	0.14120978
69	0x3cd0f550	0.0255076
70	0x3db801c0	0.08984709
71	0xbe08a0ac	-0.13342541
72	0x3d5c8508	0.053837806
73	0x3dc2231e	0.09479354
74	0x3ce372bc	0.02776467
75	0x3bc855f2	0.006113761
76	0x3d71a04b	0.058990758
77	0x3dad1019	0.08450336
78	0x3de801f5	0.11328498
79	0xbdbe3631	-0.0928768
80	0x3deaff2e	0.11474453
81	0xbe20812a	-0.15674272
82	0x3dd53d35	0.10412065
83	0xbe011229	-0.12604584
84	0x3e02560f	0.12728141
85	0x3c906f33	0.017631149
86	0x3ca42528	0.020037249
87	0x3e139b96	0.1441482
88	0x3dae5abe	0.085134014
89	0x3cffea14	0.031239547
90	0x3d6e5471	0.058186
91	0xbdd584c3	-0.10425713
92	0x3e3a89e3	0.18216662
93	0xbe016f0d	-0.12640019
94	0xbd73b9ca	-0.059503354
95	0xbd8ad8b0	-0.06779611
96	0xbd0863f8	-0.033298463
97	0xbc0de164	-0.008659694
98	0x3e05ee81	0.13079263
99	0x3ca907f9	0.020633684
100	0x3ddeaf0b	0.108732305
101	0xbda481ed	-0.08032594
102	0x3dac179d	0.084029414
103	0x3dd0041e	0.10157035
104	0x3e1571c5	0.14594181
105	0x3dbdb8f6	0.09263794
106	0x3cb09ed4	0.02156011
107	0x3d8c4e6b	0.068508945
108	0xbc8d920a	-0.01728155
109	0xbdb625f5	-0.088939585
110	0x3da72854	0.08161989
111	0xbe05bcd4	-0.13060313
112	0x3e19cfeb	0.1502072
113	0x3d546387	0.05185273
114	0xbd3b08ce	-0.045662694
115	0xbbe76334	-0.0070613865
116	0x3dfbfff2	0.12304677
117	0xbdd79751	-0.10526908
118	0xbccc30fb	-0.0249257
119	0xbb9e72b4	-0.004835451
120	0x3d54ac54	0.051922157
121	0xbcc56005	-0.024093637
122	0x3d5bdd65	0.053677935
123	0xbd37f73b	-0.04491351
124	0xbc8e0e8f	-0.017340926
125	0x3d18d32e	0.03731077
126	0xbdcee3b5	-0.101020254
127	0xbdeb66c7	-0.114942126
128	0x3e3c548a	0.18391624
129	0xbcff3a99	-0.031155871
130	0xbd15c5c3	-0.036565553
131	0x3d289a42	0.041162737
132	0x3e238321	0.1596799
133	0x3d9ddc64	0.07708052
134	0x3e1f0261	0.15528251
135	0xbdf4efc3	-0.119597934
136	0x3d9e79db	0.07738086
137	0xbd3cbede	-0.046080463
138	0xbd06b100	-0.032883644
139	0xbdaf5770	-0.08561599
140	0x3df6a176	0.12042515
141	0x3db0a14d	0.08624516
142	0x3e016422	0.12635854
143	0x3d3e269c	0.04642354
144	0xbd3708f8	-0.044686288
145	0x3e17c5a0	0.14821482
146	0x3dbefbb7	0.093253545
147	0xbe17860a	-0.14797226
148	0xbe0fe54f	-0.14052318
149	0x3e1dc6f7	0.1540793
150	0x3d8802ea	0.06641181
151	0xbdb1a9ad	-0.08674941
152	0x3d28d678	0.04122016
153	0xbce8cb86	-0.02841736
154	0xbd3023a0	-0.043002725
155	0xbe04da53	-0.12973909
156	0x3dd653d1	0.104652055
157	0x3cb4b663	0.022059625
158	0x3e4b0894	0.19827491
159	0x3dd08973	0.10182466
160	0xbbb8afed	-0.0056362064
161	0xbe05aab4	-0.130534
162	0x3e05e8d4	0.13077098
163	0x3c805478	0.015665278
164	0x3e119a8d	0.14219113
165	0xbde55902	-0.111986175
166	0xbd0a358b	-0.03374247
167	0xbcaec319	-0.021333264
168	0x3dc7b832	0.09751929
169	0x3d950e47	0.07278114
170	0x3de291f7	0.11062997
171	0xbcc16cc2	-0.02361143
172	0xbdf7c3e4	-0.1209791
173	0xbd3c606c	-0.045990393
174	0xbd41d84e	-0.047325425
175	0xbc10b934	-0.008833218
176	0x3dd55af3	0.10417738
177	0xbdb8bab5	-0.090199865
178	0xbcf078c9	-0.02935447
179	0x3d912202	0.070865646
180	0x3d0c63bc	0.0342748
181	0x3d849edf	0.06475615
182	0xbbe87ef7	-0.0070952135
183	0x3d1e75af	0.03868645
184	0x3da5e17a	0.08099647
185	0xbdc88f19	-0.09792919
186	0xbd21b30e	-0.0394774
187	0xbdaf911f	-0.085726015
188	0x3e4a4f23	0.19756751
189	0x3ce42b2e	0.02785262
190	0x3d43f5b9	0.04784176
191	0xbcd8b380	-0.02645278
192	0x3e39ba73	0.18137531
193	0xbda5969b	-0.08085366
194	0x3c725927	0.014791763
195	0xbe13bbee	-0.14427158
196	0x3d029202	0.031877525
197	0xbc31fcf2	-0.0108635295
198	0x3c2e74b3	0.01064794
199	0xbd2bd132	-0.04194755
200	0xbd44a58f	-0.04800945
201	0xbdd7f7a8	-0.105452836
202	0xbd86d7ca	-0.06584127
203	0xbc68132b	-0.014164726
204	0xbc95b681	-0.018275501
205	0xbd8d4180	-0.06897259
206	0x3dd89597	0.10575407
207	0x3df1173d	0.117720105
208	0x3e2c87dd	0.16848703
209	0x3d7fbf62	0.062438376
210	0x3e21750e	0.15767309
211	0xbd00e15e	-0.031464927
212	0xbd12a94a	-0.035805978
213	0x3c7a4645	0.015275543
214	0x3dbd95d6	0.092570946
215	0x3e2e7a4d	0.17038842
216	0x3e346631	0.17617108
217	0xbe161c87	-0.1465932
218	0x3e3eea67	0.18644105
219	0xbde89b25	-0.113577165
220	0x3d25369d	0.040335286
221	0x3d9ed799	0.07755966
222	0xbc6a9b94	-0.014319319
223	0xbc65d527	-0.01402787
224	0x3e3c673a	0.18398753
225	0x3d04b1e9	0.03239623
226	0xbd22e59b	-0.03976975
227	0xbe24893a	-0.16067973
228	0xbd2920bd	-0.041290987
229	0x3d660f43	0.0561669
230	0xbca1b855	-0.019741217
231	0x3db7b686	0.089703605
232	0xbd44bef8	-0.048033684
233	0x3ca44edb	0.020057132
234	0x3b9e6c14	0.0048346613
235	0xbe0774f3	-0.13228206
236	0x3e215e65	0.15758665
237	0xbdd5b6dd	-0.10435269
238	0x3d15ccfa	0.036572434
239	0xbe006786	-0.12539491
240	0x3d0cf265	0.034410853
241	0xbc8d764c	-0.017268322
242	0x3e1c81f8	0.15283954
243	0xbd3336b1	-0.04375333
244	0xbd87d82f	-0.066330306
245	0xbc28b16e	-0.010296209
246	0x3dca5f73	0.09881487
247	0xbd7c00f1	-0.061524335
248	0x3bc477a2	0.0059957067
249	0xbd29ff7a	-0.041503407
250	0x3c968bb8	0.01837717
251	0xbdf3e8aa	-0.119096115
252	0x3dc78869	0.09742815
253	0x3d7dbbac	0.061946556
254	0xbd3b0ad1	-0.045664612
255	0x3d654c61	0.055981044

lstm.weight_hh_l0 f4 [256, 64]
0	0x3d6e7f99	0.058227155
1	0x3e1522ff	0.14564131
2	0xbd126ad4	-0.03574641
3	0xbdef0015	-0.116699375
4	0xbc9deeab	-0.019278845
5	0xbd0250e2	-0.031815417
6	0x3cdc8b68	0.026921943
7	0x3aa82b9a	0.0012830377
8	0xbbd0d3d6	-0.006372909
9	0xbb789070	-0.0037927888
10	0xbdb445cd	-0.08802376
11	0x3ddd7b00	0.10814476
12	0x3d4f0424	0.05054106
13	0x3dd019b9	0.10161156
14	0x3c6b373e	0.0143564325
15	0xbb99e9b0	-0.004697047
16	0x3d2d63c5	0.042331476
17	0xbd65e3ee	-0.056125574
18	0xbd343576	-0.043996297
19	0xbdb7ec13	-0.089805745
20	0xbdb4347f	-0.08799075
21	0x3d59ca04	0.053171173
22	0x3c6d9442	0.014500679
23	0xbdd87549	-0.10569245
24	0xbe06a706	-0.13149652
25	0x3ce4580c	0.027874015
26	0x3d2e0b93	0.042491507
27	0x3d835792	0.06413187
28	0x3ddd563f	0.10807466
29	0x3e055f41	0.13024618
30	0xbd80950f	-0.06278431
31	0xbd42af72	-0.0475306
32	0xbdf6dc3a	-0.12053724
33	0x3dc19314	0.09451881
34	0xbdbc6ac0	-0.092000484
35	0x3dbdc5e9	0.09266264
36	0xbcc2be51	-0.02377239
37	0xbdc88850	-0.097916245
38	0x3ce995c8	0.028513804
39	0x3dda549f	0.106606714
40	0x3e177a08	0.14792645
41	0xbb8304ae	-0.0039983606
42	0x3d0884e7	0.03332987
43	0x3db5b8f0	0.08873165
44	0xbd139d8d	-0.036038924
45	0x3cf22036	0.029556375
46	0x3d76c65d	0.060247768
47	0x3de9e374	0.11420336
48	0xbddad0ea	-0.106843784
49	0xbd92616b	-0.07147487
50	0xbda05615	-0.07828919
51	0xbdcfa961	-0.10139728
52	0xbdb31146	-0.08743529
53	0x3d3f5fc8	0.046722203
54	0xbd4885b9	-0.048955653
55	0x3d41f3e5	0.047351737
56	0xbd5a7489	-0.053333793
57	0xbd563f5d	-0.05230652
58	0x3d8d6a55	0.06905047
59	0x3da42fbe	0.080169186
60	0xbe03d69c	-0.12874836
61	0xbdc1e49e	-0.094674334
62	0x3dabef42	0.08395244
63	0x3d0893f7	0.033344235
64	0xbd964027	-0.07336455
65	0x3d850486	0.064950034
66	0xbdd1b493	-0.1023952
67	0xbca6818a	-0.02032544
68	0x3d71b477	0.059009995
69	0xbdbc2775	-0.09187213
70	0xbdb4def1	-0.08831585
71	0x3e19a703	0.15005116
72	0xbcd37575	-0.025812844
73	0x3bfc5661	0.007700727
74	0x3dd94c4a	0.10610254
75	0x3d90d224	0.07071331
76	0xbb661951	-0.0035110305
77	0xbda60464	-0.08106306
78	0xbdea9d83	-0.11455824
79	0x3da73a32	0.08165397
80	0x3c36a3e4	0.011147473
81	0x3d9740a5	0.07385377
82	0xbdc87c43	-0.09789326
83	0x3de24ab7	0.11049407
84	0xbd2a3314	-0.04155262
85	0x3d3e381b	0.046440225
86	0x3d6d4d30	0.05793494
87	0x3cecfe31	0.028929802
88	0xbbb2b8e8	-0.0054541714
89	0xbd736d28	-0.05943027
90	0xbdc8be92	-0.098019734
91	0x3d61ca76	0.055124722
92	0x3d96714b	0.07345828
93	0x3d9d4eaa	0.076810196
94	0xbd242447	-0.04007366
95	0xbd94bae3	-0.07262208
96	0x3d944399	0.07239456
97	0x3d7f9049	0.06239346
98	0xbd29d9c3	-0.04146744
99	0xbd5e007f	-0.05419969
100	0x3cf43029	0.02980812
101	0x3ca072e6	0.019586038
102	0xbde960f0	-0.113954425
103	0xbc2a494a	-0.01039345
104	0x3b4c2b8f	0.0031153893
105	0xbc31d532	-0.010854052
106	0xbd86fee3	-0.065915845
107	0x3d9ce287	0.07660394
108	0x3b1b0aec	0.0023657633
109	0x3d1eb268	0.03874436
110	0xbd2e8bec	-0.04261391
111	0x3cc6ebc3	0.024282342
112	0x3d5f21c4	0.05447556
113	0x3de0a2dc	0.10968563
114	0x3dacd396	0.08438794
115	0xbdc6c6db	-0.097058974
116	0x3c392f0e	0.011302723
117	0xbdc462b0	-0.09589136
118	0xbd9d13b9	-0.076697774
119	0x3d041dee	0.032255106
120	0x3d8edd49	0.069758005
121	0xbdc98977	-0.098406725
122	0xbdbecc63	-0.093163274
123	0x3da50559	0.080576606
124	0xbe0af2b3	-0.13569145
125	0xbdd05391	-0.10172189
126	0x3dcc03cb	0.09961661
127	0xbd9bf2a9	-0.07614643
128	0xbd5dc67d	-0.05414437
129	0x39afa7ef	0.0003350372
130	0xbd6d55f5	-0.057943303
131	0x3d1567ca	0.036475934
132	0xbcfadbe6	-0.030622434
133	0xbd98490d	-0.07435808
134	0x3d42196c	0.047387525
135	0xbd094d38	-0.033520907
136	0xbca1f605	-0.019770632
137	0xbc2ac39d	-0.010422614
138	0xbe0fdd25	-0.14049204
139	0x3cb6b60e	0.022303607
140	0x3dcf37da	0.10118075
141	0x3d5cbff9	0.053894017
142	0xbbb22c23	-0.0054373904
143	0xbda73610	-0.081646085
144	0x3ab257d9	0.0013606503
145	0xbc6dedf7	-0.014522067
146	0xbcc9b464	-0.02462215
147	0x3ba48eb6	0.0050218953
148	0x3dd96c07	0.10616308
149	0xbc9363d4	-0.017991938
150	0x3e12b00d	0.1432497
151	0x3d28725e	0.041124694
152	0x3d629939	0.055321906
153	0x3dd097c0	0.10185194
154	0xbd155ef2	-0.0364675
155	0x3dea00e9	0.11425955
156	0xbbff8e24	-0.007798927
157	0x3e12ba09	0.1432878
158	0xbd799015	-0.060928423
159	0x3da9248d	0.08258925
160	0xbdd0fb7a	-0.10204215
161	0x3e02c5b0	0.12770724
162	0x3d380e08	0.044935256
163	0x3d36a029	0.044586334
164	0x3c0a2ee7	0.008434034
165	0x3d90c0d9	0.07068033
166	0x3d899bea	0.06719191
167	0xbdd7d492	-0.105385914
168	0xbca214c4	-0.019785292
169	0x3e131975	0.1436518
170	0x3d466f22	0.04844583
171	0x3de823fc	0.113349885
172	0xbc5185c8	-0.012788244
173	0x3da22891	0.07917894
174	0x3e106b3d	0.14103408
175	0xbd0f1ac8	-0.03493765
176	0xbd3ec474	-0.04657407
177	0xbd8f8a59	-0.070088096
178	0x3dbf445c	0.093392104
179	0xbe0aa10b	-0.13537996
180	0xbcff9074	-0.03119681
181	0xbda633fc	-0.08115384
182	0xbdd36f64	-0.103239805
183	0x3d9a47de	0.07533239
184	0x3d975fb9	0.073913045
185	0x3ce4b515	0.027918378
186	0xbd03924b	-0.032121938
187	0x3c57042f	0.013123556
188	0xbc05e6ad	-0.008172673
189	0xbbc7dae4	-0.006099092
190	0xbd917036	-0.07101481
191	0xbdfd84f3	-0.12378874
192	0x3d3413d6	0.04396423
193	0x39a6335d	0.00031700256
194	0xbddae7b5	-0.10688726
195	0xbe57fab7	-0.21091734
196	0xbe2ed99c	-0.17075199
197	0x3dc40d31	0.095728286
198	0xbe32708e	-0.17425749
199	0x3d564e4d	0.052320767
200	0x3d6f4a9f	0.058420774
201	0x3c9a81bc	0.01886069
202	0xbd320a90	-0.043467104
203	0xbb3b91a9	-0.0028620756
204	0x3e06e38a	0.13172737
205	0x3d8a48bf	0.067521565
206	0xbda74c6a	-0.08168872
207	0x3e4d153e	0.20027635
208	0x3cba0811	0.022708924
209	0xbc29389d	-0.010328439
210	0x3d79a864	0.060951605
211	0x3dbb34b8	0.09140915
212	0xbd4db207	-0.05021861
213	0xbd174ab9	-0.036936495
214	0xbd039f22	-0.032134183
215	0xbe2b7f69	-0.16747822
216	0x3b22896a	0.0024801143
217	0xbe10aba3	-0.14127974
218	0xbdedf7e6	-0.116195485
219	0xbdfd8a37	-0.12379878
220	0x3c1018e7	0.008795
221	0x3cbec490	0.023287088
222	0x3cf7199e	0.030163582
223	0xbe1e83c7	-0.15479957
224	0xbda0c737	-0.07850497
225	0xbc9a8278	-0.01886104
226	0xbc9a48cb	-0.018833539
227	0x3d6ae107	0.05734351
228	0x3d64376e	0.055716924
229	0xbe31b253	-0.17353182
230	0xbd407444	-0.04698588
231	0x3c43e627	0.011956728
232	0x3d514372	0.05108971
233	0x3a67d4be	0.0008843652
234	0xbc8b492e	-0.017002668
235	0x3cef48a0	0.029209435
236	0x3d3af97a	0.045648076
237	0xbd3c4543	-0.04596449
238	0x3dd505fe	0.104015335
239	0x3daf2797	0.08552473
240	0xbe1e2e80	-0.15447426
241	0xbd001630	-0.03127116
242	0x3caed745	0.021342883
243	0xbe1291a4	-0.1431337
244	0x3e0930f9	0.13397588
245	0x3b9093a7	0.004412133
246	0xbe1d0e4d	-0.15337487
247	0x3d79d04d	0.060989667
248	0xbdcc92f7	-0.09988969
249	0xbe21e1e7	-0.15808831
250	0xbd4cb76c	-0.049979612
251	0x3cc03a84	0.023465402
252	0xbe372fa9	-0.17889275
253	0xbe456f6f	-0.1928079
254	0x3d8f70f1	0.07003964
255	0x3d387ffa	0.045043923

lstm.bias_ih_l0 f4 [256]
0	0xba4166e6	-0.0007377699
1	0xbd3aaae7	-0.04557314
2	0x3d601429	0.054706726
3	0x3e2890c7	0.16461478
4	0x3d039a8f	0.03212982
5	0x3d11156d	0.035420824
6	0xbd583efe	-0.05279445
7	0x3d07b31d	0.0331298
8	0xbc21a413	-0.0098657785
9	0xbdd9b4ce	-0.10630189
10	0x3dbd1278	0.09232038
11	0x3d9ac2d7	0.07556694
12	0xbdb1e06e	-0.08685385
13	0x3de7a0d3	0.11309972
14	0x3d871f42	0.06597759
15	0xbcf23d9c	-0.029570393
16	0xbd99194d	-0.07475529
17	0x3e1099fc	0.1412124
18	0xbdc0a7f8	-0.094070375
19	0x3de19aa8	0.110158265
20	0x3de6177c	0.11234948
21	0xbbd7656d	-0.00657337
22	0xbd6bdecf	-0.057585534
23	0x3d952d94	0.07284084
24	0xbd54d065	-0.051956553
25	0xbd5336d7	-0.05156597
26	0xbd37404a	-0.044739045
27	0x3de9da49	0.11418588
28	0xbdd09d91	-0.101863034
29	0xbda41d8c	-0.08013448
30	0xbbb44026	-0.005500811
31	0x3ca09a67	0.019604875
32	0x3e1958e1	0.14975311
33	0xbdcbef3d	-0.099577405
34	0xbd8d2800	-0.06892395
35	0xbd9ed448	-0.07755333
36	0x3dcb9289	0.09940059
37	0xbdb55902	-0.088548675
38	0xbd8f65ee	-0.070018634
39	0x3d2d8f02	0.04237271
40	0xbcc1c602	-0.023653988
41	0x3c7704dd	0.015076843
42	0xbd9bb299	-0.07602424
43	0x3e488cdf	0.19584988
44	0x3e05079e	0.12991187
45	0xbd9a5335	-0.07535402
46	0x3de69076	0.112580225
47	0x3d8ce0d4	0.0687882
48	0xbd045bcb	-0.032314103
49	0x3d60d7e5	0.054893393
50	0x3d834083	0.06408789
51	0xbbf6bb66	-0.007529664
52	0xbdc97dae	-0.098384246
53	0xbd8cc36c	-0.06873211
54	0x3df7a7c6	0.12092547
55	0xbe0a76b8	-0.1352185
56	0x3dffb2fb	0.1248531
57	0xbd50b2b2	-0.050951667
58	0xbb8fe773	-0.0043916046
59	0x3c8ac656	0.016940277
60	0xbd6c7269	-0.057726298
61	0xbdb73780	-0.08946133
62	0xbd83e54d	-0.0644022
63	0xbdbd41c8	-0.092410624
64	0x3e0c889e	0.1372399
65	0xbc3db47c	-0.011578675
66	0xbd8666b6	-0.06562559
67	0x3da48abe	0.080342755
68	0x3d9b8f77	0.07595723
69	0x3e00e283	0.12586407
70	0x3dddd15e	0.10830949
71	0x3d95b19b	0.07309266
72	0x3dbe8e62	0.09304501
73	0x3de9a107	0.11407667
74	0x3d55feca	0.05224494
75	0xbdd87528	-0.10569221
76	0x3d316239	0.043306563
77	0xbd92c714	-0.071668774
78	0x3e0e6c5a	0.1390852
79	0xbd75695a	-0.059914924
80	0xbdd0e629	-0.102001496
81	0x3cc2f504	0.023798473
82	0xbbc4ec04	-0.0060095806
83	0x3de1a2bd	0.11017368
84	0x3db7fc03	0.08983614
85	0xbdd95207	-0.106113486
86	0xbd05fe02	-0.032712944
87	0x3d70ba71	0.058771554
88	0xbd202bc9	-0.039104257
89	0x3d39a57d	0.045323838
90	0x3b8e3520	0.004339829
91	0x3d0a999d	0.033837903
92	0xbd56fed0	-0.052489102
93	0xbb9f30e4	-0.004858123
94	0x3d2c8bd9	0.042125557
95	0x3d80666b	0.06269535
96	0xbd077260	-0.03306806
97	0xbd497227	-0.04918113
98	0xbdccee7b	-0.10006424
99	0xbc59256f	-0.013253554
100	0xbd8ca1b4	-0.0686678
101	0xbb85ec6e	-0.0040870225
102	0xbd5ce64e	-0.053930573
103	0x3dd7f33a	0.10544439
104	0xbdb3aba8	-0.08772975
105	0xbda8fe25	-0.08251599
106	0x3dfb70e3	0.12277391
107	0x3c8adfd4	0.016952433
108	0xbcee1463	-0.029062456
109	0xbd2ac988	-0.0416961
110	0xbd17f412	-0.037097998
111	0x3dc1e80b	0.09468087
112	0x3dfe2992	0.12410273
113	0x3968a455	0.00022186463
114	0x3ddcbe0e	0.107784376
115	0xbccf6121	-0.02531487
116	0x3dafc376	0.08582203
117	0xbdb1a6e4	-0.0867441
118	0x3b3b8541	0.002861336
119	0xbce08a95	-0.027409831
120	0x3dea2fae	0.114348754
121	0xbbbce108	-0.0057641305
122	0x3d9fce3e	0.078030095
123	0xbd6fcb10	-0.058543265
124	0xbd183b88	-0.03716615
125	0xbd7bf322	-0.061511166
126	0x3e14b12a	0.14520708
127	0xbc3a1616	-0.011357805
128	0x3db6d599	0.08927459
129	0x3d734332	0.059390254
130	0xbdd15ee2	-0.102231756
131	0xbcf5c458	-0.03000085
132	0xbce8f144	-0.028435357
133	0xbdddcf37	-0.10830539
134	0xbd372bc6	-0.04471948
135	0xbca368fe	-0.019947525
136	0xbde9de59	-0.114193626
137	0xbd793adb	-0.060847145
138	0x3d56be4b	0.05242757
139	0x3dd36e4a	0.1032377
140	0x3d616ec6	0.055037282
141	0x3dcb921c	0.099399775
142	0x3c4f0fa3	0.012638005
143	0x3d86f345	0.06589369
144	0xbd04f575	-0.03246065
145	0x3def346e	0.11679922
146	0x3d88d84d	0.06681881
147	0x3da17c9b	0.07885095
148	0x3d5bd38c	0.053668544
149	0xbd3810cb	-0.04493789
150	0x3da8270a	0.08210571
151	0xbca4bc3a	-0.020109285
152	0xbdbd98ef	-0.092576854
153	0xbca12076	-0.019668799
154	0x3cec8b03	0.02887488
155	0xbc53b24e	-0.012920929
156	0x3db8b5dc	0.09019062
157	0xbd8dc571	-0.069224246
158	0x3bc81579	0.0061060754
159	0xbda82604	-0.08210376
160	0x3da72b23	0.081625246
161	0x3cbebde7	0.023283912
162	0xbd2dabc0	-0.04240012
163	0xbd16f604	-0.036855713
164	0xbd06e389	-0.03293184
165	0x3d59f32e	0.05321043
166	0xbd9db765	-0.07700995
167	0xbe0a4707	-0.13503657
168	0xbcce47c8	-0.025180712
169	0xbd2fa636	-0.04288312
170	0x3df8e7a8	0.1215356
171	0xbd4298a0	-0.047508836
172	0xbdedd534	-0.11612931
173	0xbe0cfbb1	-0.13767888
174	0x3da56849	0.080765314
175	0xbd3059b6	-0.043054305
176	0xbb769758	-0.003762683
177	0x3dd6263f	0.104565136
178	0x3d9990b8	0.07498306
179	0xbca0b5db	-0.019617965
180	0x3bae2956	0.005314986
181	0x3b4e20be	0.0031452621
182	0xbdf3e1f7	-0.11908334
183	0xbd668227	-0.056276467
184	0x3cf29a92	0.02961472
185	0xbd520696	-0.051275812
186	0x3d90dbda	0.07073183
187	0x3c859c2f	0.016309826
188	0x3debfc2c	0.11522707
189	0xbdd58a1f	-0.10426735
190	0xbdb2e12f	-0.087343566
191	0xbdb645a6	-0.08900003
192	0xbdd252f7	-0.102697305
193	0xbdaa6a1e	-0.083210215
194	0x3dea5961	0.11442829
195	0x3e369539	0.17830361
196	0x3ddca95c	0.1077449
197	0xbcb3616c	-0.02189704
198	0x3cf12623	0.02943713
199	0x3d35a3b0	0.044345558
200	0x3d9557b5	0.072921194
201	0xbdeecf30	-0.11660612
202	0x3dff9911	0.12480367
203	0x3c8688c4	0.016422637
204	0x3d39e551	0.04538471
205	0x3dd812ce	0.10550462
206	0x3db5bb23	0.08873584
207	0x3d8c8ba6	0.06862573
208	0x3d3c085d	0.045906413
209	0x3d247270	0.0401482
210	0xbd4686a4	-0.048468247
211	0x3d803fad	0.06262145
212	0xbd96d55e	-0.07364915
213	0xbdd06f74	-0.10177508
214	0xbdc29bcc	-0.09502372
215	0x3da8e394	0.08246532
216	0xbdc27a7e	-0.0949602
217	0x3d2c5a52	0.042078324
218	0x3b3147e3	0.0027050904
219	0xbc877dcf	-0.016539482
220	0x3d5ab890	0.05339867
221	0x3dfaf90f	0.122545354
222	0xbd6a8631	-0.05725688
223	0x3d5bb605	0.053640384
224	0x3daf87b9	0.08570809
225	0xbd0d668b	-0.03452162
226	0x3d95dfa0	0.07318044
227	0x3c496eaf	0.012294455
228	0x3bd7b550	0.0065828934
229	0x3dc5040a	0.09619911
230	0xbcfeab41	-0.03108752
231	0xbdeb975b	-0.11503478
232	0x3c413634	0.011792708
233	0x3dbb1b43	0.09136059
234	0x3df33b6f	0.118765704
235	0x3e3bfa79	0.18357266
236	0xbbe390fd	-0.006944774
237	0x3dd1ff52	0.102537766
238	0x3e109a65	0.14121397
239	0xbdd0fa86	-0.102040336
240	0x3d9dcd28	0.07705146
241	0xbd4660b8	-0.048432082
242	0xbc0067cc	-0.007837247
243	0x3dd7e984	0.105425864
244	0x3d8c8bd8	0.068626106
245	0xbd7f0cac	-0.062267944
246	0x3d304731	0.043036643
247	0xbb802b46	-0.0039114086
248	0xbd27fc1e	-0.041011922
249	0xbd21102a	-0.039322056
250	0x3d220444	0.03955485
251	0x3da73f1d	0.08166335
252	0x3e0bffef	0.1367185
253	0x3e00146f	0.12507795
254	0x3ced1e24	0.028945036
255	0xbe10c043	-0.14135842

lstm.bias_hh_l0 f4 [256]
0	0x3d70f795	0.058829863
1	0x3d4506d2	0.048102207
2	0x3dba61e5	0.09100703
3	0x3ccf0d37	0.025274856
4	0xbd1d1ec6	-0.038359426
5	0x3db98160	0.090578794
6	0x3e02ba1f	0.12766312
7	0xbd88c208	-0.066776335
8	0x3dc1c75f	0.09461855
9	0xbae1484e	-0.0017187686
10	0x3acd3a48	0.0015657628
11	0xbb4d7f35	-0.003135634
12	0xbd9348b3	-0.07191601
13	0xbd91ecb9	-0.071252294
14	0xbd0a5d02	-0.033780105
15	0xbd10e746	-0.03537681
16	0x3d01f36b	0.031726282
17	0xbd5ce123	-0.053925645
18	0xbde4a3d8	-0.11164063
19	0x3df3c448	0.11902672
20	0x3dd31b46	0.10307936
21	0x3cd070f1	0.02544448
22	0x3dbcd2b8	0.09219879
23	0xbbe628ee	-0.007023922
24	0x3e0324a7	0.1280695
25	0x3dc3c53e	0.09559105
26	0xbd63917e	-0.055558674
27	0xbd30faff	-0.04320812
28	0x3da66a7d	0.0812578
29	0xbcd5e25f	-0.026108919
30	0x3ce1d1bd	0.027565831
31	0x3c9a258f	0.018816737
32	0xbc8149d7	-0.01578228
33	0xbdf9969f	-0.12186932
34	0xbd8089d8	-0.062762916
35	0xbc01541d	-0.007893589
36	0x3dec1d11	0.115289815
37	0x3da9807e	0.08276461
38	0x3c1ede46	0.009696549
39	0xbd308066	-0.0430912
40	0x3da78cdd	0.081811644
41	0xbc3ffac7	-0.011717505
42	0x3de315fd	0.11088178
43	0xbc3a26b6	-0.0113617685
44	0x3d89af9f	0.0672295
45	0x3de9ab6d	0.1140965
46	0xbd45d530	-0.048299015
47	0xbda113d8	-0.07865113
48	0xbda38386	-0.079840705
49	0xbdd9eb00	-0.10640526
50	0x3dbe97b3	0.09306278
51	0x3dd43c39	0.10363049
52	0x3dc40a74	0.09572306
53	0xbdf0c711	-0.11756719
54	0x3d498ff7	0.04920956
55	0xbcc4de53	-0.024031794
56	0xbbdd09bf	-0.0067455466
57	0x3d981bda	0.07427187
58	0x3dc8c0bb	0.098023854
59	0xbdfe3a7a	-0.12413497
60	0x3d229569	0.03969327
61	0xbd5932de	-0.053027026
62	0x3bc58813	0.006028184
63	0xbe0c7917	-0.13718067
64	0x3de3ca4a	0.11122568
65	0x3dc24b0a	0.09486969
66	0xbdd24df6	-0.10268776
67	0x3d0d0ba6	0.034434937
68	0xbd9cd755	-0.07658259
69	0xbdf05226	-0.117344186
70	0x3d6ee580	0.058324337
71	0xbc6b6036	-0.0143662
72	0xbdb62a06	-0.08894734
73	0x3caf7058	0.021415874
74	0xbd914335	-0.07092897
75	0x3d06c523	0.032902848
76	0x3c49c462	0.012314888
77	0x3c94e41f	0.018175183
78	0x3c2921f1	0.010323034
79	0x3c9824a6	0.018572163
80	0xbde6b949	-0.11265809
81	0xbd358760	-0.044318557
82	0x3c17449d	0.009232667
83	0x3c2d14d5	0.010564049
84	0xbdec6e99	-0.11544532
85	0xbd7415e6	-0.059591196
86	0xbdbd2004	-0.09234622
87	0x3b491e63	0.0030688278
88	0x3d878752	0.06617607
89	0x3d5abbf9	0.05340192
90	0x3cf10a1d	0.029423768
91	0x3dbf7f5e	0.09350465
92	0xbdcb2549	-0.09919221
93	0x3e0cf114	0.13763839
94	0x3dbed525	0.09317998
95	0xbdbbdcec	-0.09172997
96	0x3db7159c	0.089396685
97	0xbdc221d3	-0.09479108
98	0xbd081b7d	-0.03322934
99	0xbd93c0d6	-0.07214515
100	0xbcece94e	-0.028919842
101	0x3dba8b13	0.091085576
102	0xbd805e72	-0.06268014
103	0xbb4ab88e	-0.0030932757
104	0xbd2986f3	-0.041388463
105	0x3cd71a45	0.026257643
106	0x3dc7a760	0.09748721
107	0x3cfbc7f6	0.030734997
108	0x3d4bd63b	0.049764853
109	0x3d6964a0	0.05698073
110	0xbdc2eb3c	-0.09517524
111	0xbd87f071	-0.066376574
112	0x3df3db2f	0.1190704
113	0x3dd4fd55	0.10399882
114	0x3e08b135	0.13348849
115	0x3a627ca4	0.0008639789
116	0x3dd42242	0.10358097
117	0xbd314be0	-0.04328525
118	0x3d8a2986	0.06746201
119	0xbd5c005f	-0.05371129
120	0xbd22d1cd	-0.039750863
121	0x3db9aa65	0.09065703
122	0xbdbe2418	-0.09284228
123	0xbd6fe0ec	-0.05856411
124	0x3df3cdfb	0.11904522
125	0xbd83689d	-0.06416438
126	0xbd410af2	-0.04712958
127	0xbdacc521	-0.08436037
128	0xbd929e75	-0.071591295
129	0xbca8cd57	-0.020605726
130	0xbe0027af	-0.12515138
131	0x3d6050cb	0.05476455
132	0xbc9dd70e	-0.019267585
133	0xbca69c30	-0.020338148
134	0xbda6a3d9	-0.0813672
135	0x3dd56068	0.10418779
136	0x3c603ebd	0.013686833
137	0xbdbbd133	-0.09170761
138	0x3d12611a	0.035737135
139	0x3cb39064	0.021919437
140	0xbd0572c6	-0.03258016
141	0x3d4bda88	0.049768955
142	0xba4a3e42	-0.00077149656
143	0xbdbac39d	-0.091193415
144	0x3da7d665	0.081951894
145	0x3da766fe	0.08173941
146	0x3dba364b	0.09092387
147	0xbcb8a9e7	-0.022541953
148	0x3d9191ee	0.07107912
149	0xbdce47f9	-0.100723214
150	0x3d66bd71	0.05633301
151	0xbda2eff9	-0.079559274
152	0xbb1b1354	-0.0023662644
153	0xbdb05ce4	-0.086114675
154	0xbcd8c251	-0.026459845
155	0xbc0a7e6c	-0.008452993
156	0x3dd1769c	0.10227701
157	0x3d55486d	0.052071024
158	0x3d70dd03	0.058804523
159	0xbdd700a0	-0.10498166
160	0xbd9eb011	-0.07748426
161	0x3d459766	0.048240088
162	0x3d843ef3	0.06457319
163	0x3d8e5e03	0.06951525
164	0x3de1c1e9	0.110233136
165	0xbdef6138	-0.11688465
166	0xbcb7ca59	-0.022435354
167	0x3c873e68	0.01650925
168	0x3a41d31d	0.0007393824
169	0x3d00a5f6	0.031408273
170	0x3de00b42	0.10939647
171	0x3d647e95	0.05578478
172	0xbd3b115d	-0.045670856
173	0xbd4ccfa4	-0.05000271
174	0x3dfd2424	0.12360409
175	0x3db32dcf	0.08748972
176	0xbdaf0c2a	-0.08547242
177	0x3d18a16f	0.03726333
178	0xbd1a0386	-0.037601016
179	0xbd26b122	-0.04069627
180	0x3dadf4f9	0.084939905
181	0x3d37a7c4	0.04483773
182	0xbd6c0603	-0.05762292
183	0xbda89ff9	-0.08233637
184	0xbda14c04	-0.07875827
185	0xbd63bb76	-0.0555987
186	0x3de93294	0.113866
187	0x3d778b2d	0.060435463
188	0xbd9c2fb8	-0.07626289
189	0xbde85899	-0.11345024
190	0x3d749386	0.059711
191	0xbd58f0a8	-0.052963883
192	0xbdb90e5b	-0.09035941
193	0xbdb1a33a	-0.08673711
194	0xbd960e0b	-0.07326897
195	0x3b459281	0.0030147138
196	0x3d3e809c	0.04650937
197	0xbdac9f98	-0.084288776
198	0x3d41ecdc	0.047345027
199	0x3d5b85f0	0.05359453
200	0x3da4b4e0	0.08042312
201	0xbd67cb79	-0.05659053
202	0x3d70d983	0.058801185
203	0x3da0e04e	0.07855283
204	0x3d9f8cab	0.07790502
205	0x3dab3fbc	0.08361766
206	0xbd1e016a	-0.038575567
207	0x3d43e1e6	0.047822855
208	0x3d958414	0.073005825
209	0xbd83100c	-0.06399545
210	0x3dea9b45	0.114553966
211	0xbd8a20d5	-0.067445435
212	0xbbaeb3c9	-0.0053314907
213	0x3d3dfbf0	0.046382844
214	0xbe18a167	-0.1490532
215	0x3da86394	0.08222118
216	0xbdc88108	-0.09790236
217	0xbcb914c5	-0.022592911
218	0x3e112ffe	0.14178464
219	0xbdccb24f	-0.09994947
220	0x3ca04b31	0.019567104
221	0xbccb3506	-0.024805557
222	0x3d8e5124	0.0694907
223	0xbd8dc192	-0.06921686
224	0xbcd826cc	-0.026385687
225	0x3d261fee	0.040557794
226	0x3c162878	0.009164922
227	0x3d98973b	0.0745072
228	0x3dc86634	0.09785119
229	0xbd49347f	-0.04912233
230	0x3db72562	0.08942677
231	0xbda0d503	-0.07853129
232	0xbd6ef4cb	-0.05833892
233	0x3cc9fae1	0.024655761
234	0x3d8c12ff	0.06839561
235	0x3d34299c	0.043984994
236	0xbcbdf244	-0.02318681
237	0x3e05020b	0.1298906
238	0xbdc4376a	-0.09580882
239	0xbccaa06c	-0.024734698
240	0xbc7b4dbc	-0.015338358
241	0xbd198d5f	-0.037488338
242	0xbd969194	-0.073519856
243	0x3d7a40aa	0.061096825
244	0x3dc6b4da	0.097024634
245	0xbcb12067	-0.021621896
246	0x3db321f3	0.0874671
247	0x3cf757d7	0.030193252
248	0xbda4b58f	-0.08042442
249	0xba88a548	-0.0010425234
250	0xbd3f50a4	-0.046707764
251	0x3cf1b005	0.029502878
252	0x3ca9863b	0.020693889
253	0x3d71f237	0.059068885
254	0x3d4b9614	0.049703673
255	0xbc9c1532	-0.019053075

lstm.weight_ih_l1 f4 [256, 64]
0	0x3d58fb58	0.052974075
1	0x3d37ea5f	0.044901248
2	0x3d485feb	0.0489196
3	0x3dccf122	0.1000693
4	0xbcaeb71a	-0.021327544
5	0xbc94d6dd	-0.018168861
6	0x3d2e6130	0.042573154
7	0xbe036219	-0.1283039
8	0xbdfd89d1	-0.12379802
9	0x3d71a1dc	0.05899225
10	0x3df85d81	0.121272095
11	0x3d244b14	0.040110663
12	0xbd9c5cbd	-0.07634876
13	0xbd87df56	-0.06634395
14	0x3e0f8466	0.1401535
15	0xbcbb3e38	-0.022856817
16	0xbde7695d	-0.11299393
17	0xbe06ba4f	-0.13157009
18	0xbde42d11	-0.11141408
19	0xbd792cfa	-0.06083391
20	0x3daf1034	0.085480124
21	0xbd700558	-0.058598846
22	0xbd6601bf	-0.05615401
23	0x3e03880a	0.12844864
24	0x3da980a4	0.082764894
25	0x3d086747	0.033301618
26	0x3e0746cb	0.13210599
27	0xbcc3a845	-0.023883948
28	0xbde1ee9e	-0.11031841
29	0x3dabf777	0.083968095
30	0xbbee3d41	-0.0072704856
31	0x3d22a0c6	0.039704107
32	0x3cdffc46	0.027341973
33	0xbd97f5aa	-0.074199036
34	0xbd482164	-0.04885997
35	0xbe145aa4	-0.14487702
36	0xbd823127	-0.06357031
37	0x3c4b3f6f	0.0124052605
38	0x3d9e6a50	0.07735121
39	0x3b92a566	0.0044752834
40	0xbc0540fa	-0.008133167
41	0xbd2b199e	-0.041772477
42	0xbd7281fe	-0.059206
43	0x3d89217b	0.06695839
44	0x3cc1180b	0.023571035
45	0xbdd2bcc1	-0.10289908
46	0x3d4b3767	0.049613383
47	0x3d9ed97a	0.07756324
48	0x3d3df2ad	0.04637401
49	0xbc693694	-0.014234204
50	0xbdd7e8c0	-0.105424404
51	0x3d745e7e	0.059660427
52	0xbdba77c7	-0.09104877
53	0x3db3798d	0.08763418
54	0xbde738d8	-0.11290139
55	0xbd41af6e	-0.047286443
56	0xbdc3b042	-0.09555103
57	0x3cef0d46	0.029181134
58	0x3dc8683c	0.09785506
59	0x3d772c05	0.060344715
60	0x3ddb3695	0.1070377
61	0xbdd2a45a	-0.10285254
62	0xbe051429	-0.12995972
63	0xbd33e675	-0.043920953
64	0xbe1ae2c0	-0.15125561
65	0x3d8c3553	0.06846108
66	0x3d2acc37	0.04169866
67	0x3e0488c0	0.12942791
68	0x3e074a0b	0.13211839
69	0xbc2478d0	-0.01003857
70	0x3d86fa9b	0.06590768
71	0x3caae304	0.020860203
72	0x3d56c5e2	0.05243481
73	0xbcced29f	-0.025246916
74	0x3d8f00c8	0.06982571
75	0x3d4b9815	0.049705584
76	0xbcc750ec	-0.024330579
77	0xbe14ed38	-0.14543617
78	0x3b3b6d8c	0.002859923
79	0xbe0b0d88	-0.1357938
80	0x3ccbdead	0.024886454
81	0xbd0fdcd0	-0.035122693
82	0x3d83ab58	0.064291656
83	0x3b34d31a	0.0027591647
84	0x3c759f55	0.014991601
85	0xbdaa7dde	-0.083247885
86	0xbd779337	-0.06044313
87	0x3d6cb482	0.057789333
88	0xbd805056	-0.06265323
89	0x3d2c8548	0.042119294
90	0x3d8f8e03	0.070095085
91	0x3dcdac30	0.10042608
92	0xbb64933d	-0.00348778
93	0xbe19c688	-0.1501714
94	0xbd58f381	-0.0529666
95	0xbda4604f	-0.08026182
96	0xbca9f9e0	-0.020749032
97	0xbcabff46	-0.020995747
98	0xbcae852c	-0.021303736
99	0x3cfd6594	0.030932225
100	0xbce269b9	-0.027638303
101	0xbd7c2c55	-0.061565716
102	0x3d04a88a	0.032387294
103	0x3d0455a3	0.032308232
104	0xbd006bbc	-0.031352744
105	0xbd266ed3	-0.040633034
106	0x3d60f09b	0.05491696
107	0xbd706d67	-0.058698084
108	0x3da92485	0.08258919
109	0xbc1146ad	-0.008866948
110	0x3d63858d	0.055547286
111	0xbda5085a	-0.080582336
112	0x3e0710d3	0.13190012
113	0x3c16a12e	0.009193702
114	0x3d360343	0.044436704
115	0xbbc2d558	-0.0059458427
116	0x3d893045	0.0669866
117	0xbc42b524	-0.011884008
118	0x3df0d993	0.11760249
119	0x3cd8c373	0.026460385
120	0x3d0a1a8b	0.03371672
121	0x3ce0fecc	0.027465247
122	0x3da5bbbf	0.0809245
123	0x3be0c525	0.006859439
124	0x3de208dc	0.11036846
125	0xbd954127	-0.072878174
126	0xbe097334	-0.13422853
127	0xbd4a49ed	-0.049386907
128	0x3d711422	0.05885709
129	0x3d64c5cc	0.055852696
130	0xbdf75289	-0.12076289
131	0x3b9eb617	0.004843484
132	0x3d93debe	0.07220219
133	0x3e059738	0.13045967
134	0xbda4a245	-0.08038763
135	0x3e0d68d9	0.13809527
136	0xbd8065d2	-0.06269421
137	0xbd41788d	-0.047234107
138	0x3d0cb173	0.034348916
139	0x3d9dc401	0.077034004
140	0xbcfdd02b	-0.030983051
141	0x3b27c0aa	0.0025597014
142	0xbd795ceb	-0.06087963
143	0x3e03a82c	0.12857121
144	0xbc3a89b4	-0.01138537
145	0xbcc87807	-0.024471296
146	0xbd209414	-0.03920372
147	0xbbab9b79	-0.0052370396
148	0x3dc9117b	0.09817787
149	0xbc7e07b6	-0.015504768
150	0x3deee51c	0.11664793
151	0x3dad7cd6	0.08471076
152	0xbb72f01b	-0.0037069384
153	0x3daaaa9e	0.08333324
154	0xbc897a23	-0.016781872
155	0x3d6d7d88	0.057981044
156	0xbde642bc	-0.11243197
157	0x3debd864	0.115158826
158	0xbd86a36f	-0.06574141
159	0xbcd4d665	-0.025981138
160	0xbdb92dcb	-0.090419374
161	0xbd6189fd	-0.055063237
162	0x3da16b4a	0.07881792
163	0xbd2d69c3	-0.04233719
164	0xbba4968b	-0.005022829
165	0x3de9c6ec	0.114148945
166	0xbd54e838	-0.051979274
167	0x3dcd7a0f	0.100330465
168	0x3d915db0	0.070979476
169	0xbb303a8a	-0.002689036
170	0x3dc9be71	0.09850777
171	0xbd0d7f94	-0.034545496
172	0x3dbe5c81	0.092949875
173	0xbcbf9d57	-0.023390455
174	0xbdd869de	-0.105670676
175	0xbd0e4952	-0.034737892
176	0x3cd979e3	0.026547378
177	0xbdba6f7e	-0.09103297
178	0xbd17a527	-0.037022736
179	0x3adeaef3	0.0016989395
180	0x3b955faa	0.004558523
181	0xbc9af3f0	-0.018915147
182	0xbc9d7e25	-0.01922519
183	0xbb63fc5b	-0.0034787867
184	0xbe09f61a	-0.13472787
185	0x3dd6ae3e	0.10482453
186	0xbd7d37e5	-0.061820883
187	0xbd4c03c3	-0.049808275
188	0x3d5a389e	0.05327665
189	0xbd2b8797	-0.041877355
190	0xbd8e36e6	-0.06944065
191	0x3d846d3b	0.064661466
192	0xbdd1f80b	-0.102523886
193	0xbd101281	-0.035173897
194	0xbda3fd70	-0.08007324
195	0x3dc8203b	0.097717725
196	0x3dbb3a94	0.09142032
197	0x3d9c2de4	0.076259404
198	0x3d8b5f9c	0.068053454
199	0x3da0b3d3	0.07846799
200	0xbd80bd8c	-0.06286153
201	0x3e185305	0.1487542
202	0x3cddd368	0.027078345
203	0xbcb00dfa	-0.02149104
204	0xbac70269	-0.0015183213
205	0xbd3e2b19	-0.04642782
206	0x3b5f127a	0.0034038112
207	0xbdfa6f9a	-0.122283176
208	0x3d6a5c4d	0.05721693
209	0x3d3f99aa	0.046777405
210	0xbc24f4f0	-0.010068163
211	0x3d9d0826	0.0766757
212	0xbdcfa5bd	-0.10139034
213	0x3df3daa8	0.1190694
214	0xbe101a9e	-0.14072654
215	0x3d6b5a0c	0.057458922
216	0x3d93df33	0.07220306
217	0x3dfbe859	0.12300176
218	0x3d61e38f	0.055148657
219	0xbdc32625	-0.0952876
220	0x3d2a856c	0.041631147
221	0xbd47d316	-0.04878529
222	0xbde97503	-0.11399271
223	0xbcd88220	-0.026429236
224	0x3dff84b2	0.124764815
225	0xbdbf2d81	-0.09334851
226	0xbd70c472	-0.058781095
227	0xbd921816	-0.071335
228	0x3be0aabd	0.006856291
229	0x3a878ab8	0.0010341024
230	0x3da4e86e	0.08052145
231	0x3db15c33	0.08660164
232	0xbcb70512	-0.022341285
233	0xbdd3a57d	-0.10334299
234	0xbdc890e9	-0.097932644
235	0xbd90981d	-0.07060263
236	0x3db27de7	0.0871542
237	0x3d802e8a	0.062588766
238	0xbd838adf	-0.06422972
239	0xbe1d1471	-0.15339829
240	0x3b8d39cf	0.00430987
241	0xbdc7f726	-0.09763937
242	0x3d466799	0.048438642
243	0x3d875017	0.06607073
244	0xbdcc1095	-0.099641
245	0xbe07e859	-0.13272227
246	0x3dced54e	0.100992784
247	0x3d2be728	0.041968495
248	0x3c3b76b7	0.011441878
249	0x3bf7df9b	0.0075644976
250	0x3da34daf	0.07973801
251	0x3d5b90b9	0.053604815
252	0x3c5ae097	0.01335921
253	0xbdccb352	-0.0999514
254	0xbdfbfae5	-0.12303714
255	0xbcc5e36c	-0.024156295

lstm.weight_hh_l1 f4 [256, 64]
0	0xbaf7f62c	-0.001891797
1	0x3dc74d5f	0.09731554
2	0xbcb7f82b	-0.022457203
3	0x3cf98e53	0.030463373
4	0x3db209b5	0.08693258
5	0x3d5b3198	0.053514093
6	0x3dd13961	0.10216022
7	0x3d2d2788	0.042274028
8	0x3da7f664	0.08201292
9	0xbd2b23ed	-0.04178231
10	0xbd32b76e	-0.043631963
11	0x3d422085	0.047394294
12	0xbdb9da40	-0.09074831
13	0x3d0bfae6	0.034174822
14	0xbd90f1b7	-0.070773534
15	0x3dd12da8	0.10213786
16	0xbdb6dc7c	-0.08928773
17	0x3d05e420	0.03268826
18	0x3db49bf0	0.08818805
19	0x3decd3dc	0.115638465
20	0xbdd3b796	-0.103377506
21	0x3cf2d790	0.029643804
22	0x3c51d2c2	0.012806596
23	0xbd31247a	-0.043247677
24	0xbd1da297	-0.038485136
25	0xbd69056e	-0.056889944
26	0x3d71a93d	0.05899929
27	0x3db39049	0.087677546
28	0xbc83e98b	-0.016102573
29	0x3cf6b246	0.030114304
30	0xbda8ab37	-0.08235782
31	0xba93a4c8	-0.0011264319
32	0xbd8fc42a	-0.07019837
33	0xbd8b3880	-0.06797886
34	0x3d58a071	0.052887384
35	0xbdd05b4d	-0.10173664
36	0xbd890fbc	-0.06692454
37	0x3db7683b	0.08955427
38	0xbdc0d288	-0.09415156
39	0x3cd4be7c	0.025969736
40	0xbddf3407	-0.10898595
41	0x3d9a2b62	0.07527806
42	0x3d94e13a	0.07269521
43	0xbd67b601	-0.056570057
44	0xbd9213c9	-0.0713268
45	0x3e09bbb9	0.13450517
46	0xbd939eac	-0.07207999
47	0x3d6e1dc0	0.05813384
48	0xbda7fb6f	-0.08202254
49	0x3d8e98eb	0.069627605
50	0xbce6b4fc	-0.028162472
51	0x3d690445	0.056888837
52	0xbc5e905a	-0.013584221
53	0xbdb3b966	-0.08775596
54	0x3d99a28d	0.07501707
55	0x3d50cbca	0.0509756
56	0xbd74fdb5	-0.059812266
57	0xbd81e3d3	-0.06342282
58	0x3cc1671a	0.023608733
59	0x3dbac99f	0.091204874
60	0xbd9bacdf	-0.07601332
61	0x3d36e4cf	0.044651803
62	0x3e0823f6	0.13294968
63	0xbda18e27	-0.078884415
64	0x3df51909	0.11967666
65	0x3dd96e98	0.10616797
66	0x3dc899ff	0.097949974
67	0xbdc1b56d	-0.09458432
68	0xbddbaf1b	-0.10726758
69	0xbce7262b	-0.028216442
70	0x3d85e1e6	0.06537227
71	0xbd118964	-0.035531417
72	0x3d564ee5	0.052321333
73	0x3dcda6ea	0.10041602
74	0xbde7eb9e	-0.11324237
75	0xbe23253e	-0.15932176
76	0xbdf32c09	-0.118736334
77	0x3ba3d9af	0.005000315
78	0xbc3c1465	-0.011479472
79	0x3da26eea	0.079313114
80	0xbdae655c	-0.085154265
81	0x3d867cca	0.065667704
82	0x3dc727b3	0.09724369
83	0x3c863876	0.016384345
84	0xbdc4614d	-0.09588871
85	0x3e115816	0.14193758
86	0x3d8fc8e1	0.070207365
87	0xbd15f366	-0.036609076
88	0x3d246b9f	0.040141698
89	0x3e18d346	0.14924344
90	0xbd8648e8	-0.065568745
91	0x3e019734	0.12655336
92	0x3d3dd5f7	0.04634663
93	0x3c16e80d	0.009210599
94	0xbda86c27	-0.082237534
95	0xbcfab61d	-0.030604417
96	0x3e128c8e	0.1431143
97	0xbd79f0e5	-0.06102075
98	0xbdc3af1d	-0.095548846
99	0x3d82e59c	0.06391451
100	0x3d2a298a	0.04154352
101	0xbd1c92c6	-0.03822591
102	0xbd8fc50a	-0.07020004
103	0x3cba44be	0.022737857
104	0xbd91b53e	-0.07114647
105	0xbdcff174	-0.101534754
106	0xbdf6a81a	-0.120437816
107	0xbd3698a1	-0.044579152
108	0x3cd92f9f	0.026511965
109	0x3d0359e0	0.032068133
110	0xbe176813	-0.14785795
111	0x3def9be8	0.11699659
112	0x3ceffb44	0.029294617
113	0xbd1ea6b8	-0.038733214
114	0xbdde77ce	-0.10862695
115	0x3dcc4185	0.09973434
116	0xbdb6f18c	-0.0893279
117	0xbd22a247	-0.03970554
118	0xbd87e003	-0.06634524
119	0x3d24a375	0.040194947
120	0xbbbbc5e2	-0.0057303766
121	0xbe0f8e91	-0.14019229
122	0x3db69734	0.089155585
123	0x3da503fe	0.08057402
124	0x3dfbc10e	0.12292682
125	0xbcfba137	-0.030716522
126	0xbba701fe	-0.005096673
127	0xbde39725	-0.11112813
128	0xbb3817d3	-0.0028090372
129	0xbb77fc0e	-0.0037839445
130	0xbbecfe2d	-0.0072324486
131	0xbdbefa81	-0.093251236
132	0x3d365b35	0.044520576
133	0x3c11c778	0.008897655
134	0xbdea05fd	-0.114269234
135	0x3de21251	0.1103865
136	0xbbcb23b1	-0.006199323
137	0x3d7524dc	0.059849605
138	0x3c9fbcb8	0.019499168
139	0x3bbf46d3	0.0058373003
140	0x3de185ef	0.11011874
141	0x3dfbe6e2	0.12299897
142	0xbd70b904	-0.058770195
143	0x3c94595c	0.018109016
144	0xbc8f0061	-0.017456235
145	0x3d7fdf6e	0.06246894
146	0xbcefa708	-0.029254451
147	0x3dbc09a4	0.09181526
148	0xbcf65c0f	-0.030073194
149	0xbdea6fbb	-0.11447092
150	0xbcc2dbb4	-0.023786403
151	0xbbe401b6	-0.006958212
152	0x3da863fc	0.082221955
153	0x3dc7abea	0.09749587
154	0x3c826731	0.015918346
155	0x3d9b1f99	0.07574386
156	0x3d81b45d	0.0633323
157	0x3da265b3	0.07929554
158	0xbdbbdb7b	-0.09172722
159	0xbc282dc3	-0.010264817
160	0xbccc899c	-0.024967961
161	0x3d1a62c2	0.03769184
162	0xbd9b9d60	-0.07598376
163	0xbccb31f4	-0.024804093
164	0x3d2ae415	0.041721422
165	0x3d645053	0.055740666
166	0xbdd26973	-0.10274019
167	0x3dbc305e	0.09188913
168	0x3df9cab0	0.12196863
169	0x3def9905	0.11699108
170	0xbdc7a8be	-0.09748982
171	0xbc5bbccf	-0.013411715
172	0xbd741f54	-0.05960019
173	0xbddf90c3	-0.10916283
174	0xbde447a0	-0.11146474
175	0x3d8c99d7	0.0686528
176	0xbd084210	-0.033266127
177	0x3d97e44a	0.074165896
178	0x3dd9edae	0.10641037
179	0x3d85344e	0.06504117
180	0xbdf235ff	-0.11826705
181	0xbdb85e9d	-0.09002421
182	0xbdcfe13a	-0.101503804
183	0x3d9b4949	0.075823374
184	0xbd4f5b7e	-0.050624363
185	0xbc3ffcff	-0.011718034
186	0xbddddffd	-0.10833738
187	0x3dc3cc51	0.09560455
188	0xbda6173b	-0.081098996
189	0x3dfd7ea9	0.12377674
190	0x3be5842a	0.0070042806
191	0x3d83a262	0.064274564
192	0xbccb1646	-0.024790894
193	0x3dc1f582	0.09470655
194	0x3bb9e696	0.00567324
195	0xbcf62cb5	-0.030050615
196	0x3d29f242	0.0414908
197	0xbd6e188f	-0.05812889
198	0xbe0c65e1	-0.13710739
199	0x3d8e30d8	0.0694291
200	0xbe0e2eae	-0.13884994
201	0x3cec485c	0.028843097
202	0xbdf586fe	-0.11988638
203	0x3d055116	0.032548033
204	0xbc8dc07b	-0.017303696
205	0xbd7b66e9	-0.06137744
206	0x3e115e68	0.1419617
207	0x3c9371dc	0.017998628
208	0xbd27506c	-0.04084818
209	0x3dc0e075	0.09417812
210	0x3df831f1	0.121189006
211	0xbb285ac5	-0.0025688868
212	0x3d66e5dd	0.05637156
213	0xbcc1ac2e	-0.023641672
214	0xbba91d74	-0.005160982
215	0x3d3276ef	0.043570455
216	0x3c2e98bc	0.010656532
217	0x3dff6a8f	0.12471496
218	0xbdf0e9a8	-0.117633164
219	0xbd6d05e1	-0.057866935
220	0xbd6d03c2	-0.05786491
221	0xbd168c28	-0.036754757
222	0x3c945782	0.018108133
223	0xbe14fb53	-0.14548998
224	0x3dad726c	0.0846909
225	0x3d41d52c	0.047322437
226	0xbc909ba1	-0.017652335
227	0x3c311438	0.010808043
228	0x3d2c6fcb	0.0420988
229	0x3db14b05	0.08656887
230	0xbcf160cf	-0.029465107
231	0xbd973050	-0.07382262
232	0xbd8624eb	-0.0655001
233	0x3b324185	0.0027199697
234	0x3d84d031	0.06485022
235	0xbdc97d6a	-0.09838374
236	0x3d36a443	0.044590246
237	0xbd3bb641	-0.045828108
238	0x3cd9197f	0.026501415
239	0x3dac4a7c	0.08412644
240	0xbc700127	-0.014648712
241	0x3dea46c5	0.114392795
242	0xbd1327e4	-0.035926715
243	0xbd5b5599	-0.05354843
244	0xbd4afa2c	-0.04955499
245	0xbd81d57c	-0.06339547
246	0xbd8cbf10	-0.0687238
247	0x3dcfb0b4	0.10141125
248	0xbda017ab	-0.07817014
249	0xbd189b20	-0.037257314
250	0x3dbe7cf6	0.09301178
251	0x3d761c81	0.060085777
252	0x3ccef427	0.025262905
253	0x3c9d2d46	0.019186627
254	0x3df0e09d	0.117615916
255	0x39b8ae06	0.00035224872

lstm.bias_ih_l1 f4 [256]
0	0x3c7f0d2d	0.015567106
1	0x3d97bfff	0.07409667
2	0x3df2cdcc	0.11855659
3	0x3d9928ff	0.074785225
4	0xbdc12d74	-0.094324976
5	0xbd9562ad	-0.072942115
6	0xbd8aace5	-0.06771258
7	0xbd52f2ef	-0.05150121
8	0x3dfc5b8d	0.123221494
9	0x3da35ae8	0.07976323
10	0x3ca40b63	0.02002496
11	0x3d4620ff	0.04837131
12	0x3e07e066	0.13269195
13	0xbc6125cd	-0.013741923
14	0xbc2aa111	-0.010414378
15	0x3c877756	0.016536396
16	0xbdde151f	-0.10843872
17	0x3c09ae3d	0.008403358
18	0x3da657b0	0.08122194
19	0xbd53e97e	-0.051736347
20	0xbddca9bb	-0.10774561
21	0xbcb7d2ef	-0.022439448
22	0xbc3aee2f	-0.011409326
23	0x3dea5ee6	0.11443882
24	0x3d9078a4	0.070542604
25	0x3d7fe1c2	0.06247116
26	0x3d9d5769	0.07682688
27	0xbc97e641	-0.01854241
28	0xbd7df81d	-0.062004197
29	0x3d908049	0.070557185
30	0x3deba193	0.11505427
31	0xbdd490fe	-0.103792176
32	0xbdd59a8a	-0.104298666
33	0x3d378f6d	0.044814516
34	0xbd5c17cd	-0.053733636
35	0xbc4dab60	-0.012553066
36	0x3bb26ca6	0.005445081
37	0xbdc1564b	-0.09440287
38	0xbd9d2da4	-0.07674721
39	0x3ddd1d5d	0.10796616
40	0x3bc4c8c8	0.0060053803
41	0xbde31206	-0.11087422
42	0xbde24c8c	-0.110497564
43	0x3db1e092	0.086854115
44	0x3dc3b4c5	0.095559634
45	0x3e065858	0.13119638
46	0x3db11891	0.08647264
47	0xbdcef6cd	-0.10105667
48	0xbd881e1f	-0.0664637
49	0xbc9469c6	-0.018116843
50	0xbd9a719b	-0.075412
51	0xbd813470	-0.0630883
52	0x3d23f774	0.04003091
53	0xbda677b2	-0.08128299
54	0xbdb410ea	-0.087922886
55	0xbd96aa9d	-0.07356761
56	0xbbb49080	-0.00551039
57	0x3d8151df	0.06314444
58	0xbe106cfb	-0.14104073
59	0xbbcff9bd	-0.00634691
60	0xbd5d2f83	-0.05400039
61	0xbc60da71	-0.0137239555
62	0x3d1afa19	0.037836168
63	0x3b42cc29	0.002972374
64	0x3da1042e	0.07862125
65	0xbde98eb7	-0.11404174
66	0x3d55701f	0.05210888
67	0x3da5ed38	0.081018865
68	0x3e0878be	0.1332731
69	0x3da21ac7	0.079152636
70	0x3d602b5d	0.054728854
71	0xbca3c94a	-0.019993443
72	0xbdafaa46	-0.08577399
73	0x3d6727c6	0.056434415
74	0x3e13e5e9	0.14443173
75	0x3d72ea06	0.059305213
76	0x3d36726a	0.044542708
77	0xbd2741e0	-0.040834308
78	0xbc7f0d45	-0.015567129
79	0x3d863579	0.06553168
80	0xbd27bae2	-0.04094971
81	0xbc8cd8a2	-0.017193142
82	0x3b0fdfce	0.0021953466
83	0xbdac75d4	-0.084209114
84	0xbdb61e67	-0.088925175
85	0xbd4a6cb8	-0.04942009
86	0xbe08c6eb	-0.13357131
87	0x3db3c509	0.08777816
88	0xbdf497b5	-0.11942998
89	0x3daf8bd0	0.08571589
90	0xbd1a3c22	-0.037655003
91	0xbd1b1fc9	-0.03787211
92	0x3e0808dc	0.1328463
93	0x3d14dcb1	0.03634328
94	0xbdb60c24	-0.088890344
95	0x3e0b38d0	0.13595891
96	0xbc83378b	-0.016017696
97	0xbc5e416b	-0.013565402
98	0xbd0a23b5	-0.03372546
99	0x3db75083	0.08950903
100	0xbda6dbbf	-0.08147382
101	0x3ccdee30	0.02513799
102	0xbc9d54bf	-0.01920545
103	0x3dd43f85	0.10363678
104	0x3de7127b	0.11282822
105	0xbddad531	-0.10685194
106	0xbdaffb38	-0.08592838
107	0x3cc7ecf0	0.024404973
108	0x3d44e1ca	0.04806689
109	0x3d08dbcc	0.03341274
110	0x3beca73a	0.0072220834
111	0xbdca664c	-0.09882793
112	0x3de3b08f	0.1111766
113	0xbdc3bca3	-0.09557464
114	0xbc7ef890	-0.015562192
115	0xbdcc0f0f	-0.0996381
116	0x3d65b524	0.056080952
117	0x3d814831	0.063125975
118	0xbde7ebdd	-0.11324284
119	0x3bc6f367	0.0060714963
120	0x3e12a620	0.14321184
121	0x3ca1c89a	0.019748975
122	0xbd2fab3b	-0.042887907
123	0x3e128eda	0.14312306
124	0x3dc6c85b	0.097061835
125	0x3de84d29	0.11342842
126	0x3db5bac1	0.08873511
127	0xbd911a39	-0.0708508
128	0xbdbac58b	-0.091197096
129	0xbdddee6d	-0.10836492
130	0xbe055de7	-0.13024102
131	0xbe0231d8	-0.12714326
132	0x3dcb3517	0.099222355
133	0xbdaa8512	-0.083261624
134	0x3dc7a264	0.097477704
135	0xbde5e2d4	-0.11224905
136	0x3debba2e	0.1151012
137	0x3dae01bd	0.08496425
138	0xbc78f84c	-0.015195917
139	0x3d1c4782	0.038154133
140	0xbdd7bcf7	-0.10534089
141	0x3cc08eca	0.023505587
142	0xbc5e745d	-0.013577548
143	0xbc060ce3	-0.008181783
144	0x3da62210	0.08111966
145	0x3dc479c2	0.09593536
146	0xbd6ff994	-0.058587626
147	0xbdfb5d59	-0.12273664
148	0xbd6fca33	-0.05854244
149	0x3cf7e988	0.030262724
150	0xbd9fa840	-0.07795763
151	0x3e0a7a50	0.13523221
152	0xbdb15c90	-0.08660233
153	0xbb4bb44d	-0.003108281
154	0x3abe5777	0.0014521916
155	0xbdd8fd3b	-0.10595175
156	0x3e085f31	0.13317563
157	0x3cf28919	0.029606389
158	0x3dba21df	0.09088492
159	0x3de68337	0.11255496
160	0x3d7b04f8	0.061284035
161	0x3ded38ec	0.115831226
162	0xbd69dd56	-0.057095848
163	0xbdaedeb6	-0.085385725
164	0xbdbb38c1	-0.09141684
165	0x3c81cd63	0.015845006
166	0xbd31d404	-0.043415084
167	0x3ddbc119	0.1073019
168	0x3dcada6e	0.099049434
169	0xbd0d1a2e	-0.034448795
170	0x3d0f4a29	0.034982834
171	0x3dc38858	0.0954749
172	0x3df84b92	0.12123789
173	0xbe06b79b	-0.13155977
174	0x3e13a4a1	0.1441827
175	0x3dd0abfc	0.101890534
176	0x3cbb1f72	0.022842143
177	0xbc1886d1	-0.0093094865
178	0xbd96c85c	-0.07362434
179	0xbd6d0662	-0.057867415
180	0xbd8e4a52	-0.06947769
181	0x3d2a7551	0.041615788
182	0x3d0a7aff	0.033808704
183	0x3c147921	0.0090620825
184	0xbbb52d55	-0.0055290856
185	0x3e00c5a3	0.12575392
186	0x3da51bc4	0.080619365
187	0x3c8e3fbb	0.017364373
188	0x3d9e4f75	0.07729999
189	0x3dae14cf	0.08500063
190	0xbc13201d	-0.008979824
191	0x3dd2a0a9	0.1028455
192	0xbdc59d22	-0.09649111
193	0xbe18fc55	-0.14940007
194	0xbcb21e51	-0.021742972
195	0x3cd45b66	0.025922488
196	0x3dc68b44	0.096945316
197	0xbe039eaa	-0.12853494
198	0x3d249009	0.040176425
199	0x3de27ac5	0.11058573
200	0x3db328ce	0.08748017
201	0x3d14cb97	0.03632697
202	0x3c904b34	0.017613985
203	0x3dec064b	0.11524638
204	0x3d7f3af3	0.062312078
205	0xbd9c23bf	-0.076240055
206	0x3df1c151	0.1180445
207	0xbc985740	-0.018596292
208	0xbcadc3ea	-0.021211583
209	0xbdc691e4	-0.09695795
210	0xbc7da55e	-0.015481321
211	0xbdaae8af	-0.08345162
212	0xbbc30c10	-0.0059523657
213	0xbc339834	-0.010961581
214	0x3a76c48d	0.00094134436
215	0x3d0cbacb	0.034357827
216	0x3cc485f1	0.02398965
217	0x3d6d943b	0.05800269
218	0xbdbd9e43	-0.09258702
219	0xbc886f71	-0.016654702
220	0xbccf0399	-0.02527027
221	0xbd334444	-0.043766275
222	0xbdb6998a	-0.08916004
223	0xbd6f195a	-0.058373787
224	0x3d2d5710	0.042319357
225	0x3cd60e40	0.026129842
226	0xbdbc35a4	-0.09189919
227	0xbd46bc25	-0.048519272
228	0x3d5ae248	0.053438455
229	0x3de96498	0.1139614
230	0xbc8b0b67	-0.01697321
231	0x3d720bb6	0.0590932
232	0xbce9417a	-0.028473604
233	0x3ded03ad	0.11572967
234	0x3d7048aa	0.058663048
235	0xbd235170	-0.039872587
236	0x3d43cea1	0.04780448
237	0xbd4adab1	-0.049524967
238	0xbcce20e7	-0.025162173
239	0xbd0855d9	-0.033284996
240	0xbd5cf4b0	-0.05394429
241	0x3d9006e3	0.070325635
242	0x3c1c12bd	0.009525952
243	0xbd2c59a0	-0.04207766
244	0xbd913b5d	-0.07091401
245	0x3d3e2378	0.046420544
246	0xbce90e3b	-0.028449168
247	0x3df12034	0.117737204
248	0x3df15ad7	0.117849045
249	0x3d5ced28	0.053937107
250	0xbd614faf	-0.055007633
251	0x3c8f3793	0.017482555
252	0x3d88c67a	0.066784814
253	0x3d2d36b1	0.042288486
254	0x3d8df65d	0.06931756
255	0x3dc1da00	0.09465408
