src/deep_learning/artifacts/lstm_model_AAPL.pt (torch, 217167 bytes, 12 tensors)

lstm.weight_ih_l0 f4 [256, 2]
0.19231467 -0.08253796 0.19687887 0.056993127 0.06998696 0.052965123 0.07256644 0.06579099
0.011395172 0.078880966 0.0307813 -0.01715963 -0.0630908 -0.012880534 -0.14685495 0.08352246
0.11065355 0.037281387 0.13463317 -0.05101185 0.07281465 -0.0803438 0.10112613 -0.12981327
0.12427328 -0.019256063 0.13666698 0.039127417 -0.0041526603 -0.04347939 0.17736202 0.11510006
0.063564345 0.13379663 -0.043056957 0.04721452 0.060073078 -0.08080419 0.14514986 -0.07280705
0.10352301 0.029119834 0.11188739 0.022180226 -0.114522345 0.095671564 0.09627989 0.12488914
-0.033642262 0.10580597 0.019568967 0.09260936 -0.046707243 -0.039012477 -0.025834778 -0.070043586
0.01696794 0.13567674 -0.12209585 -0.0063440343 0.023854362 0.1321649 0.089687034 -0.033712946
0.055378374 -0.058639668 0.060242377 0.018226169 0.07713304 0.027916038 0.1378789 -0.021836175
0.13805956 -0.019380987 -0.078799844 -0.028437188 0.11755897 -0.090372264 0.079542466 -0.008711318
0.08813584 -0.03828073 0.07868863 0.014032799 0.114213675 -0.063601665 0.13609985 -0.10269658
-0.07995689 -0.09204789 -0.05043441 0.016659942 0.041866932 0.14725006 -0.020774242 -0.11236121
0.09675848 -0.05132503 0.14112596 -0.021821314 0.09142577 0.07635989 0.026256006 0.004449821
0.025269037 -0.04837288 -0.044933826 0.000727757 -0.13005395 -0.051745635 0.078901246 -0.08531872
0.07277414 0.13140403 -0.09701025 -0.11143035 -0.031121572 0.045271154 0.1606684 -0.08586859
0.1692578 -0.075999334 0.1310201 0.11931695 -0.055743627 -0.06799414 0.079054095 -0.094251364
0.015331982 0.010819504 0.016722312 0.0027681354 0.15536806 -0.042779796 0.08992873 -0.092081174
0.037979893 0.049720496 0.06515442 0.047216903 0.1191305 0.055079978 -0.14659649 -0.08899774
0.07132653 0.12554808 0.067756735 -0.1081271 0.15329222 -0.07560182 -0.08950753 -0.13692474
0.14664015 0.115030296 0.14648391 -0.04014591 -0.039309468 0.07569949 0.10385359 0.082702965
0.04958815 0.03331808 0.15249166 0.0009541393 -0.01037731 0.0961852 0.14167905 0.022171028
-0.050893962 -0.120090805 0.04560299 0.1328373 0.12612227 0.043183215 -0.036650274 0.03375377
0.032408603 -0.05210507 0.0063050836 0.08147696 0.1091374 -0.12134752 0.11683228 0.08920348
-0.02367528 -0.08470438 -0.12851328 -0.07443734 0.015807422 0.12791573 0.14513181 -0.11601328
0.11831824 0.03668408 0.054725543 -0.03208223 0.16709533 -0.08531163 0.07090893 0.0015755111
-0.04411316 -0.06529552 0.121281505 -0.017812055 0.0011585279 -0.104134984 -0.054187477 0.12844905
0.08195235 0.016013708 0.04420265 0.06859202 0.099998206 0.14033508 -0.028363867 -0.014171073
0.13144113 0.098101355 0.0053293956 -0.03252318 0.12434338 0.021183824 0.04592891 0.02646602
0.15099427 0.100155205 0.04532936 0.042542364 0.08177706 0.03532819 0.057669032 -0.07641853
0.15932405 0.003414464 0.025912652 0.020955194 -0.07436411 -0.08224828 0.17628042 0.1261944
0.043032378 0.023189835 -0.047118273 0.05923604 -0.13617565 -0.08727505 -0.062271837 -0.1109532
-0.062231656 0.035904035 0.11169232 -0.11908548 -0.07229309 0.0762624 0.07206369 -0.046017274
00000000: 23ee 443e a909 a9bd 9d9a 493e a071 693d
00000010: 5355 8f3d f5f1 583d b79d 943d 6dbd 863d
00000020: d1b2 3a3c 588c a13d 1129 fc3c 5a92 8cbc
00000030: c035 81bd e008 53bc 2561 16be d30d ab3d
00000040: 549e e23d 5eb4 183d 47dd 093e cdf1 50bd
00000050: d91f 953d 4a8b a4bd 371b cf3d c5ed 04be
00000060: fd82 fe3d e4be 9dbc 6ef2 0b3e 1244 203d
00000070: 0a13 88bb 7217 32bd 649e 353e 95b9 eb3d
00000080: 062e 823d fc01 093e 7e5c 30bd 0364 413d
00000090: 300f 763d ab7c a5bd 2aa2 143e dd1b 95bd
000000a0: df03 d43d b88c ee3c 3725 e53d 4eb3 b53c
000000b0: b18a eabd 74ef c33d 642e c53d e1c5 ff3d
000000c0: 78cc 09bd cdb0 d83d 194f a03c faa9 bd3d
000000d0: 1850 3fbd 8ccb 1fbd 75a3 d3bc 0373 8fbd
000000e0: 5900 8b3c d8ee 0a3e 640d fabd 9ee1 cfbb
000000f0: 396a c33c 3c56 073e d6ad b73d 9616 0abd
00000100: 6fd4 623d 2630 70bd b6c0 763d 0c4f 953c
00000110: edf7 9d3d 2db0 e43c 2030 0d3e c7e1 b2bc
00000120: 7c5f 0d3e e0c4 9ebc d061 a1bd 1bf5 e8bc
00000130: c2c2 f03d 1815 b9bd 29e7 a23d eab9 0ebc
00000140: 9080 b43d 41cc 1cbd 8127 a13d d3e9 653c
00000150: dce8 e93d 9741 82bd c25d 0b3e 9652 d2bd
00000160: 70c0 a3bd 9b83 bcbd 5094 4ebd 6e7a 883c
00000170: a97c 2b3d b8c8 163e be2e aabc a21d e6bd
00000180: 4f29 c63d 323a 52bd 5383 103e 9dc2 b2bc
00000190: 6f3d bb3d 9362 9c3d d616 d73c cecf 913b
000001a0: 0301 cf3c a422 46bd 880c 38bd f2c6 3e3a
000001b0: dd2c 05be 3bf3 53bd fa96 a13d 95bb aebd
000001c0: 9c0a 953d c78e 063e 4fad c6bd 9835 e4bd
000001d0: abf2 febc 3f6e 393d 4286 243e dfdb afbd
000001e0: eb51 2d3e 8aa5 9bbd 222a 063e 725c f43d
000001f0: 6e53 64bd 8340 8bbd 1de7 a13d dc06 c1bd
00000200: fe32 7b3c 4a44 313c 3bfd 883c 9b69 353b
00000210: ce18 1f3e de39 2fbd 8e2c b83d 0e95 bcbd
00000220: ce90 1b3d b8a7 4b3d ae6f 853d 8366 413d
00000230: b1fa f33d 8b9b 613d 641d 16be 7244 b6bd
00000240: a513 923d ad8f 003e 0bc4 8a3d be71 ddbd
00000250: a3f8 1c3e 21d5 9abd b94f b7bd 0036 0cbe
00000260: d628 163e 0195 eb3d e1ff 153e 0a70 24bd
00000270: f702 21bd 5608 9b3d 31b1 d43d 2c60 a93d
00000280: f21c 4b3d 8a78 083d c626 1c3e 341f 7a3a
00000290: 9805 2abc bffc c43d 5014 113e 04a0 b53c
000002a0: 3076 50bd 2bf2 f5bd 33ca 3a3d 8006 083e
000002b0: 3226 013e e2e0 303d 991e 16bd 6541 0a3d
000002c0: e2be 043d 206c 55bd e09a ce3b 64dd a63d
000002d0: 6e83 df3d 0c85 f8bd c345 ef3d 50b0 b63d
000002e0: a9f2 c1bc 7d79 adbd fc98 03be 9b72 98bd
000002f0: 917e 813c 57fc 023e 6f9d 143e 5f98 edbd
00000300: d550 f23d 0c42 163d e427 603d a868 03bd
00000310: 0a1b 2b3e ddb7 aebd b338 913d 6181 ce3a
00000320: 00b0 34bd a8b9 85bd 7062 f83d 96ea 91bc
00000330: bfd9 973a b944 d5bd b0f3 5dbd 2688 033e
00000340: a2d6 a73d 2e2f 833c d70d 353d f979 8c3d
00000350: dccb cc3d 00b4 0f3e 575b e8bc ca2d 68bc
00000360: 8198 063e 5de9 c83d 36a2 ae3b 0737 05bd
00000370: bea7 fe3d b389 ad3c f41f 3c3d 44cf d83c
00000380: 3e9e 1a3e 2c1e cd3d 47ab 393d e740 2e3d
00000390: bb7a a73d 4bb4 103d 5d36 6c3d 5181 9cbd
000003a0: d825 233e 33c5 5f3b c546 d43c 3aaa ab3c
000003b0: 364c 98bd c971 a8bd db82 343e 1b39 013e
000003c0: b842 303d 9cf8 bd3c 17ff 40bd 7da1 723d
000003d0: a171 0bbe 43bd b2bd c110 7fbd 6e3b e3bd
000003e0: 9fe6 7ebd 1c10 133d f1be e43d 17e3 f3bd
000003f0: 660e 94bd 762f 9c3d 2196 933d 9c7c 3cbd

lstm.weight_hh_l0 f4 [256, 64]
-0.07304683 0.018042503 0.08150128 -0.045374937 0.07184908 0.050119903 0.012109529 -0.09496238
-0.12688127 -0.112222694 -0.024494845 0.074841335 -0.15009804 0.053746175 0.0343479 -0.060763765
-0.08550779 -0.013348691 0.0686807 0.04625589 0.07259746 0.041827112 0.03655863 -0.0031198899
0.041757848 0.08102187 0.08561821 -0.008641253 -0.05919559 0.009249305 -0.07619221 0.06837025
0.06387038 0.015583689 -0.15098624 -0.02115147 0.025110174 -0.023550136 0.09174834 -0.1434583
-0.024842864 0.082880765 -0.0124983825 0.0713939 0.07132703 0.05732464 0.06223759 0.021669863
-0.06228304 0.007579138 -0.13852726 0.03331747 0.116892025 0.08874761 -0.10754196 -0.062076
-0.08498065 0.05294489 -0.021819938 -0.00804538 -0.07901479 -0.007900819 -0.11626412 -0.023869112
-0.051081777 -0.060978178 0.06505597 -0.0035853228 -0.14422376 -0.14406063 0.1531772 -0.042815488
0.034839373 0.026772473 -0.087567516 -0.015816074 -0.14282846 0.061588857 0.019199213 0.11242507
0.045120645 -0.028226294 -0.07450083 -0.070077054 0.10925048 0.15348887 0.10302164 -0.11141166
0.026962597 0.09592396 0.04510447 0.10163185 0.051536847 0.06757013 0.051292483 0.057216357
-0.07348005 -0.036370207 -0.03167782 -0.16251677 0.03388139 0.04354092 -0.09527364 -0.12014638
-0.10872455 0.0009376754 0.14687198 0.10699941 -0.1266277 -0.052671295 0.048132956 0.08888729
0.07096475 0.0045712125 0.07274927 0.020252323 -0.011307269 0.12894513 -0.069022976 0.058577094
-0.011451866 -0.0923161 0.038729727 0.062015954 -0.037939556 -0.07220759 -0.087773934 0.062435172
-0.040401045 0.058465645 -0.15282361 -0.10610069 0.06303422 0.029753162 0.10232147 -0.090482496
0.03310681 -0.002661614 0.0030349558 -0.093459494 -0.035319835 2.1265885e-05 0.12502149 0.13173096
0.033238105 0.07971797 -0.103016764 -0.052783784 -0.07638328 -0.037414365 -0.06439456 -0.013331017
0.13270932 0.07498847 0.047009386 0.13229519 -0.110605314 -0.020870537 -0.07050446 -0.11754982
0.09541894 0.06996097 -0.045755994 0.061573006 -0.08388303 -0.102766894 -0.115797006 -0.06427618
-0.07413612 -0.13515827 -0.091156214 -0.010054448 0.058833655 0.041462306 0.030589838 0.06028117
-0.07505169 -0.08045616 -0.028916853 -0.04079744 0.10654124 -0.07373359 0.14734195 0.092321426
0.09763503 0.11466598 0.0118612265 0.13297477 -0.07579521 0.00895849 -0.0032084344 0.108033955
-0.057127587 -0.07896579 0.07044369 0.0061558634 -0.12857927 0.010027551 0.1344235 0.1281542
0.03852153 0.05287629 0.052930675 -0.04411065 0.064296134 0.0927321 0.12142969 0.018268824
0.12392104 0.0012690224 -0.086080596 -0.09611518 -0.017752519 0.13697158 -0.014542946 0.06988961
0.12098923 -0.06708315 -0.057565875 0.13554269 0.07537153 -0.04945659 -0.16748747 -0.05447188
0.08167717 -0.10525341 0.10725006 -0.06850851 0.05335421 -0.106139645 -0.07744118 -0.11367749
0.07012116 -0.11180662 0.066758186 -0.08669573 -0.11378698 0.015454378 -0.022838071 0.12588416
0.035340607 0.016734675 -0.009619642 0.0146405045 0.00073210755 -0.060739286 0.041591883 -0.013018036
-0.003542879 -0.12165722 0.088797815 0.009892483 0.009061976 0.044186857 -0.023028182 -0.10214257
00000000: 9499 95bd dfcd 933c 25ea a63d 12db 39bd
00000010: 9c25 933d 874a 4d3d 0c67 463c a37b c2bd
00000020: 2aed 01be 03d5 e5bd 6aa9 c8bc 6a46 993d
00000030: 4db3 19be f324 5c3d 62b0 0c3d 6de3 78bd
00000040: b51e afbd 78b4 5abc 78a8 8c3d d176 3d3d
00000050: faad 943d e852 2b3d 81be 153d 1177 4cbb
00000060: 470a 2b3d cbee a53d 9a58 af3d 0b94 0dbc
00000070: 1377 72bd 668a 173c a90a 9cbd b405 8c3d
00000080: 79ce 823d bb52 7f3c 239c 1abe d945 adbc
00000090: dab3 cd3c 37ec c0bc 8ee6 bb3d bce6 12be
000000a0: 4383 cbbc 64bd a93d 04c6 4cbc f736 923d
000000b0: e813 923d 3ecd 6a3d d8ec 7e3d ff84 b13c
000000c0: 801c 7fbd 6b5a f83b 17da 0dbe e677 083d
000000d0: 1665 ef3d 4fc1 b53d f63e dcbd 6743 7ebd
000000e0: 560a aebd bedc 583d babf b2bc c5d0 03bc
000000f0: 82d2 a1bd 7072 01bc e21b eebd 2889 c3bc
00000100: 203b 51bd 41c4 79bd 103c 853d bcf7 6abb
00000110: 65af 13be a184 13be 7cda 1c3e 4b5f 2fbd
00000120: bbb3 0e3d f251 db3c 9956 b3bd b690 81bc
00000130: a041 12be 9944 7c3d ab47 9d3c 1d3f e63d
00000140: 6dd0 383d d43a e7bc e493 98bd 8f84 8fbd
00000150: b7be df3d 302c 1d3e 02fd d23d cc2b e4bd
00000160: aae0 dc3c c873 c43d 77bf 383d 5c24 d03d
00000170: 4d18 533d 3562 8a3d 1118 523d b35b 6a3d
00000180: b57c 96bd edf8 14bd 9ac0 01bd cc6a 26be
00000190: 36c7 0a3d f757 323d d31e c3bd 4e0f f6bd
000001a0: faaa debd 55ce 753a 9c65 163e 8222 db3d
000001b0: b1aa 01be dbbd 57bd 1027 453d 8a0a b63d
000001c0: f855 913d 1cca 953b 92fd 943d 33e8 a53c
000001d0: 2042 39bc 310a 043e eb5b 8dbd 89ee 6f3d
000001e0: 9ba0 3bbc 3910 bdbd 10a3 1e3d 7104 7e3d
000001f0: 8266 1bbd 93e1 93bd d2c2 b3bd 06bc 7f3d
00000200: 917b 25bd ac79 6f3d cb7d 1cbe 524b d9bd
00000210: 1618 813d e7bc f33c eb8d d13d e34e b9bd
00000220: 029b 073d 796e 2ebb 1ce6 463b b167 bfbd
00000230: 88ab 10bd 2464 b237 a205 003e 7be4 063e
00000240: ae24 083d 2d43 a33d 74fa d2bd cf33 58bd
00000250: d66e 9cbd ce3f 19bd 4ce1 83bd 576a 5abc
00000260: f4e4 073e 8e93 993d ea8c 403d 6478 073e
00000270: 0a85 e2bd b0f8 aabc a464 90bd f6bd f0bd
00000280: 016b c33d b247 8f3d a36a 3bbd fa33 7c3d
00000290: deca abbd 7377 d2bd fb26 edbd 3ba3 83bd
000002a0: aed4 97bd ee66 0abe 1cb0 babd 69bb 24bc
000002b0: 8ffb 703d 61d4 293d 8a97 fa3c 63e9 763d
000002c0: b3b4 99bd 33c6 a4bd 09e3 ecbc 371b 27bd
000002d0: 4b32 da3d a301 97bd cfe0 163e 0413 bd3d
000002e0: e0f4 c73d ffd5 ea3d 9755 423c 8a2a 083e
000002f0: 853a 9bbd a1c6 123c 9944 52bb e840 dd3d
00000300: 9efe 69bd d1b8 a1bd c844 903d 20b7 c93b
00000310: 49aa 03be 994a 243c 50a6 093e db3a 033e
00000320: c0c8 1d3d cf94 583d d6cd 583d 5ead 34bd
00000330: b1ad 833d 54ea bd3d 21b0 f83d 80a8 953c
00000340: 50ca fd3d 5355 a63a 064b b0bd 09d8 c4bd
00000350: bb6d 91bc 4742 0c3e 8945 6ebc 4922 8f3d
00000360: 34c9 f73d e462 89bd 32ca 6bbd b4cb 0a3e
00000370: 645c 9a3d fe92 4abd d681 2bbe e81d 5fbd
00000380: 5c46 a73d 1a8f d7bd eba5 db3d 314e 8cbd
00000390: f289 5a3d be5f d9bd 7b99 9ebd becf e8bd
000003a0: af9b 8f3d dffa e4bd 84b8 883d 888d b1bd
000003b0: 2609 e9bd 5c34 7d3c e816 bbbc c7e7 003e
000003c0: 50c1 103d 2817 893c b49b 1dbc bade 6f3c
000003d0: e8ea 3f3a c2c9 78bd 405c 2a3d 9a49 55bc
000003e0: a52f 68bb 6c27 f9bd a1db b53d 1514 223c
000003f0: af78 143c 47fd 343d 99a5 bcbc 2030 d1bd

lstm.bias_ih_l0 f4 [256]
-0.07483959 0.0073072254 -0.054212905 -0.009430816 -0.0108310925 0.04596213 0.08317317 0.08598672
0.019612033 0.07233712 0.058418658 -0.05602625 -0.023594702 -0.12230666 -0.024855927 -0.10212629
0.088567816 0.06100574 0.085837364 0.11708359 0.11485451 -0.0600559 -0.12570669 0.018408671
0.063980676 -0.11610228 -0.0649625 0.05986345 0.03308938 -0.08790298 0.0336345 0.037189182
0.13470751 -0.1027864 -0.04320674 -0.05039447 0.13056749 0.006982056 -0.045777727 -0.06475584
0.050715704 0.024918266 0.12121696 -0.09695396 -0.0872483 -0.040719565 -0.04212104 -0.099840745
-0.053449187 -0.04005388 -0.07233461 0.026180781 -0.051862944 -0.08441903 -0.028033815 -0.032041486
0.06728636 0.094738126 0.1224255 0.035249468 0.052246034 -0.031774353 -0.017415516 -0.10759397
0.13452493 0.06199909 0.07597979 0.027766276 0.036621053 -0.089380786 -0.016888864 -0.018351201
0.08858585 0.05458449 0.035524677 0.06625331 -0.091376215 -0.028513754 0.05200741 0.08783607
-0.08330791 0.040712267 -0.0684007 0.043721415 -0.028028563 0.11956154 -0.06276252 0.12740864
0.11564563 -0.039514553 0.08586107 0.005385958 0.09857526 0.069551766 0.11130641 0.042816456
0.06802796 -0.012157651 0.11765999 0.09490127 -0.020293726 -0.08334748 0.049430534 -0.10473025
0.120877646 0.11813288 -0.04371261 -0.10317242 0.039355796 0.036658864 -0.008161983 -0.02010746
0.010603483 0.09263306 0.12092762 0.014193671 0.06756146 0.1238705 0.08289953 0.1012722
0.050246462 -0.003950123 0.00638247 0.10561811 0.057535883 0.019282684 0.060076404 0.05702624
0.04075762 -0.09966023 -0.06953709 0.061530877 -0.117144555 0.064141065 -0.08782319 -0.07252049
-0.05879093 -0.062226344 -0.06340939 0.061458785 -0.101298064 -0.10316251 -0.06002398 -0.070183694
-0.045858383 -0.040077448 0.032685112 -0.10437065 0.070553735 0.06811594 -0.06640971 -0.043799285
0.083412886 0.07653992 1.2569915e-05 0.1297323 -0.034257345 -0.08632053 0.03715231 -0.014771503
-0.12040563 -0.07980217 -0.014105351 0.0075994506 -0.049348615 -0.101707384 -0.12505248 0.12115505
-0.006027776 0.07269385 0.015237298 0.05640603 -0.04965324 0.06143993 0.04332351 0.039214063
0.030030826 -0.109360196 0.053852566 -0.112898946 -0.044663865 0.04954956 -0.12494889 0.08371061
0.036421135 -0.005653447 0.08737242 0.07338588 -0.05373704 -0.098625064 -0.06802623 -0.09888742
0.021792756 0.023568861 -0.043270655 -0.016707646 0.09075324 -0.07653775 0.118379384 -0.048906107
0.03249984 0.04889984 0.08570937 0.039353784 0.016028695 -0.10116672 0.008512527 0.05116884
0.07546934 0.105349265 -0.020696625 0.08724128 0.023236094 -0.04380303 -0.020286916 0.096811086
-0.058090743 0.056679025 -0.017843068 0.05778322 -0.045965526 -0.046627786 0.114479214 -0.06775889
0.021414343 0.04474137 -0.04055824 0.13684829 0.0040005753 0.012824334 -0.01760723 0.059795182
0.117108636 -0.09837159 0.024207179 -0.02556353 -0.025640976 -0.05929797 0.033784643 -0.03048594
0.016207878 0.07354195 0.08355423 -0.06388252 0.0052999975 -0.022316305 -0.01493694 0.050442185
-0.018188585 0.06438071 0.10261903 0.0155511545 -0.041205104 0.11800379 -0.051146828 -0.12626553
00000000: 8045 99bd 7371 ef3b 5a0e 5ebd b683 1abc
00000010: e574 31bc c942 3c3d b256 aa3d ce19 b03d
00000020: 6aa9 a03c 7c25 943d 6748 6f3d c87b 65bd
00000030: ad49 c1bc ea7b fabd a89e cbbc 9727 d1bd
00000040: 0b63 b53d 28e1 793d 80cb af3d 85c9 ef3d
00000050: d738 eb3d 2dfd 75bd 41b9 00be c8cd 963c
00000060: 4d08 833d 08c7 edbd 0f0b 85bd 6033 753d
00000070: bb88 073d 7a06 b4bd 54c4 093d af53 183d
00000080: c4f0 093e ad81 d2bd 8df9 30bd 6f6a 4ebd
00000090: 7cb3 053e bbc9 e43b 6d81 3bbd b69e 84bd
000000a0: 45bb 4f3d 6421 cc3c 9940 f83d cc8f c6bd
000000b0: 3daf b2bd 8fc9 26bd 1d87 2cbd 4e79 ccbd
000000c0: 89ed 5abd 8a0f 24bd 2b24 94bd 1479 d63c
000000d0: 3d6e 54bd e2e3 acbd 2ca7 e5bc ef3d 03bd
000000e0: 6ecd 893d 1006 c23d 38ba fa3d bf61 103d
000000f0: f0ff 553d d325 02bd fcaa 8ebc 3a5a dcbd
00000100: e7c0 093e c2f2 7d3d 4b9b 9b3d 1a76 e33c
00000110: f5ff 153d 460d b7bd 845a 8abc 4255 96bc
00000120: 806c b53d fc93 5f3d 5382 113d d1af 873d
00000130: 7423 bbbd ad95 e9bc b905 553d 66e3 b33d
00000140: 569d aabd e8c1 263d ab15 8cbd 3a15 333d
00000150: 289c e5bc aedc f43d a389 80bd 6977 023e
00000160: 9ed7 ec3d 03da 21bd eed7 af3d b17c b03b
00000170: d3e1 c93d 2871 8e3d 9df4 e33d 4f60 2f3d
00000180: 3e52 8b3d e230 47bc b9f7 f03d 995b c23d
00000190: 073f a6bc 15b2 aabd ac77 4a3d d07c d6bd
000001a0: b38e f73d a7ef f13d fe0b 33bd 104c d3bd
000001b0: 8b33 213d 9b27 163d d7b9 05bc 66b8 a4bc
000001c0: 3bba 2d3c 67b6 bd3d e6a8 f73d 928c 683c
000001d0: aa5d 8a3d d1af fd3d 3bc7 a93d cd67 cf3d
000001e0: 3ccf 4d3d 0970 81bb 0a24 d13b 4f4e d83d
000001f0: bfaa 6b3d b8f6 9d3c ad12 763d 5994 693d
00000200: 76f1 263d aa1a ccbd 7669 8ebd cd07 7c3d
00000210: 7ce9 efbd 645c 833d a5dc b3bd 9f85 94bd
00000220: c2ce 70bd 0de1 7ebd c8dc 81bd 35bc 7b3d
00000230: 5c75 cfbd de46 d3bd b4db 75bd 78bc 8fbd
00000240: 00d6 3bbd 4028 24bd d3e0 053d 48c0 d5bd
00000250: 7a7e 903d 5f80 8b3d d001 88bd e166 33bd
00000260: 60d4 aa3d f6c0 9c3d 60e3 5237 8bd8 043e
00000270: 6e51 0cbd d1c8 b0bd 052d 183d 2d04 72bc
00000280: 3a97 f6bd 526f a3bd 211a 67bc d004 f93b
00000290: c621 4abd f64b d0bd c20d 00be 2420 f83d
000002a0: a684 c5bb 83e0 943d dca5 793c 020a 673d
000002b0: 3261 4bbd 70a8 7b3d fe73 313d ed9e 203d
000002c0: 3503 f63c 3df8 dfbd 8294 5c3d 9037 e7bd
000002d0: 75f1 36bd 7bf4 4a3d 34e5 ffbd 7870 ab3d
000002e0: 542e 153d 8d40 b9bb 50f0 b23d 564b 963d
000002f0: 5f1b 5cbd f0fb c9bd 5651 8bbd 7d85 cabd
00000300: b986 b23c 7c13 c13c 923c 31bd 79de 88bc
00000310: d6dc b93d d3bf 9cbd e470 f23d c551 48bd
00000320: 8d1e 053d 334b 483d 6588 af3d 6f31 213d
00000330: 9c4e 833c 7f30 cfbd 2078 0b3c 6b96 513d
00000340: ab8f 9a3d 5bc1 d73d f88b a9bc 8eab b23d
00000350: 9f59 be3c ce6a 33bd bf30 a6bc e444 c63d
00000360: 8ff0 6dbd 4428 683d a02b 92bc 19ae 6c3d
00000370: 5946 3cbd c7fc 3ebd 1474 ea3d 2cc5 8abd
00000380: 226d af3c ba42 373d 6620 26bd f521 0c3e
00000390: 4217 833b 281d 523c 0a3d 90bc cbeb 743d
000003a0: a7d6 ef3d 0b77 c9bd 224e c63c 9c6a d1bc
000003b0: 060d d2bc 6ee2 72bd c461 0a3d a6bd f9bc
000003c0: 62c6 843c 299d 963d 7b1e ab3d d7d4 82bd
000003d0: 9aab ad3b afd0 b6bc 11ba 74bc 779c 4e3d
000003e0: 3a00 95bc 09da 833d ed29 d23d 45ca 7e3c
000003f0: afc6 28bd f9ab f13d 567f 51bd c04b 01be

lstm.bias_hh_l0 f4 [256]
0.068627685 0.14589661 -0.027185395 0.073457524 0.011790598 0.037974853 -0.10267982 0.060887683
-0.045917198 -0.042594094 -0.026737396 -0.037928052 -0.0074375626 0.03531805 0.07336216 0.063635774
0.12444254 0.049191922 0.07379037 0.03705199 -0.016430039 0.010094968 -0.034188926 -0.00073107256
0.12400758 -0.014206797 0.11104061 0.105843246 -0.047691546 -0.0797372 0.025103386 0.0014870625
0.09554601 0.10497903 0.13347603 -0.09180704 0.14605206 0.033375748 -0.06507687 0.013118807
0.056388836 0.029719532 0.0004204321 -0.06642734 0.092399396 -0.05682484 0.1647307 0.052702595
-0.035862867 -0.0057733147 -0.00097291404 0.10068008 0.078837976 -0.04735167 -0.05709164 0.14606483
0.08238905 0.06962179 0.06486906 -0.10753472 0.04818441 0.037301775 0.078362055 -0.01692219
-0.09695873 0.12645236 -0.018664667 0.11743058 0.12617065 0.022649975 -0.06239011 -0.040839754
-0.057937358 0.11305496 0.12131173 -0.103466846 0.01111874 -0.03416241 0.07961381 0.10299936
0.07016473 -0.10150084 0.035487346 -0.08557524 -0.06604961 -0.0077803563 0.06889915 0.09920128
0.10629319 0.02705252 0.03137833 -0.016091675 0.01142409 -0.04637747 -0.05796256 -0.0013571635
-0.019763626 0.049882118 0.13112393 0.09653225 -0.016601363 -0.08198341 0.019336475 -0.021473704
-0.007964498 0.0058023944 -0.027598212 0.007148795 0.012751181 -0.043896522 0.11323296 -0.06945973
0.007133037 0.04705722 0.011236587 0.118065074 0.14425126 0.11142074 -0.010253543 -0.015514179
-0.059597887 0.013575359 -0.09813043 0.005569042 0.026718859 0.11207835 0.012996628 -0.070790194
0.032956224 0.10196121 0.050736338 0.1123537 -0.052812897 -0.079276375 0.10646362 0.052490424
0.053597793 -0.042373057 0.025663082 -0.06388664 0.054178737 0.097536415 0.08956551 0.12139688
0.10089201 0.0640131 0.006419863 -0.112743676 0.07822071 -0.11554449 0.103959754 -0.088018976
-0.11432457 -0.013461201 -0.07919009 0.08492388 -0.086955905 -0.0653707 -0.014112493 0.016159482
0.1050463 -0.07771577 -0.094484724 -0.045796975 0.10096042 -0.07726647 0.01640736 -0.07361351
-0.13979003 -0.06438016 -0.024161838 0.025880158 -0.098060705 0.13020375 -0.06428802 -0.03286269
-0.10011964 -0.048976395 -0.10459853 -0.06591323 -0.041352253 -0.05613471 -0.04790572 0.009798483
0.05121015 -0.10509555 -0.050961338 0.0021562213 -0.03559211 0.120533906 -0.0964188 0.024204815
0.07121791 0.09626089 0.10162568 -0.072934285 0.05317723 0.11542151 -0.04621122 0.012169312
0.13007464 -0.0791538 0.08522222 -0.13153811 -0.038842656 0.10802502 0.07127355 0.053043764
0.087803096 -0.09059978 -0.07308247 0.05469605 0.003407612 0.026494414 0.06828392 -0.09182942
0.0009346981 0.12579243 -0.03871938 -0.07021778 0.12831275 -0.008724874 0.0030938503 -0.032628674
-0.02757357 0.071070306 -0.040461995 0.02408568 0.028864969 0.088099025 0.04213361 0.07074305
-0.07894268 -0.020205079 0.14741972 0.04805813 0.056440435 0.10802966 0.15448268 -0.008542006
-0.07782256 0.117470674 -0.091516174 0.079316735 0.056864187 -0.00080707134 0.0037098126 -0.075742625
0.07485146 0.094054334 0.07638828 0.093208134 0.046962965 -0.041115493 0.055250797 0.06836845
00000000: ac8c 8c3d ec65 153e e8b3 debc e670 963d
00000010: 5a2d 413c 858b 1b3d cc49 d2bd 5d65 793d
00000020: ac13 3cbd 2577 2ebd 6208 dbbc 725a 1bbd
00000030: ccb6 f3bb a9a9 103d e63e 963d 7953 823d
00000040: bbdb fe3d 787d 493d 681f 973d d4c3 173d
00000050: 4a98 86bc 5d65 253c b009 0cbd 73a5 3fba
00000060: b0f7 fd3d a0c3 68bc 4269 e33d 58c4 d83d
00000070: 3658 43bd 424d a3bd 9ea5 cd3c 8ae9 c23a
00000080: a0ad c33d 3fff d63d f1ad 083e 5405 bcbd
00000090: ac8e 153e 02b5 083d 0647 85bd 44f0 563c
000000a0: fbf7 663d 6076 f33c 716d dc39 0f0b 88bd
000000b0: e53b bd3d 2ac1 68bd 2aaf 283e adde 573d
000000c0: f1e4 12bd 132e bdbb 280b 7fba 5c31 ce3d
000000d0: ce75 a13d d3f3 41bd ecd8 69bd 0592 153e
000000e0: 97bb a83d de95 8e3d 12da 843d 2a3b dcbd
000000f0: 045d 453d bfc9 183d 497c a03d 68a0 8abc
00000100: 4c92 c6bd ba7c 013e a5e6 98bc 727f f03d
00000110: e132 013e 718c b93c c68c 7fbd 9647 27bd
00000120: b94f 6dbd 5c89 e73d 4972 f83d 6de6 d3bd
00000130: 602b 363c e2ed 0bbd 910c a33d 54f1 d23d
00000140: 87b2 8f3d acdf cfbd 2e5b 113d 1242 afbd
00000150: 0545 87bd 5cf2 febb ff1a 8d3d 0a2a cb3d
00000160: 3eb0 d93d 3f9d dd3c 9086 003d b0d2 83bc
00000170: 1b2c 3b3c 4df6 3dbd 266a 6dbd dae2 b1ba
00000180: 54e7 a1bc 3151 4c3d 5a45 063e b3b2 c53d
00000190: 95ff 87bc ebe6 a7bd 8767 9e3c 9fe9 afbc
000001a0: 877d 02bc 0322 be3b a515 e2bc 7040 ea3b
000001b0: 54ea 503c d7cc 33bd afe6 e73d e740 8ebd
000001c0: 40bc e93b 12bf 403d a919 383c 1acc f13d
000001d0: 9ab6 133e 8f30 e43d 7afe 27bc 2f2f 7ebc
000001e0: ea1c 74bd 2f6b 5e3c 9bf8 c8bd 837c b63b
000001f0: 82e1 da3c 5589 e53d cfef 543c 73fa 90bd
00000200: 1bfd 063d 0ad1 d03d e8d0 4f3d b219 e63d
00000210: 5652 58bd a75b a2bd 9909 da3d 3300 573d
00000220: 5c89 5b3d 5f8f 2dbd 623b d23c 00d7 82bd
00000230: 86ea 5d3d 2cc1 c73d 1f6e b73d ed9e f83d
00000240: 78a0 ce3d 4d19 833d b75d d23b 28e6 e6bd
00000250: 2e32 a03d 97a2 ecbd dae8 d43d 4b43 b4bd
00000260: 0023 eabd 5f8c 5cbc 6a2e a2bd 92ec ad3d
00000270: f015 b2bd 13e1 85bd 1638 67bc e460 843c
00000280: 8422 d73d 7229 9fbd 3581 c1bd 9c95 3bbd
00000290: 56c4 ce3d e23d 9ebd ba68 863c aec2 96bd
000002a0: 1e25 0fbe bfd9 83bd 0cef c5bc a002 d43c
000002b0: 0dd4 c8bd 2254 053e 70a9 83bd 079b 06bd
000002c0: 870b cdbd 799b 48bd c137 d6bd 84fd 86bd
000002d0: fb60 29bd 82ed 65bd ca38 44bd d189 203c
000002e0: bcc1 513d 563c d7bd d6bc 50bd 644f 0d3b
000002f0: 08c9 11bd 7bda f63d 3877 c5bd 2d49 c63c
00000300: b2da 913d 6e24 c53d 2021 d03d 925e 95bd
00000310: 5ed0 593d 1d62 ec3d fa47 3dbd cb61 473c
00000320: 4932 053e 631b a2bd fd88 ae3d edb1 06be
00000330: 7a19 1fbd 393c dd3d def7 913d 6b44 593d
00000340: 1cd2 b33d 618c b9bd 43ac 95bd f708 603d
00000350: 3e52 5f3b d00a d93c 71d8 8b3d 1011 bcbd
00000360: 8706 753a bbcf 003e 3698 1ebd 57ce 8fbd
00000370: 6b64 033e c6f2 0ebc 32c2 4a3b a5a5 05bd
00000380: f8e1 e1bc 4f8d 913d 7abb 25bd 554f c53c
00000390: 3a76 ec3c 436d b43d 4b94 2c3d bbe1 903d
000003a0: b3ac a1bd 1f85 a5bc 32f5 163e 9ad8 443d
000003b0: 162e 673d a83e dd3d b530 1e3e c5f3 0bbc
000003c0: 6f61 9fbd 7794 f03d d56c bbbd d070 a23d
000003d0: 6cea 683d a491 53ba 5420 733b f31e 9bbd
000003e0: b94b 993d 8f9f c03d 7571 9c3d e8e3 be3d
000003f0: 3d5c 403d b868 28bd a94e 623d c204 8c3d

lstm.weight_ih_l1 f4 [256, 64]
-0.1224723 0.07987596 0.065451875 -0.11435974 0.017387332 -0.115829416 0.06391962 0.10556606
0.003221358 -0.09206741 0.020049205 -0.10364451 0.071086496 -0.035045996 0.053072255 0.09188916
0.06371737 -0.11092655 0.09112707 0.026857024 -0.116120145 0.042137526 0.06447795 -0.057983685
0.020912053 -0.036637288 0.103244305 -0.09400182 0.035279103 -0.00084598025 0.04716907 0.05506367
0.12747754 -0.10244134 0.046975307 0.00061839254 0.029549344 0.10306794 0.017917106 -0.02061024
0.07890475 -0.019166725 0.0024182345 -0.123786375 0.050725 -0.02462677 -0.13547105 0.11576943
-0.0012737166 -0.10016692 0.007758518 0.08643 -0.028795704 0.06191921 0.16248523 -0.11662764
0.10663625 -0.039117318 -0.024298111 -0.10184775 0.10765133 0.034205526 -0.07512333 0.08448945
0.010241933 0.10014156 -0.12160197 0.07830796 -0.052641347 -0.015743291 -0.045490634 0.018476803
-0.009577612 0.13215818 0.016006622 0.018785672 -0.06983921 0.12620923 -0.04917457 -0.023315573
0.021398729 -0.01888216 -0.012980306 -0.055745248 -0.050643653 0.021352146 0.11399268 -0.118821986
-0.04749415 -0.09996942 0.073979124 0.0056288727 -0.10655513 -0.10158333 -0.05750045 -0.09680141
-0.08816519 0.118133806 0.03271337 -0.11497785 -0.05841777 0.018868547 0.020923555 0.06780809
0.13554467 -0.11593251 -0.049743313 -0.067849495 0.0024403953 0.11719949 -0.027205678 -0.10933723
0.096530005 0.13346995 0.11736268 -0.088888414 0.07407508 0.050371177 0.047863804 -0.09916014
-0.034663785 0.10582952 0.020557584 -0.11168667 -0.03990227 0.04874941 0.0452527 -0.023924988
-0.12878147 -0.10301831 0.017350022 -0.00273906 -0.039867032 -0.050440986 -0.0553521 -0.04106565
-0.09346069 -0.10200544 -0.0033762434 -0.008726287 -0.13043983 -0.04901415 0.13944577 -0.061242055
0.015247684 0.019661156 0.10619254 -0.10917618 0.018756881 -0.00023796114 0.02406023 0.066463046
0.0636426 -0.069568545 0.08660271 0.10724571 0.010614261 0.033032294 -0.09499205 0.038746707
0.051537264 0.052415304 0.01154879 -0.03282643 -0.03190006 -0.10605145 0.00022111484 -0.068981275
0.07176568 0.03288706 -0.05805822 -0.05543709 0.081828155 -0.010331564 -0.18332581 0.06769909
-0.05401295 -0.060465425 0.014593813 0.0060503087 -0.00777123 0.080426276 -0.013417799 0.13103487
-0.053066157 -0.11218852 -0.017657816 -0.076196775 0.014341768 0.11881975 -0.1262168 -0.050453924
-0.1292008 -0.0814428 -0.13942064 0.02035573 0.075027704 -0.15823893 0.12908465 -0.023306308
-0.009578592 -0.046691477 0.08352263 -0.06285426 -0.02891648 0.07706867 0.14399809 0.14497143
0.07848887 0.08238156 0.0029769687 0.025252383 0.030427301 -0.029032703 -0.12953578 -0.07497219
0.034001198 0.06116501 0.071937144 0.034138124 -0.021415642 -0.04837824 -0.019805519 -0.14581199
0.044269484 -0.0453691 -0.05998728 -0.06595148 0.10654412 -0.09278766 -0.14141054 -0.02600293
-0.037230268 0.08068357 0.026208995 -0.055503555 -0.05243477 0.053711876 0.059832927 -0.023252802
0.03742128 -0.053468186 0.021907024 0.08341352 0.13480346 -0.006897843 -0.0061742878 -0.08585136
0.05241189 -0.09222498 -0.064298026 0.03663625 0.09659442 0.07215478 0.068484575 0.05797713
00000000: c2d2 fabd 0296 a33d a20b 863d 7035 eabd
00000010: e16f 8e3c f937 edbd 4ae8 823d 0533 d83d
00000020: 6b1d 533b d78d bcbd 3b3e a43c 9343 d4bd
00000030: cc95 913d 648c 0fbd 4b62 593d 6230 bc3d
00000040: 417e 823d 762d e3bd d4a0 ba3d 4303 dc3c
00000050: 66d0 edbd 6698 2c3d 040d 843d 4d80 6dbd
00000060: c14f ab3c fb10 16bd c071 d33d 0784 c0bd
00000070: d280 103d c6c4 5dba 5b34 413d 718a 613d
00000080: 7989 023e c4cc d1bd 2e69 403d 9f1b 223a
00000090: 7711 f23c 4915 d33d e5c6 923c ced6 a8bc
000000a0: d098 a13d 8903 9dbc 3e7b 1e3b b683 fdbd
000000b0: 05c5 4f3d 14be c9bc ecb8 0abe 8618 ed3d
000000c0: d6f2 a6ba 5024 cdbd 2b3b fe3b 3602 b13d
000000d0: f8e4 ebbc ff9e 7d3d 8762 263e 79da eebd
000000e0: 1b64 da3d 7b39 20bd d50c c7bc 8e95 d0bd
000000f0: 4d78 dc3d 181b 0c3d 43da 99bd ce08 ad3d
00000100: c8cd 273c 0517 cd3d 740a f9bd ec5f a03d
00000110: 749e 57bd 13f8 80bc 6354 3abd aa5c 973c
00000120: 6beb 1cbc 7954 073e 5220 833c 69e4 993c
00000130: dc07 8fbd fe3c 013e 466b 49bd 4d00 bfbc
00000140: 634c af3c c2ae 9abc 59ab 54bc 2155 64bd
00000150: b86f 4fbd b2ea ae3c ff74 e93d f158 f3bd
00000160: 3a89 42bd c4bc ccbd 5e82 973d 6872 b83b
00000170: 9339 dabd ec0a d0bd 9885 6bbd d13f c6bd
00000180: f38f b4bd 23f0 f13d 74fe 053d 8279 ebbd
00000190: 7947 6fbd 3692 9a3c e067 ab3c f8de 8a3d
000001a0: 39cc 0a3e 066e edbd a5bf 4bbd adf4 8abd
000001b0: 0aef 1f3b 4906 f03d 71de debc 33ec dfbd
000001c0: 86b1 c53d 59ac 083e d85b f03d 210b b6bd
000001d0: adb4 973d 0252 4e3d d60c 443d 7914 cbbd
000001e0: 9dfb 0dbd 26bd d83d 6168 a83c fbbb e4bd
000001f0: 9070 23bd 76ad 473d e55a 393d 56fe c3bc
00000200: 4adf 03be 44fb d2bd a221 8e3c cd81 33bb
00000210: 9d4b 23bd 359b 4ebd e2b8 62bd 7434 28bd
00000220: 5168 bfbd 3ae8 d0bd f743 5dbb b3f8 0ebc
00000230: 0592 05be 10c3 48bd dfca 0e3e f3d8 7abd
00000240: 6cd1 793c 6f10 a13c 797b d93d c397 dfbd
00000250: 08a8 993c 3585 79b9 f619 c53c c71d 883d
00000260: 0d57 823d f479 8ebd c35c b13d a4a3 db3d
00000270: 70e7 2d3c df4c 073d 318b c2bd deb4 1e3d
00000280: bd18 533d 6eb1 563d 2337 3d3c 0275 06bd
00000290: a3a9 02bd 8131 d9bd 10db 6739 0e46 8dbd
000002a0: e3f9 923d 95b4 063d 75ce 6dbd 0112 63bd
000002b0: 8595 a73d b845 29bc c3b9 3bbe d2a5 8a3d
000002c0: af3c 5dbd 98aa 77bd e31a 6f3c ab41 c63b
000002d0: cda5 febb 88b6 a43d 54d6 5bbc 012e 063e
000002e0: e65b 59bd 18c3 e5bd 20a7 90bc 0e0d 9cbd
000002f0: bcf9 6a3c c557 f33d fa3e 01be c6a8 4ebd
00000300: 374d 04be 7ccb a6bd 49c4 0ebe 0fc1 a63c
00000310: 20a8 993d 6309 22be c42e 043e dfec bebc
00000320: 87ef 1cbc 903f 3fbd ea0d ab3d bcb9 80bd
00000330: 41e2 ecbc 2ed6 9d3d 3c74 133e 6473 143e
00000340: c6be a03d aab7 a83d 3f19 433b 16de ce3c
00000350: ad42 f93c fed5 edbc 07a5 04be 058b 99bd
00000360: d744 0b3d 2988 7a3d c853 933d 6bd4 0b3d
00000370: db6f afbc 4328 46bd 2f3f a2bc bd4f 15be
00000380: eb53 353d f3d4 39bd 39b5 75bd 9211 87bd
00000390: ce33 da3d 7507 bebd edcd 10be 1904 d5bc
000003a0: c47e 18bd 6d3d a53d 3fb4 d63c b257 63bd
000003b0: d7c5 56bd fc00 5c3d 5f13 753d a97c bebc
000003c0: 0e47 193d 7501 5bbd 5c76 b33c b5d4 aa3d
000003d0: eb09 0a3e 4d07 e2bb ae51 cabb d6d2 afbd
000003e0: daad 563d 73e0 bcbd afae 83bd e40f 163d
000003f0: 4cd3 c53d e3c5 933d a441 8c3d 6d79 6d3d

lstm.weight_hh_l1 f4 [256, 64]
0.113897115 -0.050663278 0.1032008 -0.112202674 0.07852397 -0.027684968 0.055215266 -0.023479246
-0.09573524 0.018709196 -0.0030141475 -0.12424197 -0.041504715 -0.035132833 -0.082145914 0.0014421638
-0.0061688214 -0.076651104 0.0077383667 0.072505094 0.026588762 0.025353968 -0.010690766 0.075390644
0.03937887 0.041032113 0.1254041 -0.02661928 0.12383827 0.018276395 0.044897404 0.03781398
-0.0012765715 -0.034209065 0.052314535 0.090402395 -0.0692898 0.04026477 -0.086047485 0.12330065
0.07350494 -0.0073650316 -0.032875653 0.059810802 -0.04695337 0.0028695317 0.027157256 -0.07558022
-0.09622432 0.10552354 -0.04044256 0.03573911 -0.046419717 0.036339026 0.086353056 0.03450457
0.07163933 0.066468 0.096545815 -0.00046229784 -0.12035331 0.06056429 -0.07535911 0.07612305
0.086990066 0.05919508 -0.09627721 -0.057476792 0.010199011 -0.036804397 -0.10025025 -0.10766571
0.024577534 -0.045457162 -0.08499705 0.028656337 0.023096925 -0.02502421 0.06403282 -0.019320324
0.086876445 0.056077503 -0.009016821 0.12697843 0.05014492 0.025924789 -0.022545522 0.089120075
0.121316716 0.0059439316 -0.06294408 -0.09696726 0.039909657 0.12088184 -0.062435146 0.017512409
-0.116732456 -0.10265546 0.0008009352 -0.013218278 -0.06542063 -0.0119442595 -0.0703599 0.09229866
-0.029251784 -0.021954885 -0.10472241 0.042049386 -0.07064753 0.061732832 0.11635991 0.030513868
-0.03579676 -0.025789559 0.095756434 0.07010935 -0.025202401 -0.05889939 -0.054724842 0.08978583
-0.0701446 0.035248563 0.08950641 -0.026274746 0.06433429 -0.024772653 -0.025002254 0.01873185
-0.05226513 -0.013188818 0.10029492 0.08498578 0.080223665 0.028361836 -0.09267018 0.015393747
-0.09503427 0.06583033 0.04294094 0.07926185 0.08958873 0.13654664 0.0050811763 0.021654226
0.012829958 -0.07285397 0.113541216 0.04067987 -0.00849244 -0.0433967 0.107624635 0.08029665
0.06829609 -0.06682327 0.08450167 0.059486344 -0.075740695 0.003885215 0.11121267 -0.11608082
0.067835994 -0.12484644 0.06401173 -0.10943343 0.056491382 0.13203475 0.042553067 0.05433319
0.066000216 0.078200735 -0.018206052 0.05722202 -0.07161652 -0.025726374 0.08256243 0.07239203
0.051767524 -0.09066993 0.020653958 -0.009660157 0.013471787 -0.0384786 -0.048549328 0.035429914
0.09886541 0.054193456 -0.05481849 -0.15346254 0.09689024 0.07954688 0.14374895 0.067529365
0.09346221 -0.10605618 0.020606358 0.04628265 -0.02442996 0.033595596 -0.0055269315 0.13655202
-0.14154291 -0.05871717 0.10479992 0.040225495 -0.024329888 -0.10215981 -0.06871193 0.09502231
-0.014757337 0.13497187 0.026263442 0.10094708 -0.04257285 -0.047173057 0.08187177 0.089737274
-0.016484436 -0.097096965 -0.07220817 0.059075084 -0.025565121 0.007554531 0.03120272 -0.07591861
0.10360312 -0.0032062386 0.06368852 -0.09901563 -0.109030955 0.12322159 -0.10546775 -0.12819229
-0.103103764 0.056452315 0.045424946 0.023295056 -0.042297788 -0.11304065 0.0004820855 -0.012444633
0.04582905 -0.111840196 0.08814401 0.04861676 -0.1246428 0.07915756 0.016418783 0.11158824
0.12613152 0.07499839 0.05694852 -0.069495045 0.100834705 -0.017601812 0.02953991 -0.025041224
00000000: e442 e93d 4c84 4fbd f15a d33d 84ca e5bd
00000010: 2dd1 a03d 96cb e2bc 6729 623d 8c57 c0bc
00000020: d610 c4bd 0744 993c 0189 45bb 9372 febd
00000030: d900 2abd 72e7 0fbd 1e3c a8bd fd06 bd3a
00000040: d323 cabb 41fb 9cbd 2092 fd3b 8d7d 943d
00000050: add0 d93c 20b3 cf3c 5328 2fbc 6966 9a3d
00000060: bd4b 213d 4a11 283d ef69 003e ad10 dabc
00000070: eb9e fd3d 61b8 953c 57e6 373d d5e2 1a3d
00000080: a252 a7ba ce1e 0cbd c447 563d e424 b93d
00000090: d0e7 8dbd acec 243d aa39 b0bd 0d85 fc3d
000000a0: c289 963d 5d56 f1bb 9fa8 06bd 2cfc 743d
000000b0: 2d52 40bd c10e 3c3b e578 de3c cdc9 9abd
000000c0: 4211 c5bd ba1c d83d 19a7 25bd 2c63 123d
000000d0: 9a22 3ebd 3bd8 143d dfd9 b03d aa54 0d3d
000000e0: a4b7 923d 6020 883d d0b9 c53d 9160 f2b9
000000f0: cc7b f6bd 4312 783d e155 9abd 67e6 9b3d
00000100: d927 b23d 8a76 723d fc2c c5bd c96c 6bbd
00000110: c119 273c 35c0 16bd 0150 cdbd d77f dcbd
00000120: d356 c93c 4a31 3abd ef12 aebd b2c0 ea3c
00000130: c335 bd3c 92ff ccbc a423 833d a845 9ebc
00000140: 47ec b13d 86b1 653d 4abb 13bc a206 023e
00000150: c264 4d3d 3960 d43c 63b1 b8bc 9684 b63d
00000160: e674 f83d 50c5 c23b d3e8 80bd c596 c6bd
00000170: 4f78 233d e690 f73d ffbb 7fbd 2f76 8f3c
00000180: 6d11 efbd 073d d2bd daf5 513a 7a91 58bc
00000190: 40fb 85bd dbb1 43bc da18 90bd 1407 bd3d
000001a0: 70a1 efbc bbda b3bc b478 d6bd fa3b 2c3d
000001b0: a7af 90bd 91db 7c3d 1b4e ee3d 38f8 f93c
000001c0: a09f 12bd a044 d3bc f31b c43d 7e95 8f3d
000001d0: 4475 cebc 7d40 71bd 2827 60bd a2e1 b73d
000001e0: f9a7 8fbd cc60 103d 234f b73d 233e d7bc
000001f0: b2c1 833d 05f0 cabc 87d1 ccbc 8973 993c
00000200: f613 56bd e915 58bc 6c67 cd3d 060d ae3d
00000210: 4e4c a43d 1557 e83c ddc9 bdbd 0e36 7c3c
00000220: 54a1 c2bd 0dd2 863d d7e2 2f3d 0954 a23d
00000230: 4c7a b73d e2d2 0b3e ff7f a63b 3464 b13c
00000240: bf34 523c 7634 95bd 4c88 e83d ef9f 263d
00000250: e023 0bbc bdc0 31bd 4e6a dc3d 9272 a43d
00000260: d2de 8b3d a3da 88bd 360f ad3d f4a7 733d
00000270: f01d 9bbd 179f 7e3b 78c3 e33d c8bb edbd
00000280: 99ed 8a3d 7eaf ffbd 9518 833d a21e e0bd
00000290: 8263 673d 1e34 073e 204c 2e3d 7b8c 5e3d
000002a0: 1f2b 873d b527 a03d dc24 95bc a361 6a3d
000002b0: afab 92bd 1ec0 d2bc 7e16 a93d 4642 943d
000002c0: 2f0a 543d 28b1 b9bd 7d32 a93c a345 1ebc
000002d0: c5b8 5c3c bd9b 1dbd a9db 46bd f51e 113d
000002e0: f379 ca3d f5f9 5d3d 5a89 60bd 4925 1dbe
000002f0: 646e c63d 7ae9 a23d ed32 133e d64c 8a3d
00000300: 1d69 bf3d fc33 d9bd aace a83c e092 3d3d
00000310: 5721 c8bc 899b 093d 431b b5bb 4bd4 0b3e
00000320: a0f0 10be 6a81 70bd 57a1 d63d 7dc3 243d
00000330: 794f c7bc 2a39 d1bd d7b8 8cbd 0f9b c23d
00000340: c2c8 71bc 1136 0a3e 6e26 d73c 58bd ce3d
00000350: de60 2ebd 8938 41bd 63ac a73d 2dc8 b73d
00000360: 5e0a 87bc c6da c6bd e1e1 93bd b7f8 713d
00000370: f26d d1bc 008c f73b d99c ff3c 377b 9bbd
00000380: df2d d43d c21f 52bb 206f 823d b5c8 cabd
00000390: 9f4b dfbd 9a5b fc3d 7aff d7bd d744 03be
000003a0: 1128 d3bd 8b3a 673d 820f 3a3d 46d5 be3c
000003b0: 7240 2dbd db81 e7bd 6cc0 fc39 93e4 4bbc
000003c0: 3eb7 3b3d 790c e5bd d984 b43d 5e22 473d
000003d0: b944 ffbd 5c1d a23d af80 863c 6088 e43d
000003e0: 9f28 013e c298 993d da42 693d 6b53 8ebd
000003f0: 6d82 ce3d ad31 90bc aefd f13c 4123 cdbc

lstm.bias_ih_l1 f4 [256]
0.039157692 -0.001765784 0.07828047 -0.08961968 -0.021945508 -0.07577299 -0.040701065 0.14078143
0.087310545 -0.08660006 0.11293178 0.015964724 -0.0898678 0.030461438 -0.02920583 -0.07157363
0.016951827 0.04847544 -0.038048208 -0.007950146 0.086806744 0.0703895 -0.029179286 -0.05734358
-0.05096929 -0.03977745 -0.023092125 0.12487814 0.0780516 0.07878271 0.020768961 -0.0589104
-0.101118505 -0.032398865 -0.06910825 0.02088247 0.09929427 0.020154482 0.0949899 -0.081103586
-0.08031131 -0.077829055 -0.08504847 -0.046854116 0.10619529 0.101967454 0.0738229 -0.04594858
-0.07379034 -0.004458053 -0.07774997 0.11094489 -0.019628828 -0.01261983 -0.035302877 0.05348303
0.08915268 -0.07202228 -0.103714064 -0.039310616 0.09575805 0.0569002 -0.031485237 -0.03489047
0.061837114 -0.100485176 0.09806763 0.08836017 0.06266456 0.0070152804 -0.07157223 0.056967612
0.034004014 0.063009486 -0.05306869 -0.10164668 -0.024925912 -0.05762389 -0.0143428035 0.13794558
0.051766574 0.09041521 0.04643216 0.07840184 0.08520323 0.08153061 0.08504351 -0.08242043
-0.06725728 -0.0071105305 0.07043454 0.014956537 -0.03097253 0.0200702 -0.018621918 -0.103373036
-0.00427127 0.071150236 0.019114591 -0.06761928 -0.012547756 -0.1088076 0.027744591 -0.071856186
-0.030044187 -0.01135699 0.0672108 0.041470762 -0.13243559 -0.029370854 0.0004342788 -0.07488009
0.05490482 0.007847477 -0.018696632 -0.08678166 0.11537735 0.111369185 -0.12542239 -0.14280963
-0.09762504 0.07559993 -0.070378534 -0.10209151 0.06329927 0.12595405 0.036107212 -0.097577035
0.11458056 0.044578828 0.110286176 0.12999655 -0.031443898 -0.035159174 -0.05651453 0.07960709
-0.07377895 -0.049869306 0.067952216 -0.032677334 0.017891027 -0.057094723 0.04561074 -0.10840446
-0.12130323 -0.097703695 -0.092274815 0.05286424 0.11264964 -0.076365575 -0.05248476 -0.008333628
-0.059552103 -0.0012240458 0.07280672 -0.040726714 0.012189756 0.11112036 -0.06090718 -0.07146192
-0.028308129 0.022478899 0.026104014 0.03606288 -0.049785953 0.13952753 0.06426386 -0.044928607
0.04029276 -0.039944995 -0.052421372 -0.02392518 0.09701995 -0.04016029 -0.014135322 0.009873195
-0.13267714 -0.019539423 -0.09963283 -0.11708584 -0.10666287 -0.06645626 0.10573504 -0.017133309
0.11780117 0.07257988 -0.11622977 0.040831022 -0.04573651 0.07325797 0.113156244 -0.1311983
0.066227 0.040876657 0.089996316 0.029037751 -0.062542304 -0.13035998 -0.084279224 0.039597813
-0.035195418 -0.04321738 -0.097640045 0.08999358 -0.08928323 -0.09511433 -0.054919526 0.046808638
0.079144254 0.120439254 -0.006672861 0.0009598916 0.12559251 0.09197868 0.07659803 -0.052362267
-0.005378829 0.033422492 0.012771029 -0.100664765 0.09982201 0.01221197 -0.08319567 0.02911923
0.032750867 -0.07433596 0.015696846 -0.021007285 0.07963697 0.111911654 -0.030843053 0.06381487
-0.06392921 -0.10276375 0.12118145 0.011850246 0.07630642 0.10073944 -0.031268973 0.01246999
-0.00036891998 -0.1145074 0.013997861 0.02181155 0.103637025 -0.0019283445 0.025514463 0.004984187
-0.094060846 0.111964315 0.102365755 -0.08654014 -0.027903538 0.094380915 -0.017797325 -0.03377919
00000000: d163 203d e171 e7ba 8351 a03d 868a b7bd
00000010: 11c7 b3bc df2e 9bbd 29b6 26bd 0229 103e
00000020: dfcf b23d 5f5b b1bd c748 e73d 74c8 823c
00000030: 9c0c b8bd 448a f93c 1141 efbc 3295 92bd
00000040: 8fde 8a3c 2f8e 463d 70d8 1bbd 5441 02bc
00000050: bcc7 b13d 5f28 903d 6609 efbc 1ae1 6abd
00000060: 2dc5 50bd aeed 22bd b22b bdbc 1cc0 ff3d
00000070: 84d9 9f3d d458 a13d ab23 aa3c 084c 71bd
00000080: 3817 cfbd acb4 04bd a088 8dbd b711 ab3c
00000090: cb5a cb3d 031b a53c 118a c23d a319 a6bd
000000a0: 427a a4bd d764 9fbd e42d aebd 1aea 3fbd
000000b0: eb7c d93d 50d4 d03d 7630 973d 9434 3cbd
000000c0: 641f 97bd dc14 92bb 603b 9fbd 1337 e33d
000000d0: a3cc a0bc 67c3 4ebc c099 10bd 0611 5b3d
000000e0: ae95 b63d 6b80 93bd 0a68 d4bd 2b04 21bd
000000f0: cc1c c43d 2f10 693d aaf6 00bd 4fe9 0ebd
00000100: ea48 7d3d 2ccb cdbd aed7 c83d 2df6 b43d
00000110: 4756 803d 70e0 e53b 7694 92bd df56 693d
00000120: cb47 0b3d 1e0b 813d 8e5e 59bd 222c d0bd
00000130: 6d31 ccbc 0707 6cbd 14fe 6abc 9b41 0d3e
00000140: 3009 543d 9c2b b93d a62f 3e3d 2591 a03d
00000150: 087f ae3d 85f9 a63d 4b2b ae3d 0bcc a8bd
00000160: 2fbe 89bd 74ff e8bb fc3f 903d 430c 753c
00000170: 1aba fdbc 436a a43c fe8c 98bc 3eb5 d3bd
00000180: 02f6 8bbb 37b7 913d 3496 9c3c fa7b 8abd
00000190: 1a95 4dbc 85d6 debd a048 e33c 5629 93bd
000001a0: 3a1f f6bc ab12 3abc d1a5 893d 3fdd 293d
000001b0: 329d 07be 259b f0bc eaaf e339 bc5a 99bd
000001c0: e0e3 603d b492 003c ae29 99bc 95ba b1bd
000001d0: f64a ec3d 8715 e43d ba6e 00be b03c 12be
000001e0: a3ef c7bd 23d4 9a3d 9f22 90bd 5b15 d1bd
000001f0: 0ca3 813d 19fa 003e 28e5 133d 78d6 c7bd
00000200: 36a9 ea3d 4a98 363d b8dd e13d d11d 053e
00000210: 51cb 00bd 1103 10bd c87b 67bd 0b09 a33d
00000220: 6b19 97bd c243 4cbd 882a 8b3d abd8 05bd
00000230: 3490 923c 28dc 69bd 54d2 3a3d 2803 debd
00000240: d46d f8bd e018 c8bd 94fa bcbd 2c88 583d
00000250: dbb4 e63d 8e65 9cbd 42fa 56bd c589 08bc
00000260: e8ec 73bd 2970 a0ba b11b 953d 0ed1 26bd
00000270: 8bb7 473c 1293 e33d cf79 79bd a15a 92bd
00000280: 73e6 e7bc ab25 b83c 16d8 d53c acb6 133d
00000290: 5bec 4bbd 4ee0 0e3e c59c 833d 0f07 38bd
000002a0: 050a 253d 5d9d 23bd cbb7 56bd bdfe c3bc
000002b0: 65b2 c63d 1e7f 24bd d697 67bc 2ec3 213c
000002c0: 84dc 07be 2411 a0bc 4c0c ccbd b3ca efbd
000002d0: 1072 dabd 381a 88bd 9d8b d83d 275b 8cbc
000002e0: bd41 f13d c3a4 943d e009 eebd 6e3e 273d
000002f0: 3556 3bbd 4608 963d 76be e73d d958 06be
00000300: 05a2 873d 486e 273d fd4f b83d 94e0 ed3c
00000310: 2e16 80bd 167d 05be 969a acbd 5131 223d
00000320: 1229 10bd b504 31bd 81f7 c7bd 8e4e b83d
00000330: 20da b6bd 4dcb c2bd 4cf3 60bd 6aba 3f3d
00000340: 6216 a23d dba8 f63d 04a8 dabb 3ca1 7b3a
00000350: 539b 003e 515f bc3d 6edf 9c3d d179 56bd
00000360: e340 b0bb 06e6 083d 943d 513c 5429 cebd
00000370: 7b6f cc3d b714 483c 7e62 aabd 748b ee3c
00000380: c625 063d 743d 98bd ac96 803c 7817 acbc
00000390: b518 a33d f031 e53d 92aa fcbc 5fb1 823d
000003a0: 51ed 82bd cd75 d2bd fb2d f83d 8927 423c
000003b0: 8a46 9c3d 7b50 ce3d e513 00bd ee4e 4c3c
000003c0: 9a6b c1b9 db82 eabd 4957 653c 23ae b23c
000003d0: a63f d43d 81c0 fcba b503 d13c 6452 a33b
000003e0: f9a2 c0bd 8c4d e53d 23a5 d13d f53b b1bd
000003f0: f695 e4bc c84a c13d b2cb 91bc 0c5c 0abd
