src/deep_learning/artifacts/lstm_model_TSLA.pt (torch, 217167 bytes, 12 tensors)

lstm.weight_ih_l0 f4 [256, 2]
0	0xbcb71b93	-0.022352016
1	0x3d4f6e98	0.05064258
2	0xbd67b081	-0.05656481
3	0x3c408cc3	0.01175231
4	0x3dd51ea7	0.10406237
5	0x3d897e99	0.067136
6	0xbb8f9a8a	-0.004382436
7	0xbdf94bb0	-0.12172639
8	0x3df7c9e0	0.120990515
9	0x3ddc3faf	0.10754334
10	0x3e285c70	0.16441512
11	0x3d8903ca	0.06690176
12	0x3d200d9d	0.039075483
13	0x3dac82a0	0.08423352
14	0x3cdafbd6	0.026731413
15	0x3b5bb886	0.0033526733
16	0x3e048fc0	0.12945461
17	0xbada0ee3	-0.0016636517
18	0xbb866a49	-0.0041020256
19	0x3d85e457	0.06537693
20	0x3dea8361	0.1145084
21	0x3d60eca3	0.054913174
22	0xbbbb4bba	-0.0057158144
23	0xbb04e897	-0.0020280236
24	0xbc4ce23e	-0.012505112
25	0xbdd51491	-0.10404313
26	0x3d92d529	0.07169563
27	0xbd141ff2	-0.036163278
28	0xbce8c787	-0.028415455
29	0xbdc70c0c	-0.09719095
30	0x3df2998b	0.11845692
31	0xbce78ee7	-0.028266383
32	0xbd4033f8	-0.04692456
33	0xbdb02f33	-0.086027525
34	0xbdaa4431	-0.08313788
35	0x3cf66fa8	0.030082539
36	0xbd08407f	-0.033264633
37	0x3dbe9844	0.09306386
38	0x3dac2d8e	0.08407126
39	0xbd954522	-0.07288577
40	0x3bf5f8cf	0.007506467
41	0x3d69656b	0.056981485
42	0x3e18d7ba	0.14926043
43	0xbc02b2e5	-0.007977222
44	0xbc825e28	-0.015914038
45	0x3d3454d0	0.044026196
46	0xbd425bb1	-0.047450725
47	0x3dc9af47	0.098478846
48	0x3e21b263	0.15790705
49	0x3ca6a5b3	0.020342683
50	0x3be3357c	0.006933866
51	0x3d914fc0	0.07095289
52	0xbd2ec0cf	-0.042664345
53	0x3ddb117a	0.10696693
54	0xbbc24f9c	-0.0059299003
55	0xbe1ef64e	-0.15523645
56	0xbce46eb6	-0.027884822
57	0xbddea048	-0.10870415
58	0xbd81116c	-0.06302151
59	0x3ca55779	0.020183312
60	0x3c91bc4a	0.017789979
61	0xbe000c21	-0.12504627
62	0xbbb19a67	-0.0054200175
63	0xbe09db44	-0.1346255
64	0x3e34bc7a	0.17650023
65	0xbdd1df9d	-0.10247729
66	0xbd9caa1b	-0.076496325
67	0x3d0b8cf1	0.03406996
68	0xbdbdafc7	-0.092620425
69	0x3d0e86d3	0.034796547
70	0xbd343ab9	-0.044001315
71	0xbdf21c78	-0.11821836
72	0x3d48dd19	0.04903898
73	0xbd2faa74	-0.042887166
74	0x3c6d3c12	0.014479654
75	0x3d848ffb	0.064727746
76	0x3dc93a69	0.09825594
77	0xbd6a8aee	-0.0572614
78	0xbdb57e57	-0.08861988
79	0xbde24e5f	-0.11050104
80	0x3e297114	0.16547042
81	0xb981b4c0	-0.00024739467
82	0x3e0e3fb4	0.13891488
83	0xbe05d432	-0.13069227
84	0xbd3fb693	-0.046804976
85	0x3ddc48a6	0.10756044
86	0x3e20216e	0.15637752
87	0x3cf1597c	0.029461615
88	0x3da85cf7	0.08220857
89	0xbd63be4e	-0.05560141
90	0xbd1d7dcc	-0.038450047
91	0xbdc8bd14	-0.09801689
92	0x3b421dcb	0.0029619809
93	0xbcdba6d9	-0.026812958
94	0x3c908416	0.017641108
95	0xbdcf4ec3	-0.101224445
96	0x3cde729d	0.027154261
97	0x3dbe51a9	0.09292919
98	0xbd4aadf4	-0.0494823
99	0x3d9872ab	0.07443746
100	0xbcd4b7e5	-0.025966594
101	0xbdfdc414	-0.123909146
102	0x3e1646e7	0.14675485
103	0x3d8925cb	0.066966616
104	0x3d3a754c	0.04552202
105	0x3dab577e	0.08366297
106	0x3e22bc66	0.15892181
107	0x3dc304ee	0.09522425
108	0x3d9b5280	0.07584095
109	0xbdf51e3d	-0.11968658
110	0xbb0eda08	-0.0021797437
111	0x3d2eb67d	0.042654503
112	0x3d98f4b8	0.074685514
113	0x3c58f3f9	0.013241761
114	0xbcb6602f	-0.02226266
115	0x3decf892	0.115708485
116	0xbd3fa624	-0.046789303
117	0xbe0cfe2f	-0.13768838
118	0xbd146a07	-0.036233928
119	0xbdc72f2d	-0.09725795
120	0x3d461326	0.048358105
121	0xbd8adac3	-0.06780007
122	0x3e3885ca	0.18019786
123	0x3d7881ad	0.060670543
124	0x3db8d9d6	0.09025924
125	0x3dbc322a	0.091892555
126	0x3d43bb6b	0.047786158
127	0xbc78e756	-0.015191874
128	0x3d2cec12	0.04221732
129	0x3d8d9ad3	0.06914296
130	0x3d252d5b	0.040326457
131	0x3cab4e3f	0.020911334
132	0x3e1d9f4b	0.15392797
133	0x3d14ce14	0.036329344
134	0x3c018982	0.00790632
135	0xbc2a35fd	-0.010388848
136	0x3e19ee5f	0.15032338
137	0xbcc06abb	-0.023488393
138	0xbc3b5e67	-0.0114360815
139	0x3d0dd4d0	0.034626782
140	0xbd3fb17b	-0.046800118
141	0xbd3b2dc6	-0.04569795
142	0x3d08092c	0.033211872
143	0x3df12e2a	0.11776383
144	0xbcdd5cf4	-0.027021863
145	0x3d749d1f	0.059720155
146	0x3d218419	0.03943262
147	0xbdedaf1a	-0.116056636
148	0xbd494332	-0.049136348
149	0x3cd9fbdf	0.02660936
150	0xbc46f6c7	-0.012143797
151	0x3d0a0597	0.033696737
152	0x3e0d1ab0	0.13779712
153	0xbd4ee4ad	-0.05051105
154	0x3e44f401	0.19233705
155	0xbd4ea3bc	-0.050449118
156	0x3e076d3f	0.13225268
157	0x3d8674a9	0.0656522
158	0x3e03417c	0.12817949
159	0xbe051140	-0.12994862
160	0x3e36a1b1	0.17835118
161	0xbd7a42b0	-0.061098754
162	0xbbb3dc96	-0.0054889424
163	0x3dbbb033	0.09164467
164	0xbc9da0d1	-0.019241722
165	0x3d17679e	0.03696405
166	0x3d63020b	0.05542187
167	0xbddff289	-0.10934932
168	0xbd0c062b	-0.03418557
169	0x3beeceb7	0.007287826
170	0x3e0b3685	0.13595016
171	0xbdf7f38f	-0.12107002
172	0x3e1f117b	0.15534012
173	0x3da1c164	0.078982145
174	0x3da8d56b	0.08243831
175	0xbcdba7e5	-0.026813457
176	0x3d03a3cc	0.03213863
177	0x3dce3b79	0.10069937
178	0x3e04c5a6	0.12966022
179	0xbcc54bf3	-0.024084067
180	0x3d39ade5	0.045331854
181	0x3e02225e	0.12708423
182	0x3d6f2c6b	0.05839197
183	0x3d004b92	0.03132207
184	0xbc490949	-0.01227028
185	0xbd9fd2ac	-0.07803854
186	0x3e04bcc9	0.12962641
187	0x3d511099	0.05104122
188	0x3d582db5	0.052777965
189	0x3d7db773	0.06194253
190	0x3e0c83b8	0.13722122
191	0xbde33478	-0.11093992
192	0x3d73eeda	0.05955396
193	0xbc3f9e6e	-0.011695487
194	0x3da91690	0.082562566
195	0x3dc6ddf8	0.09710306
196	0x3d9fc68d	0.078015424
197	0x3d0ba49e	0.034092538
198	0x3de04e21	0.10952402
199	0xbd1d9748	-0.03847435
200	0xbd2319b3	-0.03981943
201	0x3e0be749	0.13662447
202	0x3da16769	0.07881052
203	0x3b3a7580	0.0028451383
204	0x3d0854ec	0.033284113
205	0x3dedf600	0.116191864
206	0xbd873fd9	-0.06603975
207	0xbd8e754d	-0.06955967
208	0x3e33ec50	0.17570615
209	0xbd95598c	-0.0729247
210	0xbdb4629a	-0.08807869
211	0xbe0280a0	-0.12744379
212	0x3e29f984	0.16599089
213	0xbd3ee11a	-0.046601392
214	0x3e25224f	0.16126369
215	0xbd21a067	-0.039459612
216	0x3d20bf19	0.039244745
217	0xbdb17306	-0.08664517
218	0x3e0ce57a	0.13759413
219	0xbdcf1b4d	-0.10112629
220	0x3dc1a992	0.09456171
221	0xbdafee8f	-0.08590423
222	0x3e077724	0.13229042
223	0xbc080167	-0.008301116
224	0xbbb460be	-0.0055046966
225	0x3d17f45b	0.03709827
226	0xbd2febda	-0.042949535
227	0x3d48bf5b	0.049010616
228	0xbd826344	-0.0636659
229	0x3cd5291f	0.026020585
230	0xbd115397	-0.035480108
231	0xbd7c871d	-0.06165229
232	0x3e04b9e9	0.12961544
233	0x3e1f23b3	0.15540962
234	0x3dfadc16	0.12249009
235	0x3d948579	0.072520204
236	0x3da658a7	0.08122378
237	0x3c4472ab	0.01199023
238	0x3dd352c1	0.103185184
239	0xbda2a9a9	-0.07942516
240	0x3ce015b6	0.027354103
241	0x3dbdb8e3	0.0926378
242	0x3e14574a	0.14486423
243	0x3d218e12	0.03944213
244	0x3e28df2c	0.16491383
245	0xbda0a45b	-0.07843848
246	0x3d07868e	0.033087306
247	0x3ca21158	0.01978366
248	0x3cda03d5	0.026613155
249	0xbc5f6327	-0.01363448
250	0x3d8581d4	0.065189034
251	0x3d5624c4	0.052281156
252	0xbc477deb	-0.012176017
253	0x3d9fbcf6	0.07799713
254	0x3cea4431	0.02859697
255	0x3de4aaaa	0.11165364

lstm.weight_hh_l0 f4 [256, 64]
0	0x3c7944d8	0.015214168
1	0xbd1a0222	-0.03759969
2	0xbc0857f9	-0.008321756
3	0xbc82d0a2	-0.015968625
4	0xbcbad0a6	-0.02280457
5	0x3c0897af	0.008336945
6	0x3ce6ec7c	0.028188936
7	0xbd1afef3	-0.037840795
8	0x3d9c2046	0.07623343
9	0x3d9aa90e	0.07551776
10	0xbd84a9ab	-0.06477674
11	0xbe216125	-0.15759714
12	0xbe06e3e0	-0.13172865
13	0x3cbe6129	0.023239689
14	0xbd7e2c9e	-0.06205427
15	0x3d848c71	0.064720996
16	0x3bc3ca24	0.005975025
17	0xbd7424c0	-0.05960536
18	0xbdca4947	-0.09877258
19	0xbde2fffd	-0.11083982
20	0xbd396fa7	-0.045272496
21	0xbd61997d	-0.05507802
22	0xbe2ddb11	-0.16978098
23	0xbdf0904c	-0.117462724
24	0xbdca21c8	-0.098697245
25	0x3d6bf5d3	0.057607483
26	0xbda2acb9	-0.079431005
27	0xbd2be7de	-0.041969173
28	0x3e0f7930	0.14011073
29	0xbda0ae11	-0.078457005
30	0xbe22d20f	-0.15900443
31	0x3dab671c	0.08369276
32	0xbcc40ea1	-0.023932757
33	0x3c93d5a1	0.018046202
34	0x3d66bdd2	0.05633337
35	0xbd7663b1	-0.060153667
36	0xbbc25194	-0.005930135
37	0x3d6151ff	0.05500984
38	0xbc0093c6	-0.007847732
39	0x3d3801c1	0.044923548
40	0xbe08e0be	-0.13366982
41	0xbcb11a5e	-0.021619018
42	0x3d797d0d	0.060910273
43	0xbe127de9	-0.14305843
44	0xbb820492	-0.00396783
45	0xbdec0990	-0.115252614
46	0xbdc52aa0	-0.09627271
47	0xbd80f4c0	-0.06296682
48	0x3dc70477	0.097176485
49	0x3d231127	0.03981128
50	0xbdfcbc37	-0.12340587
51	0x3ddf97f2	0.10917653
52	0xbd3e0490	-0.04639107
53	0xbd8eb34d	-0.06967793
54	0x3cad56d8	0.021159574
55	0xbdbf04e5	-0.093271054
56	0xbcc236b2	-0.023707721
57	0x3cd24d8d	0.025671745
58	0xbd10bf76	-0.03533884
59	0xbd9fa7ca	-0.07795675
60	0xbd5ee250	-0.054415047
61	0xbde0e950	-0.10982001
62	0x3c263b1c	0.010145929
63	0x3dc76dcc	0.09737739
64	0x3d306f7d	0.043075074
65	0xbdf3bcc7	-0.11901241
66	0xbd044a1a	-0.03229723
67	0xbe01979b	-0.12655489
68	0xbd620b3e	-0.055186503
69	0xbde292ff	-0.110631935
70	0xbc78c8d2	-0.015184598
71	0x3d68578a	0.05672411
72	0xbd934b3b	-0.071920834
73	0xbc36f39d	-0.01116648
74	0xbd5580c5	-0.052124757
75	0xbdfdd169	-0.123934574
76	0xbe0e66cc	-0.13906401
77	0xbe06cd2b	-0.13164203
78	0xbc4d5d7d	-0.012534496
79	0x3d2c21d7	0.04202446
80	0x3b981051	0.004640617
81	0xbd481187	-0.04884484
82	0xbc2f53a2	-0.010701092
83	0xbcb0aefd	-0.021567816
84	0x3dc087dc	0.09400913
85	0xbd07f74d	-0.03319483
86	0x3e2e0bed	0.16996737
87	0x3d7c2a72	0.061563917
88	0x3caa94eb	0.020822963
89	0xbda43b1a	-0.08019085
90	0xbd7b1151	-0.06129581
91	0x3dada33c	0.084784
92	0xbd8c9588	-0.06864458
93	0xbd8171bb	-0.063205205
94	0xbe196a63	-0.1498199
95	0x3d5aa982	0.05338431
96	0xbe117685	-0.14205368
97	0xbdb827ee	-0.08991991
98	0x3d301dee	0.042997293
99	0x3deecff8	0.11660761
100	0xbca72ac7	-0.02040614
101	0xbd73807c	-0.059448704
102	0xbd2a8742	-0.0416329
103	0x3dc16302	0.09442712
104	0x3da74f1c	0.08169386
105	0xbdeb7480	-0.1149683
106	0xbd03a330	-0.03213805
107	0xbd27fca9	-0.04101244
108	0xbd5edc88	-0.054409534
109	0x3b66419f	0.0035134328
110	0xbd020967	-0.031747248
111	0xbe040d83	-0.1289578
112	0xbe092135	-0.13391574
113	0xbdd86bac	-0.10567412
114	0xbdaf2376	-0.085516855
115	0x3d466fcd	0.048446465
116	0x3de0d502	0.10978128
117	0x3e1137b7	0.1418141
118	0x3d8983c7	0.06714588
119	0x3d841dde	0.06451009
120	0x3cbe7d2f	0.023253052
121	0xbd10eebb	-0.03538392
122	0xbcb9719c	-0.022637181
123	0xbdc574b0	-0.09641397
124	0xbd0b886d	-0.034065653
125	0xbdddd3ff	-0.10831451
126	0xbc2c39ef	-0.010511859
127	0x3dbf867b	0.09351822
128	0x3c6eadc2	0.014567794
129	0xbcce0638	-0.02514945
130	0x3e278bce	0.16361925
131	0xbd3f8497	-0.046757307
132	0xbc446b32	-0.011988448
133	0x3c41505a	0.011798942
134	0xbd7a006f	-0.06103557
135	0x3c271c2d	0.010199589
136	0x3d268844	0.040657297
137	0xbd1fcf93	-0.039016318
138	0xbc8affc1	-0.016967656
139	0xbe12ece1	-0.14348175
140	0x3cf59387	0.029977573
141	0x3d1ecdf8	0.038770646
142	0x3d0755ef	0.033040937
143	0xbe142bd9	-0.14469852
144	0x3d51340c	0.051075026
145	0x3d1c684c	0.038185403
146	0x3dfe0488	0.12403208
147	0x3d5adc7d	0.05343293
148	0x3e14e0e4	0.14538914
149	0xbd8eb32c	-0.06967768
150	0x3d879420	0.066200495
151	0x3c32445f	0.010880559
152	0xbdc586ed	-0.09644876
153	0xbce91e51	-0.028456839
154	0xbb739ef5	-0.0037173603
155	0x3d1e3878	0.03862807
156	0x3adefd41	0.0017012731
157	0xbda4d5ee	-0.08048616
158	0x3d24100f	0.040054377
159	0x3d9d0bf2	0.07668294
160	0xbda3bd18	-0.07995051
161	0x3c507fbb	0.012725766
162	0x3ddaafe2	0.10678078
163	0x3de7d16b	0.1131924
164	0xbbe6fc5b	-0.007049126
165	0xbd532069	-0.05154458
166	0xbde110d6	-0.10989539
167	0x3e0a6a1f	0.13517044
168	0xbc9adfb2	-0.018905494
169	0x3d89f120	0.06735444
170	0x3a413999	0.00073709484
171	0x3d5effb0	0.05444306
172	0x395eca49	0.00021246927
173	0xbe0ebd1c	-0.13939327
174	0x3d3299fd	0.043603886
175	0x3d2c85f0	0.04211992
176	0xbdb0f490	-0.086403966
177	0x3d9f070f	0.07765018
178	0xbd94db44	-0.07268384
179	0xbd9fe5ce	-0.07807504
180	0x3c111420	0.008854896
181	0x3d9e60f1	0.07733334
182	0x3cdd692d	0.02702769
183	0xbd74dbd5	-0.05977996
184	0xbdc5d0df	-0.096589796
185	0x3ca12597	0.019671245
186	0x3dbcce5b	0.09219047
187	0x3d38997e	0.045068257
188	0xbe11b53b	-0.1422929
189	0xbdf52566	-0.11970024
190	0xbe078a7a	-0.13236418
191	0xbc9ed21d	-0.0193873
192	0x3d52e40f	0.051487025
193	0xbe08c691	-0.13356997
194	0x3e120378	0.14259136
195	0x3d7361b4	0.05941935
196	0x3ddae458	0.10688084
197	0xbd530af8	-0.051524132
198	0x3da32c19	0.07967395
199	0xbdab14c8	-0.08353573
200	0x3d305a44	0.043054834
201	0x3cce2de4	0.025168367
202	0xbdeac33b	-0.114630185
203	0x3a1e627a	0.0006041896
204	0xbde2f84d	-0.11082516
205	0xbd9e30b2	-0.07724132
206	0xbdfbbc60	-0.12291789
207	0x3da44770	0.08021438
208	0xbd96416a	-0.073366955
209	0x3df88338	0.12134403
210	0xbd8e539e	-0.069495425
211	0xbd6731e6	-0.05644407
212	0x3e03df28	0.12878096
213	0xbd587524	-0.05284609
214	0x3e45aaf9	0.19303502
215	0xbd2be5af	-0.04196709
216	0x3dc2286b	0.09480365
217	0xbd574b5f	-0.052562114
218	0xbd41581c	-0.04720317
219	0x3d6012f9	0.054705594
220	0x3df04207	0.11731344
221	0xbc5b64c4	-0.013390724
222	0xbe0681be	-0.1313543
223	0xbe11c942	-0.1423693
224	0x3d33da47	0.043909337
225	0xbc963779	-0.018336998
226	0xbd72ccea	-0.059277453
227	0x3e1453f4	0.1448515
228	0xbe065eda	-0.1312212
229	0xbd214a85	-0.039377708
230	0x3d737e77	0.05944678
231	0xbc905413	-0.017618215
232	0xbdac9751	-0.08427299
233	0x3cbb77ab	0.02288421
234	0xbd52aa2a	-0.051431812
235	0xbd20b10c	-0.039231345
236	0x3d6e4800	0.058174133
237	0x3d90599d	0.070483424
238	0x3d93c4b3	0.07215252
239	0xbdce1d6a	-0.10064204
240	0xbe01db76	-0.12681374
241	0xbdcedca0	-0.10100675
242	0x3daadd20	0.083429575
243	0xbdb90ed1	-0.09036029
244	0x3da12b37	0.07869571
245	0xbd7cc18e	-0.061708026
246	0xbd2f983f	-0.042869803
247	0x3b2c66e3	0.0026306442
248	0xbe16eb06	-0.14738092
249	0x3d8273bf	0.06369733
250	0xbb7a5067	-0.0038194896
251	0xbd8a0b8a	-0.06740482
252	0xbd2c2519	-0.042027567
253	0xbe0d8db5	-0.13823588
254	0xbc0e18f5	-0.008672942
255	0xbd37ac06	-0.04484179

lstm.bias_ih_l0 f4 [256]
0	0x3e078553	0.13234453
1	0x3d03c1c7	0.032167222
2	0xbdb3658b	-0.08759602
3	0xbdb988f9	-0.090593286
4	0x3e000dde	0.1250529
5	0xbced654c	-0.028978966
6	0x3bbf4862	0.005837486
7	0x3d9b3355	0.0757815
8	0x3c9c27b8	0.019061908
9	0x3cb230dc	0.021751814
10	0xbc642e9d	-0.013927129
11	0x3cd2faad	0.025754297
12	0xbdc4e758	-0.09614438
13	0x3d4153d6	0.047199093
14	0x3c6097a6	0.013708031
15	0x3d96c959	0.07362623
16	0x3e0c025c	0.13672775
17	0xbdde2472	-0.10846795
18	0x3c4cf68e	0.012509955
19	0xbd5d5262	-0.054033644
20	0x3de4abe1	0.11165596
21	0x3cee9b80	0.029126883
22	0x3d810c4c	0.063011736
23	0x3ce4e463	0.027940935
24	0xbd240af6	-0.040049516
25	0xbd7bab3e	-0.061442606
26	0x3d36823d	0.0445578
27	0x3d6eb942	0.058282144
28	0xbdcd3355	-0.100195564
29	0x3c0f13d1	0.008732752
30	0xbdd5e0f1	-0.10443295
31	0xbc32b412	-0.01090719
32	0xbdb8d3e2	-0.090247884
33	0x3dd67737	0.10471957
34	0xbdd4a028	-0.1038211
35	0x3d2e7970	0.04259628
36	0x3d80a8a9	0.06282169
37	0x3dc83f7c	0.09777734
38	0xbe0d7e66	-0.13817748
39	0x3c153a8a	0.009108195
40	0x3df64319	0.120245166
41	0x3ceddc3d	0.029035682
42	0xbd8fba69	-0.07017977
43	0x3df22ff9	0.11825556
44	0x3d9a8479	0.075447984
45	0xbd11f26e	-0.03563159
46	0xbe0b824a	-0.1362392
47	0x3a9598d9	0.001141335
48	0xbc2f0f26	-0.010684764
49	0x3d5a395a	0.05327735
50	0x3db40589	0.08790118
51	0x3dc36d58	0.0954234
52	0xbcb0ca49	-0.021580832
53	0xbddaa815	-0.1067659
54	0xbd3d9717	-0.04628667
55	0x3d89f223	0.06735637
56	0xbd638faf	-0.05555695
57	0x3da4bcdc	0.080438346
58	0x3e0a52ad	0.13508101
59	0x3d87a7ae	0.06623779
60	0x3dc722f7	0.09723466
61	0x3dc13df8	0.09435648
62	0x3d8fc8fc	0.070207566
63	0x3d8fc4aa	0.070199326
64	0xbd9b837c	-0.07593438
65	0xbd0f57b3	-0.034995746
66	0x3d3c5eac	0.045988724
67	0x3d9d420b	0.07678612
68	0xbd99d1e6	-0.07510738
69	0xbd537b39	-0.051631186
70	0x3dbe53b3	0.09293308
71	0x3e0978bd	0.13424964
72	0x3deb9453	0.115029
73	0xbbe2fdb2	-0.0069272155
74	0x3ada84ee	0.0016671696
75	0xbd506a82	-0.050882824
76	0xbceaf300	-0.028680325
77	0xbdbe831a	-0.093023494
78	0x3be16b4c	0.006879246
79	0x3e1a333e	0.1505861
80	0x3e0b11b0	0.13580966
81	0xbd99171b	-0.0747511
82	0x3dcfc5bf	0.10145139
83	0x3dce5df7	0.10076516
84	0x3d24ddf3	0.04025073
85	0xbdc75e9d	-0.09734843
86	0x3e292c4f	0.16520809
87	0x3d891fba	0.066955045
88	0xbbb0753c	-0.005385069
89	0xbda8ffc8	-0.082519114
90	0xbcea96fd	-0.02863645
91	0x3d0167db	0.031593185
92	0xbc6e8752	-0.01455863
93	0x3dedcbcf	0.11611139
94	0xbd0b5732	-0.034018703
95	0x3d897908	0.06712538
96	0x3de8d739	0.113691755
97	0x3db0901a	0.08621235
98	0xbcadf350	-0.021234185
99	0xbdc46e37	-0.09591334
100	0x3dbab2de	0.091161475
101	0x3b9c43b6	0.004768814
102	0xbbbd3972	-0.0057746703
103	0xbdce2e95	-0.100674786
104	0xbd54b6d1	-0.05193216
105	0x3bbbfd74	0.005737001
106	0x3c918c85	0.0177672
107	0x3c888af7	0.016667826
108	0x3da9c46d	0.08289418
109	0xbc967c6f	-0.018369881
110	0x3c7b7d3b	0.0153496815
111	0xbc561f81	-0.013069035
112	0xbbbd8bac	-0.0057844725
113	0xbd40a10c	-0.047028586
114	0xbce4a5e2	-0.02791113
115	0x3dd316a2	0.10307051
116	0x3d7933b4	0.060840324
117	0xbdddc5af	-0.10828721
118	0xbb9c87ce	-0.0047769314
119	0x3c7b1bd5	0.01532646
120	0xbb589aa0	-0.0033051148
121	0x3de05bd4	0.10955015
122	0xbd7e189f	-0.0620352
123	0x3d5e6b51	0.054301564
124	0x3df72cb9	0.12069077
125	0xbae01a98	-0.0017097769
126	0xbcaff941	-0.021481158
127	0x3d8dcdda	0.06924029
128	0x3d2db72d	0.04241102
129	0xbbc963b2	-0.006145918
130	0x3df26220	0.11835122
131	0xbdf02211	-0.11725248
132	0x3d420986	0.047372364
133	0xbdefe980	-0.117144585
134	0x3daace70	0.08340156
135	0x3deb8757	0.115004234
136	0x3d80c603	0.06287768
137	0xbd4d49ee	-0.050119333
138	0xbcaf8ad3	-0.021428501
139	0xbdb650cb	-0.08902129
140	0x3d421ad3	0.047388863
141	0xbd4403b3	-0.04785509
142	0x3c3c8938	0.011507325
143	0x3dd3c65b	0.10340568
144	0xbdd11dd6	-0.10210769
145	0x3dc38045	0.0954595
146	0xbdcfc068	-0.101441205
147	0x3d6e7382	0.058215626
148	0x3da82e1a	0.08211918
149	0xbe011c5a	-0.12608472
150	0x3d8db8a7	0.06919985
151	0xbce09444	-0.027414449
152	0x3cd2d0e0	0.025734365
153	0xbd8e53cb	-0.06949576
154	0x3ded612e	0.11590801
155	0xbc8c3c8a	-0.017118711
156	0x3d90ae6e	0.0706452
157	0xbdf4791a	-0.11937161
158	0xbdd6c78c	-0.10487279
159	0x3d5706cb	0.052496713
160	0xbd85525c	-0.065098494
161	0x3d55d881	0.052208427
162	0x3c186626	0.009301698
163	0xbdbed4f4	-0.09317961
164	0x3d8d215c	0.068911284
165	0xbd7e3a8e	-0.06206756
166	0x3d9f84b8	0.07788986
167	0x3da5ecbd	0.08101795
168	0xbd8623f8	-0.06549829
169	0xbd93be14	-0.07213989
170	0xbdd697a9	-0.10478146
171	0xbcd06e3f	-0.025443194
172	0xbdf6d886	-0.12053017
173	0x3d821d3b	0.063532315
174	0x3db51a98	0.08842963
175	0xbd1d1c88	-0.038357288
176	0xbd714066	-0.058899306
177	0xbd1ec3db	-0.038761
178	0x3d32b471	0.043629114
179	0x3d1c7f2e	0.038207226
180	0xbda29e37	-0.07940333
181	0x3cf3c209	0.02975561
182	0x3c8450df	0.016151844
183	0xbdd8cb0a	-0.10585602
184	0xbdd141a0	-0.10217595
185	0x3d06e746	0.032935403
186	0x3d334431	0.043766204
187	0x3d463c45	0.04839732
188	0xbdb03a76	-0.086049005
189	0xbdea08fe	-0.114274964
190	0xbdb2f454	-0.08738008
191	0xbba40df6	-0.005006547
192	0x3d2b07f9	0.04175565
193	0xbdad297a	-0.08455177
194	0x3e07f7bf	0.13278101
195	0xbc08509c	-0.00832
196	0x3cf7c2e2	0.030244295
197	0x3ddaedd1	0.10689891
198	0xbd516f8c	-0.05113177
199	0x3dde7ec6	0.10864024
200	0xbd8aac04	-0.067710906
201	0xbd079d47	-0.033108976
202	0x3d3f1046	0.04664638
203	0xbcff7f93	-0.031188762
204	0xbd2eda2a	-0.042688526
205	0xbdb26857	-0.087113075
206	0x3de6ff00	0.11279106
207	0x3d84e0ec	0.06488213
208	0xbb95f026	-0.004575747
209	0xbdcf3564	-0.10117605
210	0xb9badf61	-0.00035643115
211	0xbd0c9e5a	-0.034330703
212	0x3d2eb48f	0.042652663
213	0x3e083f94	0.13305503
214	0xbaad0e11	-0.0013203045
215	0x3d667114	0.056260183
216	0xbd24beb3	-0.040220927
217	0x3cf55548	0.029947892
218	0xbc8b9075	-0.017036656
219	0xbcc2e849	-0.023792403
220	0xbd82735e	-0.06369661
221	0x3c970d40	0.018438935
222	0x3d56c44f	0.05243331
223	0xbc073a98	-0.008253716
224	0xbde2fa7a	-0.11082931
225	0x3e08da12	0.13364437
226	0xbdb84e4e	-0.089993104
227	0xbd9e80d3	-0.07739415
228	0x3d9b1397	0.07572096
229	0x3db39b50	0.08769858
230	0x3d8f0093	0.069825314
231	0xbdbeb8ee	-0.09312616
232	0x3e174731	0.14773251
233	0xbd9adb5e	-0.07561372
234	0x3dd4e679	0.10395522
235	0x3df938c1	0.12169028
236	0x3d3b7506	0.0457659
237	0xbdc10ce5	-0.094262876
238	0xbd2b4a81	-0.0418191
239	0xbc748bf8	-0.014925949
240	0xbc89ef5a	-0.016837765
241	0xbd8e0572	-0.06934632
242	0x3d8a06b6	0.06739561
243	0x3d88a67b	0.06672379
244	0xbd902428	-0.07038146
245	0xbce4f31f	-0.02794796
246	0x3be28591	0.006912895
247	0x3db096c8	0.08622509
248	0xbce3d60c	-0.027812026
249	0x39b2ed96	0.0003412782
250	0xbda707fa	-0.08155818
251	0x3db229d6	0.08699386
252	0x3b870546	0.0041205017
253	0x3ce8f045	0.028434882
254	0x3dafb16b	0.08578762
255	0x3dd794b6	0.10526411

lstm.bias_hh_l0 f4 [256]
0	0x3c57bb8a	0.013167271
1	0xbd9492e8	-0.07254583
2	0x3e0a13cd	0.13484116
3	0x3def6b73	0.11690416
4	0xbd4a07d7	-0.049323883
5	0xbbebe160	-0.0071984977
6	0x3dcfda20	0.10149026
7	0x3dbb322f	0.09140431
8	0xbd809ce4	-0.062799245
9	0x3d8eee00	0.06978989
10	0xbc3ae1de	-0.01140639
11	0xbcea5cd3	-0.028608715
12	0x3db17a41	0.08665896
13	0x3cf9b15f	0.030480085
14	0x3db5274e	0.088453874
15	0x3dc9027d	0.09814928
16	0x3cbf73da	0.023370672
17	0x3ba1484b	0.004921948
18	0x3d8ffe19	0.07030887
19	0xbde32d1f	-0.110925905
20	0xbde1af13	-0.11019721
21	0x3c5ab5c1	0.013348998
22	0x3e1a7d89	0.1508695
23	0x3d98ef53	0.074675225
24	0xbd29c606	-0.041448615
25	0xbd8da8a1	-0.06916929
26	0x3c4b62f7	0.012413732
27	0xbdadfb3a	-0.08495183
28	0x3dc03133	0.09384384
29	0x3c801a40	0.015637517
30	0x3d524b31	0.05134124
31	0x3c56929c	0.013096478
32	0xbdc01f08	-0.09380919
33	0x3df1c2d9	0.11804742
34	0x3d91740a	0.07102211
35	0x3caecd00	0.021337986
36	0x3a041bcd	0.0005039543
37	0x3d903b50	0.07042563
38	0xbce908a9	-0.028446512
39	0xbc1db088	-0.009624608
40	0x3d97733d	0.07395027
41	0x3da28f36	0.079374716
42	0x3d8cd96c	0.068774074
43	0x3df9253d	0.12165306
44	0x3dd78247	0.10522895
45	0xbc1813e0	-0.009282082
46	0x3d2f3a70	0.04278034
47	0x3dd69354	0.10477319
48	0x3e16c757	0.1472448
49	0x3de78d89	0.113062926
50	0xbc0d4893	-0.00862326
51	0xbd56312d	-0.05229299
52	0xbc0e1833	-0.008672762
53	0x3d705385	0.0586734
54	0x3d7dde8b	0.06197981
55	0x3aae721e	0.0013309156
56	0xbdc613c6	-0.0967174
57	0x3dc9c210	0.098514676
58	0x3de97ca5	0.11400727
59	0xbdd5c6f4	-0.10438338
60	0x3d9374d9	0.07200021
61	0xbddaf4f0	-0.10691249
62	0xbd93a867	-0.072098546
63	0x3dde3f2c	0.10851893
64	0xbd23fa2a	-0.040033497
65	0x3c3ea457	0.011635861
66	0x3cbbdbe5	0.022932002
67	0x3de97e41	0.11401034
68	0x3dd9676c	0.10615429
69	0xbcf3bbe0	-0.029752672
70	0x3d53cea8	0.051710755
71	0xbd89bafc	-0.067251176
72	0xbda34809	-0.07972724
73	0x3da0b402	0.07846834
74	0x3ccf1628	0.02527912
75	0xbdd2e2bc	-0.102971524
76	0x3dd2aae2	0.102864996
77	0x3cfcf629	0.030879097
78	0x3e01dfee	0.12683079
79	0x3c091fa9	0.008369365
80	0x3da8747e	0.08225344
81	0xbddad258	-0.10684651
82	0x3dbf5493	0.09342303
83	0xbd2e65ca	-0.042577542
84	0x3d39f3b3	0.045398425
85	0x3d785d64	0.06063594
86	0x3a097d9f	0.0005244854
87	0x3d521258	0.051287025
88	0x3e010d33	0.12602691
89	0x3dfb6b3e	0.12276314
90	0x3da8bc32	0.082390204
91	0x3d1ea9a2	0.038735993
92	0x3da7d349	0.08194596
93	0x3ddabe89	0.10680873
94	0x3dd308f5	0.10304443
95	0x3d9861cc	0.07440528
96	0xbc065646	-0.00819928
97	0x3d922394	0.07135692
98	0xbd61df59	-0.05514464
99	0x3cb04869	0.021518903
100	0x3db33594	0.087504536
101	0xbc885e35	-0.016646484
102	0x3daa6952	0.083208695
103	0x3d76e0ea	0.06027309
104	0xbda8a51f	-0.08234619
105	0x3d946502	0.07245828
106	0x3dcf4c5c	0.10121986
107	0xbd76ecd2	-0.060284443
108	0xbdb76d61	-0.08956409
109	0x3d8ecf50	0.069731355
110	0x3db05916	0.08610742
111	0x3d07327c	0.03300713
112	0x3ced881d	0.028995568
113	0x3dc09bc5	0.09404711
114	0xbd313a22	-0.04326833
115	0xbd8ebe3a	-0.069698766
116	0xbcf5a180	-0.029984236
117	0x3d4095d7	0.0470179
118	0x3d5c5ee4	0.053801432
119	0x3dbf6cdc	0.09346935
120	0x3d1061f1	0.035249654
121	0x3dd1c6d0	0.102429986
122	0x3de93e28	0.113888085
123	0x3d0026f0	0.031287134
124	0x3d460def	0.04835313
125	0xbdb7fe04	-0.089839965
126	0x3e031201	0.12799837
127	0xbd9c1cd2	-0.076226845
128	0xbcaf6948	-0.021412507
129	0x3d272856	0.04080995
130	0xbd68f011	-0.05686957
131	0x3d62c0ef	0.055359777
132	0x3c1d8a9d	0.0096155675
133	0xbddeff26	-0.108885095
134	0x3c4ffe3e	0.012694893
135	0xbc140634	-0.009034682
136	0x3c9c692f	0.019093124
137	0x3d3f901e	0.0467683
138	0xbde0a304	-0.10968593
139	0xbccff831	-0.025386902
140	0xbd37fdc1	-0.044919733
141	0xbdf21c24	-0.11821774
142	0xbd1b1741	-0.037863974
143	0xbded954f	-0.11600744
144	0x3d1718c9	0.03688887
145	0x3dddb241	0.10825015
146	0x3df57f23	0.1198714
147	0xbda54d88	-0.080714285
148	0x3dcb0332	0.09912719
149	0x3d17d54d	0.037068654
150	0xbe026280	-0.12732887
151	0xbcd280af	-0.025696127
152	0xbd478d31	-0.048718635
153	0xbc3889e4	-0.011263344
154	0xbdd112b9	-0.10208649
155	0xbda18288	-0.07886225
156	0x3df4a0a4	0.11944702
157	0x3d66bc2c	0.0563318
158	0x3bcfb2a0	0.0063384324
159	0xbd9c896f	-0.07643401
160	0xbd3a234e	-0.045443825
161	0xbdf3a591	-0.11896814
162	0xbdb663c0	-0.089057446
163	0x3dd78976	0.105242655
164	0xbdbe4844	-0.09291127
165	0x3d4b60d6	0.049652897
166	0x3ad0447e	0.0015889553
167	0x3cd78eea	0.026313264
168	0x3d1029e4	0.0351962
169	0xbda4fb74	-0.080557734
170	0x3d615f51	0.05502254
171	0xbde4733b	-0.11154791
172	0xbce15647	-0.02750696
173	0x3c60d926	0.013723647
174	0xbd9e914e	-0.077425584
175	0xbb86744a	-0.004103218
176	0xbd98b65a	-0.07456656
177	0xbb44d795	-0.0030035723
178	0xbdd3b430	-0.103371024
179	0xbd4b39c2	-0.04961563
180	0x3d04d3be	0.032428496
181	0x3da62f8e	0.08114539
182	0x3c81f23e	0.01586258
183	0x3dca7452	0.098854676
184	0x3d255faa	0.040374435
185	0x3dea6e4f	0.11446821
186	0x3c5d218a	0.013496766
187	0xbced8af2	-0.028996918
188	0xbd00a6b9	-0.031409
189	0x3d91de1b	0.071224414
190	0xbc2dc062	-0.01060495
191	0x3be982d6	0.0071261926
192	0xbd652b20	-0.05594933
193	0xbba470cd	-0.0050183297
194	0xbd105b03	-0.035243046
195	0x3dd867aa	0.10566647
196	0xbbb4b845	-0.0055151307
197	0x3ca7a777	0.020465596
198	0xbdec2186	-0.115298316
199	0x3aef706f	0.0018267761
200	0x3df2875e	0.118422255
201	0x3d661587	0.056172874
202	0xbd7b669e	-0.06137716
203	0xbcd357d1	-0.02579871
204	0x3ca6e40c	0.020372413
205	0xbda5afb7	-0.080901556
206	0xbd1e7402	-0.038684852
207	0x3d99f2b7	0.07516997
208	0x3d8a5c30	0.067558646
209	0x3cdd3b1f	0.02700573
210	0xbcd5d189	-0.02610089
211	0x3db82a4a	0.08992441
212	0x3db26ce1	0.08712173
213	0xbdab125f	-0.083531134
214	0x3e01dae5	0.12681158
215	0xbcee7ad7	-0.029111309
216	0x3dcc115e	0.0996425
217	0x3d176b93	0.036967825
218	0x3bc9a722	0.006153957
219	0x3d6f95f0	0.0584926
220	0x3dbfdcf0	0.09368312
221	0x3dc2b760	0.09507632
222	0xbd5c1945	-0.053735036
223	0x3dae8a53	0.08522477
224	0x3df5f409	0.12009437
225	0x3d76665b	0.060156208
226	0xbd8e41ce	-0.06946145
227	0xbd8fad4f	-0.07015478
228	0x3de38b6d	0.11110578
229	0x3ddd6368	0.10809976
230	0xbcd00d81	-0.025397064
231	0xbc8f3d43	-0.017485267
232	0x3e086058	0.13318002
233	0xbd271c07	-0.040798213
234	0xbd9dc2cf	-0.077031724
235	0x3d6980f1	0.057007734
236	0x3dc57b90	0.09642708
237	0xbd06e540	-0.032933474
238	0xbe03e004	-0.12878424
239	0xbde91fbf	-0.11383008
240	0xbd464830	-0.048408687
241	0x3dfec0a7	0.12439089
242	0xbdecedb0	-0.11568773
243	0xbd461465	-0.048359293
244	0x3d48b7bc	0.049003348
245	0x3daa89b5	0.08327047
246	0xbbb0808d	-0.005386418
247	0xbc0ca802	-0.008584978
248	0xbda41838	-0.08012432
249	0xbd120f00	-0.035658836
250	0x3dee35f0	0.116313815
251	0x3c97d2bc	0.018533103
252	0xbddb9d2e	-0.10723339
253	0xbd2a17dc	-0.04152666
254	0xbcf2d45e	-0.02964228
255	0x3e214a83	0.1575108

lstm.weight_ih_l1 f4 [256, 64]
0	0xbdd48ac0	-0.10378027
1	0xbe1897c2	-0.14901641
2	0xbd357700	-0.04430294
3	0x3d67a966	0.056558035
4	0xbcfb5f5a	-0.030685116
5	0x3c13de1f	0.009025126
6	0xbde2918b	-0.11062916
7	0xbdcbff17	-0.09960764
8	0x3d9dec44	0.0771108
9	0xbda06d18	-0.07833308
10	0x3d96820e	0.07349025
11	0xbdf3b104	-0.118989974
12	0x3b813e9b	0.0039442307
13	0x3b83168d	0.004000491
14	0xbdf30834	-0.11866799
15	0xbd0df613	-0.034658503
16	0xbd9d8295	-0.07690922
17	0xbbd0fdaf	-0.0063778977
18	0x3e035c74	0.12828237
19	0x3e1aaf9a	0.15106049
20	0x3ca83894	0.020534791
21	0x3dc2027f	0.09473132
22	0x3e2a2532	0.16615751
23	0x3cae40f0	0.021271199
24	0x3c455e35	0.0120463865
25	0x3dd6bae2	0.10484864
26	0x3dac331b	0.08408185
27	0xbdc25b32	-0.094900504
28	0xbc26d9fc	-0.010183807
29	0xbdd51441	-0.10404254
30	0x3d2f7ed0	0.042845547
31	0xbddfd137	-0.109285764
32	0xbd6db743	-0.0580361
33	0x3d2d181c	0.04225932
34	0x3df535b9	0.119731374
35	0xbd37ec20	-0.04490292
36	0xbdc4cbf9	-0.09609217
37	0xbde47b1c	-0.11156294
38	0x3cbf6ef6	0.02336834
39	0xbcbb40bd	-0.022858018
40	0xbd2dd98c	-0.042443797
41	0xbda66aa4	-0.08125809
42	0x3da5ac5a	0.08089514
43	0xbe15407b	-0.14575379
44	0x3c074c19	0.008257889
45	0xbcb7a78a	-0.022418756
46	0xbd2039d6	-0.039117657
47	0xbd8e8345	-0.069586314
48	0x3bf5cc69	0.007501174
49	0x3dcabe17	0.09899538
50	0xbd4d3215	-0.05009659
51	0x3c83f94e	0.016110089
52	0xbd930981	-0.07179547
53	0xbcc948ef	-0.02457091
54	0x3e114697	0.14187084
55	0xbcd16824	-0.025562353
56	0xbe0bdfe4	-0.13659626
57	0x3cf3f6b5	0.029780725
58	0xbbafc901	-0.0053645377
59	0xbcd6ccd7	-0.026220722
60	0xbcd5a953	-0.026081717
61	0x3cbc75f6	0.023005467
62	0xbdbdc805	-0.09266666
63	0x3d709b24	0.058741704
64	0xbce9aa52	-0.028523598
65	0xbde1eb27	-0.1103118
66	0x3dd28cbc	0.10280749
67	0x3b7286b4	0.003700656
68	0x3c6d5001	0.014484406
69	0x3d85fcbe	0.06542347
70	0xbcb5ac6b	-0.022176942
71	0xbdacfff8	-0.0844726
72	0xbdb4af75	-0.08822528
73	0xbd976c91	-0.07393754
74	0xbd1e63cf	-0.038669404
75	0x3ca3eb06	0.020009529
76	0x3ab12970	0.0013516378
77	0xbd31b6f7	-0.04338738
78	0xbdc290b6	-0.09500258
79	0xbdc3a8c1	-0.09553672
80	0x3cb3daae	0.02195486
81	0x3d2aef83	0.041732322
82	0x3dd3a647	0.10334449
83	0xbc705e08	-0.014670856
84	0x3c9dd6bf	0.019267438
85	0x3d561b63	0.05227221
86	0xbd31b079	-0.043381188
87	0xbd1b0dd9	-0.037855003
88	0x3d235e77	0.03988501
89	0x3db53354	0.08847681
90	0x3d93cd86	0.07216935
91	0x3b4f38ea	0.0031619617
92	0x3d8d8b1d	0.069112994
93	0x3d97648f	0.07392227
94	0xbd3243b0	-0.043521583
95	0x3d35b026	0.04435744
96	0xbddd6e7b	-0.10812088
97	0x3c9b42c6	0.018952738
98	0xbd22e752	-0.039771385
99	0x3dcc6805	0.09980778
100	0xbe09c6e6	-0.1345478
101	0xbdb32d96	-0.08748929
102	0xbd75aee5	-0.059981246
103	0x3da31ab4	0.079640776
104	0xbde832dd	-0.113378264
105	0xbbbaa0fc	-0.0056954604
106	0xbc40a9f9	-0.011759275
107	0x3d60ab0a	0.054850616
108	0x3d61b2b0	0.05510205
109	0xbe123c82	-0.14280894
110	0xbda6f2d1	-0.08151782
111	0xbd714e0c	-0.058912322
112	0xbe0e43a8	-0.13892996
113	0xbe0f7764	-0.14010388
114	0xbd4d810f	-0.050171908
115	0x3ded9fb0	0.116027236
116	0xbd215c4b	-0.039394658
117	0x3d1e04fe	0.03857898
118	0x3c35f875	0.0111066
119	0xbdc00357	-0.09375637
120	0xbe0f93b5	-0.1402119
121	0x3de566b5	0.112012304
122	0x3d08ea89	0.033426795
123	0xbda17a85	-0.07884697
124	0xbc0dbdc8	-0.008651204
125	0x3d438f16	0.04774388
126	0x3d910f97	0.07083052
127	0x3e1fe576	0.15614876
128	0xbbb53167	-0.005529571
129	0xbd47d348	-0.048785478
130	0x3da15f98	0.07879561
131	0xbcdbcf82	-0.026832346
132	0xbdf5760a	-0.11985405
133	0x3d93cdfd	0.072170235
134	0xbd986285	-0.07440666
135	0x3d8c9c6d	0.06865773
136	0xbdb46d7d	-0.08809946
137	0x3d23e9c1	0.040017847
138	0xbd88953c	-0.06669089
139	0xbdddc39b	-0.108283244
140	0xbd060bd8	-0.03272614
141	0x3daffed6	0.08593528
142	0x3dc7319d	0.0972626
143	0xbd232148	-0.03982666
144	0xbdebbe04	-0.11510852
145	0xbccc59d9	-0.024945186
146	0xbdbb3814	-0.091415554
147	0xbd840a3b	-0.06447264
148	0xbda2b865	-0.07945327
149	0xbd4f755c	-0.050649032
150	0x3db5cff6	0.08877556
151	0x3d41b256	0.047289215
152	0xbc983263	-0.018578714
153	0x3d529242	0.051409014
154	0x3cb9bd18	0.022673175
155	0x3db49e75	0.08819286
156	0x3daf3d47	0.085566096
157	0x3c80fe48	0.01574625
158	0x3da34c14	0.07973495
159	0xbdcfa9c0	-0.10139799
160	0x3dbbc7a0	0.09168935
161	0xbdeb5fbd	-0.1149287
162	0x3d85f4a9	0.06540806
163	0xbdb28c76	-0.08718197
164	0xbe002c00	-0.12516785
165	0x3d891677	0.06693738
166	0x3d2cfde8	0.04223433
167	0xbd85484f	-0.065079324
168	0x3b2a6eb2	0.002600592
169	0xbdfbef39	-0.123014875
170	0x3e024c31	0.12724377
171	0xbcfd480b	-0.030918142
172	0xbd9cfb06	-0.076650664
173	0x3b8bff89	0.0042724055
174	0xbc633816	-0.013868352
175	0xbdd9bad3	-0.10631337
176	0x3d46b1c5	0.048509378
177	0xbc7be411	-0.0153741995
178	0xbd7f72de	-0.062365405
179	0x3d56fd5b	0.052487712
180	0x3d835d53	0.064142846
181	0xbc858f0a	-0.016303558
182	0x3d250b48	0.04029396
183	0xbc91c36d	-0.017793382
184	0x3d4138b9	0.047173236
185	0x3dc672e4	0.096898824
186	0xbe089763	-0.13339
187	0xbbcadd6a	-0.0061909454
188	0x3dce0f4f	0.10061514
189	0xbd8dce27	-0.06924086
190	0x3d9d2812	0.076736584
191	0x3d24e885	0.04026081
192	0xbd0251cd	-0.031816293
193	0xbde95be5	-0.113944806
194	0xbdc224e4	-0.094796926
195	0xbdf11a86	-0.11772637
196	0xbdb14357	-0.08655422
197	0xbe06fc26	-0.13182124
198	0xbdc4f3d1	-0.09616817
199	0xbd90774f	-0.07054006
200	0xbdb4a2f8	-0.08820146
201	0xbdea056b	-0.11426815
202	0xbbc93b94	-0.0061411355
203	0x3d860ef3	0.0654582
204	0xbd30aba0	-0.043132424
205	0x3dd8ab26	0.10579519
206	0xbde31415	-0.11087815
207	0xbdd2ae1e	-0.102871165
208	0xbb662ddb	-0.0035122547
209	0xbd83da34	-0.06438103
210	0xbdc9d6ad	-0.09855399
211	0x3dcf11ac	0.101107925
212	0xbcd806d1	-0.026370438
213	0x3dcd52ac	0.10025534
214	0x3d891afe	0.066946015
215	0xbdde0431	-0.10840643
216	0xbe0c670c	-0.13711184
217	0x3d9114ef	0.07084071
218	0xbd59338b	-0.05302767
219	0x3d0226ef	0.03177541
220	0xbcaa1f51	-0.020766886
221	0x3d0dbd5b	0.03460441
222	0xbded505f	-0.11587595
223	0x3d73c1bd	0.059510935
224	0xbcf73c76	-0.030180197
225	0xbcdd6da6	-0.027029824
226	0x3def1d1c	0.11675474
227	0x3df01565	0.11722831
228	0xbbb0c2a7	-0.005394298
229	0xbe0029b2	-0.12515905
230	0x3d559c8b	0.052151244
231	0x3dcf8a52	0.101338044
232	0xbe09c54e	-0.13454172
233	0xbb13d5dc	-0.002255789
234	0x3dc9b80f	0.098495595
235	0xbcb26c88	-0.021780267
236	0x3d5ac2b4	0.05340834
237	0xbd430f79	-0.047622178
238	0xbcacab71	-0.021077843
239	0xbc11ec62	-0.008906456
240	0xbe0c5e42	-0.13707832
241	0x3dcdc282	0.10046865
242	0x3d5c2168	0.053742796
243	0x3d7272a5	0.059191365
244	0x3c0bacbd	0.008525071
245	0x3ca73db5	0.020415166
246	0x3dae7710	0.08518803
247	0x3a6d484a	0.00090516044
248	0x3dbaf8f8	0.09129518
249	0x3e025636	0.127282
250	0x3d5d9941	0.054101232
251	0x3d97d9ee	0.07414614
252	0xbbd28722	-0.0064248005
253	0x3d95b8b6	0.073106214
254	0xbd1b9f4a	-0.037993707
255	0xbc8e7a6e	-0.017392363

lstm.weight_hh_l1 f4 [256, 64]
0	0xbd519252	-0.051164933
1	0xbdef738e	-0.11691962
2	0x3d9f40ef	0.07776057
3	0x3d304074	0.043030217
4	0x3bbbaee6	0.0057276366
5	0x3c9eb2e2	0.019372407
6	0x3deffbf7	0.1171798
7	0xbd28021e	-0.041017644
8	0x3d9e1bd4	0.077201515
9	0xbde31037	-0.11087077
10	0x3c956bcf	0.018239884
11	0xbcac0dc9	-0.021002667
12	0x3da37928	0.07982093
13	0x3cfdb3a4	0.030969448
14	0x3dcfb2b5	0.101415075
15	0xbd81785a	-0.06321783
16	0x3de948d9	0.11390848
17	0x3cb147e2	0.021640722
18	0x3dd8e980	0.105914116
19	0x3c6f62ee	0.014610989
20	0xbcb35491	-0.02189091
21	0xbdb1be59	-0.08678884
22	0x3dbc1652	0.09183945
23	0xbdda0eca	-0.10647352
24	0xbd11941f	-0.03554165
25	0x3c2f6b3e	0.010706721
26	0xbc4856b4	-0.012227703
27	0x3c62b0ea	0.013836125
28	0x3dc2e922	0.09517123
29	0xbd1c26f5	-0.03812309
30	0xbd229801	-0.039695743
31	0x3d00aaba	0.031412818
32	0x3de59169	0.112093754
33	0xbb4d5667	-0.0031332017
34	0x3c4475bc	0.011990961
35	0x3c850368	0.016236976
36	0x3d5e553a	0.054280497
37	0x3d9348d2	0.07191624
38	0x3c8fdfcd	0.017562771
39	0x3d966855	0.073441185
40	0x3d0c4b23	0.034251343
41	0xbdb1dd29	-0.08684761
42	0x3d46aa45	0.048502225
43	0x3de79537	0.11307757
44	0xbd426db2	-0.047467895
45	0x3d55d202	0.052202232
46	0xbd810806	-0.063003585
47	0xbdf5678c	-0.119826406
48	0xbe0ccbf0	-0.13749671
49	0xbdee9d29	-0.1165107
50	0x3c25bf98	0.01011648
51	0x3d18bacc	0.03728752
52	0xbabf2e57	-0.0014585954
53	0xbd57f344	-0.05272223
54	0x3d854c04	0.065086395
55	0x3dda7d0e	0.106683835
56	0xbd5a8e59	-0.05335841
57	0x3d145bc9	0.036220346
58	0xbdc22c95	-0.094811596
59	0x3bcad2f2	0.0061896974
60	0x3caea37a	0.021318186
61	0xbd342ae9	-0.043986235
62	0xbbd486ca	-0.0064857947
63	0xbd48a527	-0.048985627
64	0xbd8135f0	-0.06309116
65	0xbdd1562e	-0.102215156
66	0xbd3496a1	-0.044088963
67	0xbd978bdc	-0.07399723
68	0x3d858132	0.06518783
69	0x3d2df535	0.042470176
70	0xbd5dd764	-0.05416049
71	0xbddb74f7	-0.10715669
72	0xbd198d42	-0.03748823
73	0xbdc8a215	-0.0979654
74	0xbaaa9674	-0.0013014809
75	0xbdc773ba	-0.0973887
76	0x3dbf2732	0.09333648
77	0x3cd4c697	0.025973601
78	0x3d465b04	0.048426643
79	0x3d475264	0.04866256
80	0xbdfc0338	-0.123053014
81	0x3daba111	0.0838033
82	0x3a9322b4	0.0011225552
83	0xbdf23f3d	-0.11828468
84	0xbcb3b4f9	-0.02193688
85	0x3d9d9507	0.0769444
86	0x3d9745c2	0.07386352
87	0xbd1ccfb9	-0.038284037
88	0xbcf9fe8e	-0.030516889
89	0x3e02a244	0.12757212
90	0xbd560ff2	-0.0522613
91	0xbdfa177c	-0.122115105
92	0xbd080a38	-0.03321287
93	0x3bb140a6	0.005409318
94	0x3dddd1f8	0.10831064
95	0xbc18b595	-0.009320636
96	0x3d0916af	0.0334689
97	0x3cf7232d	0.03016814
98	0x3d6ec204	0.058290496
99	0xbd7dca98	-0.061960787
100	0xbd5afa44	-0.05346133
101	0x3d7e0b2f	0.062022384
102	0x3dd87f17	0.105711155
103	0xbd833ad6	-0.064077064
104	0xbd381167	-0.04493847
105	0x3df61f85	0.120177306
106	0xbd82351e	-0.063577875
107	0xbc9a3588	-0.018824354
108	0xbe137a42	-0.14402106
109	0xbe0beaa0	-0.13663721
110	0xbd247f9f	-0.04016077
111	0xbde380c1	-0.11108542
112	0xbbda887c	-0.0066691022
113	0x3d94fb8b	0.072745405
114	0x3c84dd0b	0.016218683
115	0x3dc8206c	0.09771809
116	0x3d8cb219	0.06869907
117	0xbd69b287	-0.057055023
118	0xbd0fa95c	-0.035073623
119	0x3dc650ab	0.09683355
120	0xbd30c138	-0.043153018
121	0xbcd65537	-0.02616368
122	0x3dce5c10	0.10076153
123	0xbdaa0600	-0.08301926
124	0x3c77bee5	0.015121196
125	0xbe044d53	-0.12920122
126	0x3df2c2c2	0.11853553
127	0x3dfd2075	0.12359706
128	0x3db4e2ad	0.088322975
129	0xbded6915	-0.115923084
130	0x3de4430e	0.11145602
131	0x3ba7d6e8	0.0051220544
132	0x3da8d2d9	0.08243341
133	0x3c99c475	0.018770436
134	0xbd67d54a	-0.056599893
135	0x3d9b0211	0.075687535
136	0xbde81b4a	-0.1133333
137	0x3d06a783	0.032874595
138	0xbdc96bc8	-0.09835011
139	0xbde5c212	-0.112186566
140	0x3d99b502	0.075052276
141	0xbc868c4e	-0.016424324
142	0x3d3ba0ce	0.045807652
143	0x3d744ef4	0.059645608
144	0xbd9c6912	-0.07637228
145	0x3d9642e4	0.07336977
146	0x3dc979e3	0.09837701
147	0xbb9edc34	-0.0048480276
148	0xbdfef40a	-0.124488905
149	0xbc5441bd	-0.012955126
150	0xbc998139	-0.018738376
151	0xbd3bd226	-0.04585471
152	0x3d09b7cc	0.033622548
153	0x3dbc5e8e	0.091977224
154	0x3ca86c9d	0.020559603
155	0x3b3cd012	0.0028810543
156	0x3c8d394c	0.017239235
157	0x3db5d097	0.08877676
158	0xbddbd7b6	-0.10734503
159	0x3d7cdff9	0.061737034
160	0x3a4d77f4	0.0007838004
161	0x3dde8d40	0.10866785
162	0xbd7886f8	-0.06067559
163	0xbd2d55d4	-0.04231818
164	0xbd9f43b5	-0.07776586
165	0xbd71f421	-0.05907071
166	0xbd05f877	-0.032707658
167	0xbdd48672	-0.10377206
168	0x3d920ff1	0.07131947
169	0x3c2b797f	0.010465979
170	0xbd362bbc	-0.044475302
171	0xbdf359b6	-0.118823454
172	0xbe0b46c7	-0.13601218
173	0x3de0a15a	0.10968275
174	0xb91a432c	-0.00014711608
175	0xbd73d0ee	-0.059525423
176	0x3def2882	0.11677648
177	0xbb1632e0	-0.0022918507
178	0x3dbb9966	0.09160118
179	0x3d23ba90	0.03997284
180	0x3e0a7b54	0.13523608
181	0xbd4d5bd9	-0.05013642
182	0x3db63bde	0.088981375
183	0xbcac5458	-0.021036312
184	0x3c78ee78	0.015193574
185	0xbc935ecf	-0.017989544
186	0x3d6284c1	0.055302385
187	0x3d4bb598	0.04973373
188	0x3db0652e	0.086130485
189	0xbd2cb492	-0.042164393
190	0x3c950a99	0.01819353
191	0x3dec5fcc	0.11541709
192	0xbdfcbb40	-0.123404026
193	0xbdadc258	-0.08484334
194	0xbc8efae3	-0.017453616
195	0x3cd70c29	0.026250916
196	0xbcac72fb	-0.02105092
197	0xbdab8cd3	-0.083764695
198	0xbddb66cb	-0.107129656
199	0xbc6a0512	-0.014283435
200	0x3dcd5e6c	0.10027775
201	0x3cafa3c5	0.021440396
202	0xbc01aea0	-0.007915169
203	0xbdec0cb3	-0.1152586
204	0x3da55310	0.080724835
205	0x3dc96787	0.098341994
206	0xbd373471	-0.044727746
207	0x3d4fd3b9	0.050739024
208	0xbdc7d2b9	-0.09756989
209	0xbd61fa59	-0.05517039
210	0xbd0340f7	-0.032044377
211	0x3d9dc221	0.07703043
212	0xbdaa4786	-0.08314423
213	0x3ca2cc94	0.019872941
214	0x3d251e8b	0.04031233
215	0x3debaab5	0.11507169
216	0x3d99eb44	0.075155765
217	0x3d871ae5	0.065969266
218	0xbdbdfba3	-0.092765115
219	0xbd1b159d	-0.03786241
220	0x3c0a8097	0.00845351
221	0xbc53b574	-0.01292168
222	0x3d09a02a	0.03360001
223	0x3e02d21b	0.12775461
224	0x3d499363	0.049212825
225	0xbd054f84	-0.032546535
226	0xbcc069a9	-0.023487883
227	0x3c360225	0.01110891
228	0x3dcd8352	0.10034813
229	0x3d82351a	0.063577846
230	0xbc686089	-0.014183172
231	0x3c0b8dde	0.0085177105
232	0x3daaad6a	0.08333857
233	0xbd6920d9	-0.05691609
234	0xbd9f31e8	-0.07773191
235	0xbdbd54a8	-0.092446625
236	0x3ca5e69d	0.020251567
237	0xbcc3541b	-0.023843816
238	0x3d00ff0d	0.031493235
239	0x3db8b9e2	0.09019829
240	0xbdcc39c1	-0.09971953
241	0xbd9ade9a	-0.07561989
242	0xbd7e5b5e	-0.062098853
243	0xbdbabc94	-0.09118
244	0xbd9a97f0	-0.07548511
245	0xbbd798a3	-0.006579475
246	0x3ddf1241	0.108921535
247	0x3da0c5be	0.07850216
248	0xbdacabcb	-0.084312044
249	0x3dee395d	0.11632035
250	0xbb72a982	-0.0037027304
251	0xbd648e8f	-0.055800017
252	0x3c7dfd8a	0.015502343
253	0x3cca507f	0.024696587
254	0x3dece925	0.11567906
255	0x3dc19903	0.09453013

lstm.bias_ih_l1 f4 [256]
0	0xbcc5a7ce	-0.024127867
1	0xbdde1efc	-0.108457536
2	0xbe00a4f4	-0.12562925
3	0x3e027861	0.12741233
4	0xbcdd2489	-0.02699496
5	0xbdbf01b3	-0.09326496
6	0xbc049786	-0.008092767
7	0x3e0d0196	0.13770136
8	0xbdf35bdd	-0.11882756
9	0xbcdacb46	-0.026708256
10	0xbd1a59fd	-0.037683476
11	0xbddc5e8d	-0.10760222
12	0xbd882abd	-0.06648777
13	0xbda122f7	-0.07867997
14	0x3dd7edd1	0.10543407
15	0xbdd87b5c	-0.10570404
16	0xbde97568	-0.113993466
17	0x3dbadbad	0.09123931
18	0xbdcbd56d	-0.09952817
19	0x3dfd3948	0.12364441
20	0x3d710bbc	0.05884908
21	0xbd728a51	-0.05921394
22	0xbc7a8573	-0.015290606
23	0x3d19739d	0.037463773
24	0x3dba2028	0.090881646
25	0xbdb2cea5	-0.087308206
26	0xbd56c52c	-0.05243413
27	0xbcaa279f	-0.020770846
28	0x3e0352c3	0.1282454
29	0xbdda9dc3	-0.10674622
30	0x3cbeb0b3	0.023277616
31	0x3d9eb6a0	0.07749677
32	0x3d3e4b34	0.046458438
33	0x3e0c4681	0.1369877
34	0x3c3a1561	0.011357636
35	0x3d9129fe	0.070880875
36	0x3cfc0eac	0.030768715
37	0x3d5651db	0.052324157
38	0xbd9523d3	-0.072822236
39	0x3e0be264	0.1366058
40	0x3d02295e	0.031777732
41	0x3a547828	0.0008105063
42	0xbd253949	-0.040337835
43	0x3d0a242b	0.0337259
44	0x3db6f2b6	0.08933012
45	0xbd5ea4a6	-0.05435624
46	0x3dd9161e	0.10599922
47	0x3d9970f2	0.07492246
48	0x3df36972	0.118853465
49	0xbdb426c6	-0.08796458
50	0x3cb8a55c	0.022539787
51	0xbde33993	-0.11094966
52	0xbdc57729	-0.096418686
53	0x3d717a21	0.05895436
54	0x3c2df321	0.0106170485
55	0xbdeb0175	-0.11474887
56	0x3bb48ef9	0.0055102077
57	0xbcb17840	-0.021663785
58	0xbdac330b	-0.08408173
59	0xbdb7c7f2	-0.089736834
60	0xbddad6df	-0.10685515
61	0xbdec2874	-0.11531153
62	0xbc99d677	-0.018779023
63	0x3db4c550	0.08826697
64	0xbd93294a	-0.0718561
65	0x3e00296c	0.12515801
66	0x3d905d1b	0.070490085
67	0x3be4b242	0.006979258
68	0xbb173b0e	-0.002307597
69	0x3d10043c	0.03516029
70	0x3ddab683	0.106793426
71	0xbd9e7824	-0.07737759
72	0x3d96441a	0.07337208
73	0xbd98168d	-0.07426176
74	0xbd0c196d	-0.034203935
75	0x3dd8b822	0.105819955
76	0xbdef9bc8	-0.11699635
77	0x3de9c690	0.11414826
78	0xbcaef2cd	-0.02135601
79	0xbd5ad548	-0.053426057
80	0x3da06df4	0.07833472
81	0xbbc66ba2	-0.0060553113
82	0x3dbd86c8	0.09254223
83	0x3d43e924	0.047829762
84	0x3db48f82	0.088164344
85	0x3d5e475b	0.05426727
86	0x3ddd486a	0.108048275
87	0x3d774ea6	0.06037774
88	0x3d1718ab	0.03688876
89	0x3dbf9fce	0.09356652
90	0xbdaffd99	-0.08593292
91	0x3cfc3855	0.03078858
92	0x3e031490	0.12800813
93	0xbda31b12	-0.079641476
94	0x3da225ae	0.07917343
95	0xbda850a2	-0.082185045
96	0xbd2cd6de	-0.0421971
97	0xbd4a12d1	-0.04933435
98	0xbd94c2dd	-0.0726373
99	0x3c28a759	0.010293805
100	0x3c284588	0.010270484
101	0x3df9e857	0.122025184
102	0xbdb910c5	-0.09036402
103	0xbd910b27	-0.07082205
104	0x3e04c307	0.12965022
105	0x3dcf424e	0.101200685
106	0x3da60a55	0.081074394
107	0xbcee75d0	-0.029108912
108	0x3dfccaba	0.123433545
109	0xbdaa0497	-0.08301657
110	0xbdd3dd69	-0.10344965
111	0xbd75a61f	-0.05997288
112	0x3debef75	0.11520282
113	0x3d8740d1	0.066041596
114	0xbdedaa4a	-0.11604746
115	0xbdc8950a	-0.09794052
116	0x3cabe69e	0.02098399
117	0x3baf511e	0.005350246
118	0xbd9c8d65	-0.07644156
119	0x3d995bc6	0.074882075
120	0x3d4e107c	0.05030869
121	0xbb86938a	-0.0041069435
122	0xba8922da	-0.0010462657
123	0x3d24a18d	0.04019313
124	0x3d910bc9	0.07082326
125	0x3d5f90bf	0.0545814
126	0xbc9725a1	-0.01845056
127	0xbd53986d	-0.051659036
128	0x3c6bf294	0.014401097
129	0xbd883aad	-0.066518165
130	0x3ca1dd6c	0.019758902
131	0x3d64ff9b	0.055907827
132	0xbd917a46	-0.071034
133	0xbdb238a0	-0.087022066
134	0x3d6e024b	0.058107655
135	0x3dff4bc1	0.12465621
136	0xbd91c6cf	-0.07117998
137	0xbdfb46cb	-0.12269362
138	0x3cde7b76	0.02715848
139	0x3e0e29d6	0.13883147
140	0xbe03ba30	-0.12863994
141	0x3d9ea46d	0.077462055
142	0xbcf87ef0	-0.030333966
143	0xbdf95f65	-0.12176398
144	0xbbe1a6aa	-0.006886323
145	0xbdab23e8	-0.08356458
146	0xbcb9481e	-0.022617396
147	0x3d66745a	0.056263305
148	0xbd2fa95b	-0.04288612
149	0xbda831bc	-0.08212611
150	0xbdb323e4	-0.0874708
151	0xbdf3f409	-0.119117804
152	0xbbff7c43	-0.0077967956
153	0x3e05bc2e	0.13060066
154	0x3df950ac	0.1217359
155	0x3dcc35e5	0.09971217
156	0x3d6468f7	0.055764165
157	0x3dc4a27b	0.09601303
158	0x3e050d32	0.12993315
159	0x3d2aac6b	0.041668337
160	0x3e05f653	0.13082246
161	0xbcb711b8	-0.022347316
162	0xbe034b05	-0.12821586
163	0xbdcdf686	-0.10056786
164	0x3dcb2688	0.09919459
165	0x3e0050b6	0.12530789
166	0xbdd4cb3f	-0.103903286
167	0x3bf609d5	0.0075084963
168	0xbd933c8a	-0.07189281
169	0xbd253fa6	-0.040343903
170	0xbd071b15	-0.03298481
171	0x3db5d58c	0.088786215
172	0xbd2baadc	-0.04191099
173	0xbd71e91c	-0.0590602
174	0xbc9ee2c0	-0.019395232
175	0xbd9c2701	-0.07624627
176	0x3d7c257e	0.061559193
177	0xbc510e8e	-0.012759818
178	0x3d009cef	0.031399664
179	0x3d8fe8ce	0.07026826
180	0xbcf825e9	-0.030291514
181	0xbdecb35b	-0.11557647
182	0xbdb61bd8	-0.088920295
183	0x3c761b4e	0.015021158
184	0xbd6cc98f	-0.05780941
185	0xbb74c59f	-0.0037349237
186	0x3dbbc03c	0.09167525
187	0xbcdc766e	-0.02691194
188	0x3d95b4ac	0.07309851
189	0x3dc7750a	0.0973912
190	0x3bbe8a5d	0.005814834
191	0x3d6ad80f	0.057334956
192	0x3d0c7e17	0.034299936
193	0x3e0db009	0.13836683
194	0x3d4f0b22	0.050547726
195	0x3df46a6c	0.11934361
196	0xbd851b0c	-0.064992994
197	0xbd86744d	-0.06565151
198	0x3cd1c91e	0.025608595
199	0x3e0f7ec4	0.14013201
200	0xbd3cebd3	-0.046123337
201	0x3e00daf7	0.12583528
202	0xbdcf4143	-0.101198696
203	0x3d769c0d	0.060207415
204	0xbc6fcadc	-0.014635768
205	0x3c077f62	0.0082701165
206	0xbc8c0269	-0.017090993
207	0xbc5d5b82	-0.013510587
208	0xbd2a35bc	-0.04155515
209	0xbd354b74	-0.04426141
210	0x3d7aa51a	0.06119261
211	0x3c9ef8d5	0.019405762
212	0xbd68c4d3	-0.05682833
213	0x3d4f1919	0.050561044
214	0xbdbbfe17	-0.09179323
215	0xbc91a51a	-0.017778922
216	0xbdc094a2	-0.094033495
217	0x3d8e9653	0.06962266
218	0xbd0538e5	-0.032524962
219	0x3d8faa18	0.07014865
220	0x3d521730	0.051291645
221	0xbd29308a	-0.041306056
222	0x3d9f86b2	0.07789363
223	0x3d228201	0.039674763
224	0xbd847826	-0.06468229
225	0x3dbb5cd9	0.09148569
226	0x3dbdb7b1	0.09263552
227	0x3dcccbe8	0.099998295
228	0xbdb6a493	-0.08918109
229	0xbd1b1632	-0.037862964
230	0xbdb2fa4c	-0.087391466
231	0x3d441796	0.047874056
232	0xbd3bc3be	-0.04584097
233	0x3e098d8d	0.13432904
234	0x3de7f35f	0.11325716
235	0xbd1a5446	-0.037678026
236	0x3cf78b56	0.030217808
237	0x3dbace84	0.09121421
238	0x3de0f90c	0.10985002
239	0x3ddef8a7	0.108872704
240	0xbd29cc42	-0.04145456
241	0x3d6eb084	0.058273807
242	0x3d8a944d	0.067665674
243	0x3d50797f	0.050897118
244	0xbde28075	-0.110596575
245	0x3dc241c4	0.094852
246	0xbd87662b	-0.06611284
247	0xbd20dac6	-0.03927114
248	0xbd7f0ce8	-0.062268168
249	0x3c4f9425	0.012669598
250	0xbdf487bc	-0.11939952
251	0xbcf7286c	-0.030170642
252	0x3d264833	0.0405962
253	0xbcbdfa88	-0.023190752
254	0x3de23a95	0.1104633
255	0x3d948ae8	0.07253057
