src/deep_learning/artifacts/lstm_model_GOOGL.pt (torch, 217185 bytes, 12 tensors)

lstm.weight_ih_l0 f4 [256, 2]
000000 08 b4 27 3c 61 2a d3 bc a0 62 87 3d 9b 5a 7c bd
       0.010235794 -0.025777044 0.06610608 -0.061609846
000010 69 ef 2c bd db 29 25 3c e0 45 03 3e 8d d9 a0 bd
       -0.042220507 0.01008078 0.12819624 -0.078539945
000020 6c e2 1e 3e e6 23 36 bb b5 de 78 3d c5 0f 2a bd
       0.1551606 -0.0027792393 0.060759265 -0.041518945
000030 3e 4d 39 3d 8b 6c 09 3e 47 0a 0c 3e e9 ee 90 3c
       0.04523968 0.13420312 0.13675795 0.017692046
000040 89 d4 8b 3d ed 4a 6c 3d d4 70 b9 3d 9a 4d 13 bd
       0.06827647 0.057688642 0.090547234 -0.03596268
000050 4b d7 28 3d a6 02 a5 3c 17 05 33 3e aa e4 77 bc
       0.041220944 0.020142864 0.1748241 -0.015130201
000060 15 47 51 bd e4 25 17 3e c6 4f 19 3d 34 d8 4f 3c
       -0.05109318 0.14760548 0.037429594 0.012685824
000070 a5 94 23 3d 0e 31 cf 3b 7b 6c 82 3d 8c 01 ec bd
       0.03993668 0.0063229864 0.06368347 -0.115237325
000080 0d 9a fc 3d 0d 88 94 3d ed 50 b5 3d 40 9d d1 bd
       0.1233407 0.07252512 0.08853326 -0.10235071
000090 86 20 53 3d bf fa cc 3d 95 ad e9 3c cf fa f6 3b
       0.05154469 0.100087635 0.028525153 0.007537223
0000a0 74 07 13 3e 20 62 84 bd e5 30 6f 3d 0b 5e 47 bd
       0.14358312 -0.06464028 0.05839624 -0.04867367
0000b0 38 94 e0 3d 31 76 21 3d e0 2f 50 3d df fd 4b 3d
       0.109657705 0.039419357 0.050826907 0.049802657
0000c0 50 5a c7 3d 8f de d2 bd 96 62 ac 3d c0 c4 d4 3d
       0.097340226 -0.10296356 0.08417241 0.103890896
0000d0 27 0e 21 3e 45 4e 0a 3d 26 bd df 3d 75 f2 fd 3c
       0.15728055 0.03376605 0.10924749 0.030999402
0000e0 5e 7b 2e 3d 63 10 8a bc a7 47 06 3e 14 18 dd bd
       0.04259812 -0.016853517 0.1311327 -0.10795608
0000f0 ad f0 91 3d 41 44 b8 bd a1 7b 1d 3e 85 5a 6b 3d
       0.071259834 -0.089973934 0.15379192 0.057459373
000100 92 e1 7c 3d 38 63 0e 3c e8 76 07 3e 22 26 f5 bd
       0.061738558 0.008690648 0.13228953 -0.11970164
000110 e1 21 95 3c a7 1c c6 3d b4 92 2f 3d 60 86 99 bd
       0.018204631 0.09673434 0.042864516 -0.07496333
000120 18 1e 4e bd 40 77 f4 bd dd cc 9c 3d b3 d1 8c 3d
       -0.05032167 -0.11936808 0.07656262 0.068759345
000130 d4 9f 25 3e de 52 2d 3c d0 dd c5 3b fe 51 1f bd
       0.16174251 0.010578839 0.006038405 -0.038896553
000140 b6 68 58 3c a0 5a a2 bd a8 18 21 bc c9 69 96 bc
       0.013208559 -0.079274416 -0.009832539 -0.01836099
000150 74 02 a4 3d a9 e9 42 bc b9 12 12 3d f4 7e 08 3d
       0.080082804 -0.011896529 0.035662387 0.033324197
000160 72 fa 90 3d ff b0 cf bc bb 3a ca bd c3 ee 90 3d
       0.07079019 -0.025352953 -0.09874483 0.0707679
000170 0d 61 81 3d 7c ef ed bd 47 e3 1e 3e 1c c8 e4 3d
       0.06317339 -0.11617944 0.15516387 0.1117098
000180 55 9b 1a 3e 79 88 5c bd 98 bc 32 3d b6 59 cf bb
       0.15098317 -0.053841088 0.04363689 -0.006327833
000190 71 25 b8 3d 54 16 30 bd b6 15 e4 3c 1a ca db 3c
       0.089915164 -0.042990044 0.027842384 0.026829768
0001a0 5e 2d c6 3d c1 ab c6 3b 02 bb cb 3c fe f9 a4 bd
       0.09676622 0.006062955 0.024869446 -0.08055495
0001b0 aa e2 26 3d 59 22 a2 bd cd 4e 84 3c 25 ed 06 bc
       0.040743507 -0.079167075 0.016150856 -0.008235251
0001c0 96 27 e8 bc ef 10 18 bd a4 1d f9 3d 0a 6d b8 bd
       -0.028339189 -0.037125524 0.121638566 -0.090051726
0001d0 d9 79 be 3d 0b 19 c5 bd db ee 8c bd 7f b4 e9 3c
       0.09300584 -0.09623917 -0.068814956 0.02852845
0001e0 bf 69 3e bc 67 b9 b3 bd 97 2a c5 3d 64 d0 bd bd
       -0.0116218915 -0.08775597 0.09627264 -0.09268263
0001f0 96 1c 20 3e e5 d2 bb 3d 70 08 ed 3c 59 41 8e bd
       0.15635905 0.09171084 0.028934687 -0.06946058
000200 cd ba 2b 3e 37 9e ad bd 5b 7f 0c 3d 91 1a b5 3d
       0.16770478 -0.08477443 0.034301143 0.08842958
000210 52 5d 9f bd cd e2 b9 3d 0a 50 58 3d d1 1e 87 3d
       -0.07781471 0.09076462 0.052810706 0.06597675
000220 43 01 a6 3d 6b 36 42 bd c4 d4 85 3d 23 e4 a2 3d
       0.081057094 -0.04741518 0.065347224 0.0795367
000230 d8 ee c4 3b 0d 63 ed 3d 7c 11 95 3c 7f 26 78 ba
       0.0060099177 0.11591158 0.018196814 -0.00094661856
000240 12 fa 6d bd 6f 7f c9 bd dc 7a 26 bd 26 b1 c9 3d
       -0.058099814 -0.09838759 -0.04064451 0.098482415
000250 36 c7 3b bc 83 3a 8e bd 20 53 2e 3e e7 25 0b 3d
       -0.01146107 -0.06944754 0.17023897 0.033971693
000260 a0 35 b9 3d cc b5 67 3d 3f 4d 24 3d a9 83 f2 3d
       0.09043431 0.05656986 0.04011273 0.118415184
000270 d9 36 33 3e c1 8d 8a 3c 05 27 0f 3d bd 8c 14 be
       0.17501391 0.016913297 0.03494932 -0.14506812
000280 09 e9 1f 3e 1b 5a 24 bd d1 4d f2 3d a5 06 9c 3b
       0.1561624 -0.040124994 0.118312486 0.0047615343
000290 8e 1f 30 bd b7 95 8a 3d fa 98 33 bd 9c fd e5 3d
       -0.042998843 0.06766837 -0.04384706 0.11230013
0002a0 18 ff ab 3d 05 1a b6 3c b9 5e b5 3c 1d 2a 9d 3c
       0.08398265 0.022229204 0.022139894 0.01918512
0002b0 bb 23 49 bd 87 c4 90 3d 32 24 cb 3c d9 12 d1 bb
       -0.04910634 0.070687346 0.024797533 -0.0063804206
0002c0 4f b2 80 3d 76 15 82 3d f1 b4 38 3d 03 24 42 bc
       0.0628401 0.063517496 0.045094434 -0.011849406
0002d0 2c f7 ab 3c 69 2a a2 3d a0 71 b9 3c 0c 9e a1 bb
       0.020991884 0.07918245 0.022637188 -0.0049321707
0002e0 bd 5f 9d 3c 41 c2 4a bd 91 38 5e 3d 46 d3 c8 3d
       0.01921069 -0.04950166 0.054253165 0.09805922
0002f0 2c db ee bc 0f 8d f5 3c 2d ec 0e 3e 26 b6 b5 3b
       -0.029157244 0.029974489 0.13957281 0.0055453954
000300 8f f6 8b bd cd ad ab bd de 11 3a 3e 1d bd b2 3d
       -0.06834137 -0.08382759 0.18170878 0.08727477
000310 f0 f6 bf 3d c5 0a 6d 3d a0 9b 0c bc 12 02 20 3c
       0.093732715 0.0578716 -0.008582026 0.009766119
000320 71 58 24 3e 16 ce 60 3c e4 16 2e 3e 0a 6b 5b 3d
       0.16049363 0.01372101 0.1700092 0.053568877
000330 9a a3 16 bd 0d 81 cc bc e4 cb 15 3e 3e 98 fe bb
       -0.036777116 -0.02496388 0.1462856 -0.0077696135
000340 44 ca fc 3d 31 66 02 3e 8a 82 70 3d 50 71 1a 3d
       0.123432666 0.12734295 0.05871824 0.03770572
000350 8d 7a c1 bc 38 ca 8c bd e8 fb b4 bc 93 51 c0 bd
       -0.023618007 -0.06874508 -0.022092775 -0.09390559
000360 96 08 c9 3d 26 72 17 bd df db fc bd 5a c7 6a 3d
       0.09816091 -0.036974095 -0.123466246 0.057319023
000370 77 b3 30 bc 2d 8c a4 bd bf f7 f2 3d 5b 01 ed bd
       -0.010784975 -0.08034549 0.1186366 -0.11572524
000380 1e 13 a7 3d fa 98 43 bd e1 3a 84 3d 98 48 92 bc
       0.08157943 -0.04775331 0.06456543 -0.017856881
000390 a6 bb ae 3d 13 bc 59 bd 35 ef 4e bd 7f d6 5e bd
       0.08531885 -0.053157877 -0.050521094 -0.05440378
0003a0 64 2e 3d 3e c1 6c f8 bd b0 56 95 bd ac 2a db 3c
       0.18474728 -0.12130118 -0.07291925 0.026753746
0003b0 87 74 29 bd 12 af ed bc 66 40 c8 3c 2d 9a b2 bd
       -0.041370895 -0.029014144 0.02444477 -0.08720813
0003c0 31 c0 c6 bd 8a 74 1d 3e 6b 6f 62 3d 42 8e bf 3d
       -0.09704626 0.15376487 0.055282038 0.093533054
0003d0 df e7 f0 3d 6b 18 d8 3d 98 cf b9 bd ad e9 17 3d
       0.11762976 0.10551532 -0.090727985 0.037088085
0003e0 62 1d bb bc cf 33 cd 3d dc ab 9e 3d 1e eb b1 bb
       -0.02284116 0.10019647 0.07747623 -0.0054296395
0003f0 c4 6b 28 3e dc 76 a2 bd f2 25 59 bd b7 0c 19 bd
       0.1644736 -0.07932827 -0.053014703 -0.03736564

lstm.weight_hh_l0 f4 [256, 64]
000000 bf 63 d9 3d a2 96 12 be 71 89 a0 bd c2 de 9a bc
       0.10614728 -0.14315274 -0.07838715 -0.018905047
000010 57 32 b0 bb 29 cb 61 bd 85 de 52 3d 4d 5a 5c 3d
       -0.0053770947 -0.05512539 0.051481742 0.053797055
000020 2c f2 4c bb 0c e8 ef bd d4 34 bb bd 9f e5 65 bd
       -0.0031272275 -0.11714181 -0.091409355 -0.056127187
000030 56 8e e3 bb c5 d9 59 3a f9 2b 19 3d 3b 08 28 bd
       -0.006944458 0.0008310343 0.03739545 -0.041023474
000040 17 12 97 3d 7a de c9 3d 74 5b 30 bd e9 75 ec 3c
       0.07376497 0.09856887 -0.043055966 0.028864818
000050 a6 29 12 3e 97 5e 46 bc b2 69 f9 bd 8e c1 73 bd
       0.142737 -0.012107513 -0.12178363 -0.05951076
000060 11 9e 29 3d 20 76 37 bd 2c 5d cb bb d3 65 0f 3e
       0.04141051 -0.044790387 -0.0062061753 0.14003687
000070 bd 90 13 be 1c 96 90 bd d9 c1 5a 3d 3f 3b 38 bd
       -0.14410682 -0.07059881 0.053407524 -0.044978376
000080 9d 89 05 bd 6f 28 0a 3d bf 0a cd 3c 9c c2 96 bd
       -0.03260194 0.033729967 0.025029538 -0.073613375
000090 bd 61 b0 bd 42 68 16 be 5e 8e f8 3d 5a 6c ab 3d
       -0.08612392 -0.14688209 0.121365294 0.08370276
0000a0 14 fa b2 3c 3b 8c 2b bc 18 78 c6 3d 12 05 90 3d
       0.021847762 -0.010470445 0.09690875 0.07032217
0000b0 3d 35 c2 bc dc 65 55 bd 6e f4 82 bd 27 87 da bd
       -0.023707027 -0.052099094 -0.063942775 -0.106703095
0000c0 c6 3e ce 3c a8 d3 6b 3d c5 9b f6 3d 79 90 67 bd
       0.025176417 0.057574898 0.120414294 -0.056534264
0000d0 55 24 ef bd c1 12 f2 3c e1 62 97 3c 34 7c d9 bd
       -0.11676852 0.029549958 0.018479766 -0.10619393
0000e0 fe 3c a3 bd ea 9d 93 bc 87 d4 aa ba f6 1a de 3d
       -0.07970618 -0.018019635 -0.0013033309 0.10844986
0000f0 3a 8c f8 3d 75 db 66 bd 81 d4 5d 3d a9 bb 03 3e
       0.12136121 -0.056361634 0.054157738 0.12864555
000100 42 68 c8 bd fb e8 96 3d 23 63 b3 bd 2e e8 f3 bd
       -0.097855106 0.07368656 -0.08759143 -0.11909519
000110 4c 1e de bd 7a 92 1a bd 97 a0 42 bd 43 d4 ce 3d
       -0.108456224 -0.037737347 -0.04751643 0.100990795
000120 8a 87 3a 3d d9 c1 92 3d 94 95 d5 bc 43 f7 b2 bd
       0.045539416 0.0716588 -0.026072301 -0.08738568
000130 e5 cb c7 3b 7b cf 43 3c 68 b0 d1 bd 7b ed 77 bc
       0.006097304 0.011951323 -0.10238725 -0.015132303
000140 0b d0 f1 3d 29 17 a0 3d a9 43 ae 3d 77 3b c5 bd
       0.11807259 0.078169174 0.08508999 -0.09630483
000150 26 80 89 bd 20 e9 bd 3c 13 f4 85 bd 88 7d 5a 3d
       -0.067138955 0.023182452 -0.06540694 0.053342372
000160 8f 5b e6 bd bf ea 88 3d 37 d3 d6 3d 3b cd e9 3d
       -0.11247932 0.06685399 0.10489505 0.11416098
000170 16 94 12 bd 56 81 ca 3d 00 9b da bc 8e ff b9 bd
       -0.035785757 0.0988795 -0.026685238 -0.09081946
000180 c9 63 ad 3d b3 80 be 3d e7 1b 01 3e 90 5a ae 3d
       0.08466298 0.09301891 0.126083 0.08513367
000190 17 80 88 3c 01 3f d1 bd f8 03 45 3b 56 c1 9d bd
       0.01666264 -0.10217095 0.003006218 -0.077028915
0001a0 79 7d 64 bd 8d 77 f0 3c 20 fe 48 3d 13 fd f7 bd
       -0.055783723 0.029353881 0.049070477 -0.12108817
0001b0 7e 77 28 3d a9 82 a2 bd d6 0a 31 3d d5 b1 f6 3d
       0.04112958 -0.07935078 0.043223225 0.120456375
0001c0 68 96 f3 bd ab a8 0c be 66 df 2e bc cf 57 46 bd
       -0.11893922 -0.13736217 -0.0106733795 -0.048423585
0001d0 12 94 a1 bd 6b c2 51 bb 57 73 86 bd 73 48 c0 bd
       -0.0788957 -0.0032006751 -0.06564968 -0.093888186
0001e0 a9 f8 10 bd c1 c3 e9 3d f4 5c 95 3d ec 10 c0 bd
       -0.03539339 0.1141429 0.0729312 -0.093782276
0001f0 c0 ae c1 3c b6 4c 7b bd 5d 3f d3 bd b1 b4 cb bd
       0.023642898 -0.061352454 -0.1031482 -0.099465735
000200 bd f7 a5 bb b2 0c 59 bd 75 92 03 3e 3c 09 a6 3d
       -0.005064933 -0.052990623 0.12848838 0.0810723
000210 88 1e 67 3d ba 4a e7 3d 40 84 90 bd 86 52 a6 3d
       0.0564256 0.1129355 -0.07056475 0.08121209
000220 86 1f 1e bd 49 b1 8b 3c 6b 23 40 bc 03 9d d8 3d
       -0.03860428 0.01705231 -0.011727194 0.105768226
000230 d3 1a 40 3d ff d3 96 3d 32 cb 67 3d 5a 25 fa bd
       0.04690058 0.07364654 0.056590267 -0.122141555
000240 d6 c4 80 bd 68 12 a8 3d d4 38 7f bc 2f 07 d3 3d
       -0.062875435 0.08206636 -0.015577514 0.103041045
000250 32 50 87 3c 09 72 03 be 77 99 12 3d 83 dc 96 3d
       0.016517732 -0.1283647 0.035790887 0.07366278
000260 6a 51 f3 bd e1 87 7f bc 4a bd 09 bd b9 75 c1 bd
       -0.11880763 -0.015596361 -0.033627786 -0.09446282
000270 41 56 3e bd bb 3a 4f 3d 5b 32 83 bd 8a bb 8b 3d
       -0.046468977 0.05059312 -0.06406089 0.068228796
000280 2c a8 6c 3d 62 25 8b bd 60 be 99 3d 90 fc bb bd
       0.05777757 -0.067942396 0.07507014 -0.09179032
000290 0e d9 80 3d dc ba 2c 3c 69 20 a9 bd 9b fa 9a 3d
       0.062914 0.010542598 -0.08258135 0.075673304
0002a0 47 07 e1 ba 4a 75 86 bd dc a9 06 3e d2 7a b6 bd
       -0.0017168307 -0.0656534 0.13150734 -0.08910145
0002b0 5f 37 84 b9 c9 fa d1 3c 6f 39 6a bd 3a c1 e5 bd
       -0.00025218257 0.025632279 -0.05718368 -0.11218496
0002c0 cc 91 87 bd 4f 1b 05 be 75 b7 81 3c 27 9c 8f bc
       -0.066196054 -0.12998699 0.01583455 -0.017530514
0002d0 b3 61 d1 bc d5 25 ab 3c ff b6 f4 3d 40 2a 0b bd
       -0.025559282 0.020892063 0.11948966 -0.03397584
0002e0 0d 48 8a 3c ae a2 3e bc 1c 6f 28 3d 46 6c ea 3d
       0.01688006 -0.011635466 0.041121587 0.11446433
0002f0 95 c4 c3 3d a0 e5 22 bd 34 9a b3 3d b8 bf aa bb
       0.095589794 -0.03976977 0.08769646 -0.005210843
000300 8f 94 af 3d 13 0f 4d 3d 94 64 5b 3d 58 ce 0a 3d
       0.08573257 0.050063204 0.053562716 0.03388819
000310 35 93 13 3e 8f 5a 56 3d 63 5e 83 3d bd 9c 7a 3b
       0.14411624 0.052332457 0.06414487 0.0038240396
000320 92 bf 08 3e 6b bb f4 bd 8b f5 be 3d 70 fc 0f 3e
       0.13354328 -0.1194981 0.09324177 0.14061141
000330 0c 41 75 3d bc 5c 55 bd dc 11 c6 bd 30 48 16 3c
       0.059876487 -0.05209039 -0.09671375 0.009172484
000340 c1 c9 c2 bc ad ff 7e 3d 28 d4 df bc b6 80 1a 3d
       -0.023777844 0.06225555 -0.027322844 0.037720405
000350 21 a9 73 3d 9a cf 82 bc a6 6c c2 3d aa 54 55 bc
       0.059487466 -0.015968133 0.09493379 -0.013020674
000360 58 89 1d 3c 5d 77 0f bb 89 b9 5d bd 9a 09 aa bd
       0.009615265 -0.0021891214 -0.05413202 -0.083026126
000370 fe b3 bc 3c 94 c8 88 bd 51 ac ab 3d 14 23 c4 3d
       0.023035046 -0.06678882 0.08382476 0.09577003
000380 0c 54 af 3d 06 63 b7 3d e1 c1 01 3d 5f 83 b7 bd
       0.085609525 0.08954434 0.031679038 -0.08960604
000390 c8 da 25 3d 7f 0d 30 bd 31 4e 9e bc c2 87 19 be
       0.04049185 -0.04298162 -0.019324394 -0.14993194
0003a0 56 da bd bc a3 c0 0e 3e 01 ea ff 3c 62 bb dc 3d
       -0.0231754 0.13940673 0.031239511 0.10777928
0003b0 e4 a9 a2 bd b7 97 47 3d ac a1 de 3d 70 72 7b 3d
       -0.0794256 0.04872867 0.1087068 0.061388433
0003c0 a5 80 27 3d fa db d2 bd 32 2a cc bd 22 69 a5 bd
       0.04089417 -0.102958634 -0.099689856 -0.08076693
0003d0 e7 82 23 bd 8d 7e a9 bd b6 c6 b1 3c d5 89 1e bd
       -0.03991976 -0.08276091 0.021701198 -0.038705666
0003e0 41 1a da bd ab 75 da 3d 7a 43 2f bd 82 60 f2 3d
       -0.10649539 0.10666975 -0.04278896 0.11834814
0003f0 81 06 48 3d 06 f3 fc bc 48 fe 9f ba 34 f3 fc 3d
       0.048834328 -0.030877601 -0.0012206519 0.12351075

lstm.bias_ih_l0 f4 [256]
000000 92 cb 8b 3d 39 75 e7 3b bc f6 e4 bd 37 4b af 3c
       0.06825937 0.0070635346 -0.11179873 0.02139817
000010 85 a4 74 3d 5a 44 a3 3b 3d 8e 16 bc 4f de 84 3d
       0.05972721 0.0049825134 -0.009189186 0.064877145
000020 e8 7a d8 3d ba 8b ac 3d ad 82 86 bc ca ed 93 bd
       0.105703175 0.08425088 -0.016419733 -0.07223089
000030 7c 38 fa 3d 5a 70 7a bd 2b 62 6b bd b6 fb 7d bc
       0.12217805 -0.061142303 -0.057466667 -0.015501907
000040 e7 0e 38 bd 47 16 17 3d a4 b1 a6 bb 0e 6e 92 3d
       -0.044936087 0.03688648 -0.0050870944 0.071498975
000050 8d 9c 05 3e a3 db bd 3d 43 a2 16 bd 11 94 d7 3d
       0.13048 0.09270408 -0.03677584 0.10526288
000060 a3 3f 92 3d cb 3b e1 3d ee 24 03 3d 2a de b5 3d
       0.07141044 0.10997733 0.03201764 0.08880265
000070 0d f1 03 bd 6b 9b e8 3d 02 24 08 3d db 99 e8 ba
       -0.032212306 0.113577686 0.033237465 -0.0017746048
000080 43 3e 5e bd 6f 8e 3c bd d3 7f 27 3d cc 81 c2 3c
       -0.054258596 -0.046034273 0.040893387 0.023743533
000090 c6 6f 8a 3b 1e c3 02 3e ec e8 82 3d b1 23 a8 3d
       0.00422475 0.12769744 0.063920826 0.082099326
0000a0 a2 80 95 bd 74 72 fc 3d 46 00 3a 3d 06 25 f8 bd
       -0.072999254 0.12326518 0.045410417 -0.12116437
0000b0 bd e3 c1 3d 30 53 f3 3c 27 3b f2 3a 03 85 90 3c
       0.09467266 0.029702753 0.0018480764 0.01764155
0000c0 8f ce e4 3d d5 1b af bd 61 f1 e9 bd d8 d1 95 bd
       0.111722104 -0.085502304 -0.114229925 -0.07315415
0000d0 a6 3a dc 3d 96 85 40 3d 55 a0 10 3d f0 9b 0d bd
       0.10753374 0.047002397 0.035309155 -0.03457254
0000e0 65 2e c8 3d 7a 90 ea 3d 58 50 cc bd 08 e6 95 bd
       0.09774474 0.11453338 -0.09976262 -0.073192656
0000f0 3c 11 14 3e 93 4d 77 bd 34 6f 15 3d d5 4f 89 3d
       0.144597 -0.060376715 0.036483005 0.0670468
000100 50 d1 05 3d 4c fc a4 3d 85 fa 87 bd 22 e0 3f bd
       0.03267032 0.08055934 -0.0663958 -0.04684461
000110 0f 58 54 3d 74 a7 bc bd ce 93 50 bd 01 d5 d6 3d
       0.05184179 -0.09211627 -0.050922208 0.10489846
000120 80 ef bb 3d 80 77 ad bd d9 06 3c 3d f3 0f c6 3d
       0.091765404 -0.084700584 0.045904968 0.09671011
000130 2f f1 12 3e 90 fc 12 3e 9b f2 dd 3d 46 2a a6 bc
       0.14349817 0.14354157 0.10837289 -0.02028383
000140 2e af 89 bd 6a 30 30 3d 10 41 92 3d fe c4 d4 3c
       -0.06722866 0.04301492 0.07141316 0.02597284
000150 cc 6b ea bb 4e 4f de 3d 34 b2 e2 bd ee 08 d7 bd
       -0.0071539637 0.1085497 -0.11069146 -0.1049975
000160 f2 1f a2 bb 90 06 8a 3c b2 8a b1 bc 2b 7d a1 bd
       -0.004947656 0.016848832 -0.02167258 -0.07885202
000170 93 92 60 bc a1 4a c8 bd 49 3f c7 3d d1 97 ab 3c
       -0.013706821 -0.09779859 0.097288676 0.020946415
000180 a9 42 39 3d 6d 06 9e bd e9 04 82 3c 2b f4 85 bd
       0.045229588 -0.07716069 0.015871482 -0.06540712
000190 d1 c7 ad 3d 64 ca 79 bb 0c 89 f3 3d 03 e2 6c 3d
       0.084853776 -0.003811502 0.11891374 0.05783273
0001a0 56 6f 15 3e d6 c2 36 3d 4a 63 e3 bd b3 7d 77 3c
       0.14593253 0.044619404 -0.11102922 0.015105653
0001b0 4f 9a 9c bb 91 19 c6 3d eb 23 c8 3d 82 e4 ad 3d
       -0.004779137 0.09672845 0.09772476 0.0849085
0001c0 97 3d ea 3d 18 9b 97 3b df 22 b9 bc a9 b1 04 3e
       0.114375286 0.004626643 -0.022599636 0.12958397
0001d0 b0 13 c6 3d b7 ca 6e 3c 42 e7 5d bc 30 c9 45 bd
       0.09671724 0.014574698 -0.013543906 -0.04828757
0001e0 a5 65 57 bd 50 e5 70 bd d3 be ba bd e9 d2 cb 3d
       -0.05258717 -0.05881244 -0.09118428 0.09952337
0001f0 b5 76 d7 3c c7 4d bb 3d cd 11 1d 3c 64 70 d9 3c
       0.026301721 0.09145694 0.009586764 0.02654285
000200 38 fe 6d 3d ce 6f 10 3e 8f 6c d4 3b cf 6e dd bd
       0.05810377 0.1410515 0.0064826678 -0.10812151
000210 32 b6 ba 3d cc 9e 32 bd 07 d3 d3 3d 02 2a ae 3d
       0.09116782 -0.04360847 0.10342985 0.08504106
000220 81 69 06 bd 51 5b cb bd 78 8a 9c bc cc ec 8d 3d
       -0.03281546 -0.099295266 -0.019108996 0.06929931
000230 51 76 56 3c c7 a0 ea 3d bd ae b4 3d 91 37 d1 3d
       0.013089732 0.11456447 0.08822391 0.102156766
000240 44 6e 65 3d db ca 6c bd f5 7d 04 bd c8 7c dc bc
       0.05601336 -0.057810646 -0.032346684 -0.02691497
000250 33 49 f0 bb 7f 60 84 bd 14 c8 ab bd 60 fb cf 3d
       -0.007332945 -0.06463718 -0.08387771 0.10155368
000260 b1 25 4f bd a3 86 f7 bd 76 eb 5b 3c e7 3f a4 bc
       -0.050573055 -0.12086227 0.0134228375 -0.020050002
000270 c3 e9 05 3d d6 3f e2 bc 24 20 f6 3d 27 3a 8c bc
       0.032693636 -0.02761833 0.12017849 -0.017117573
000280 22 b3 1a bd 58 29 4b bd 39 6b a9 bd 36 da 8c bc
       -0.03776849 -0.049599975 -0.08272404 -0.017193895
000290 41 99 dc 3c 90 25 ce bd d0 4a 9a 3c 9c ec e4 3c
       0.026928546 -0.10065758 0.018834502 0.027944855
0002a0 c4 c4 0d bb e4 a9 ea 3d 26 cc b9 bd 39 8a bf 3d
       -0.0021632174 0.11458185 -0.09072141 0.09352536
0002b0 27 c3 a8 bb 76 ce 13 3e 35 7e 51 3d 47 a7 1f bd
       -0.005150217 0.14434227 0.05114575 -0.038977887
0002c0 cf 08 9f 3d 3f d5 c9 3d 57 3c ed 3d 10 98 18 bd
       0.07765352 0.098551266 0.115837745 -0.037254393
0002d0 c0 6d 9d bd 6a 11 4b 3d 05 b7 53 bc ac d9 f6 3d
       -0.07686949 0.049577154 -0.012922053 0.12053236
0002e0 34 ce 71 3d aa f7 94 3d 1f eb 43 3d d6 07 a3 bd
       0.05903454 0.07273801 0.04783165 -0.07960479
0002f0 44 ab 77 3d 13 73 b4 bd d6 28 03 3e 2b 92 d7 bd
       0.060466066 -0.08811011 0.12808546 -0.10525926
000300 00 56 5c bd 04 88 f8 bd 35 f0 13 3d 9c 85 7e 3d
       -0.053792953 -0.12135318 0.03611775 0.06213914
000310 2b e9 b3 3d ed ee bb 3c f2 4b 08 3e 9a bf 07 bd
       0.08784708 0.022941077 0.13310221 -0.03314171
000320 86 19 43 3d ea 70 82 bd b4 cd 88 3c 50 ee cf bd
       0.047631763 -0.06369193 0.01669965 -0.101528764
000330 7a de 0d 3e 41 bd 92 3c c3 7d c7 bc 03 30 89 bc
       0.138544 0.017912509 -0.02435196 -0.016746527
000340 99 81 67 3b c6 b8 a9 bd 03 26 b4 3d d0 29 94 bb
       0.003532505 -0.08287196 0.08796313 -0.004521586
000350 27 a0 bd 3c e9 f9 67 3d 54 f6 da bc 18 ed d3 3d
       0.023147656 0.056634817 -0.026728787 0.103479564
000360 23 25 ed bc b2 91 8d bc 0d 37 00 bd f8 da 17 bd
       -0.028948372 -0.017281387 -0.0313025 -0.03707406
000370 c7 e2 da 3d cc 22 92 3d c1 b5 c7 3d 25 10 0d 3e
       0.106877856 0.07135543 0.09751464 0.1377569
000380 12 f6 d2 bd dc 18 b6 bb ef f8 e9 bd ff 05 f1 3d
       -0.103008404 -0.0055571627 -0.114244334 0.11768722
000390 ab 98 15 3d 96 1f ed bb 3a 0c bf 3d 63 90 03 3e
       0.03652255 -0.0072364314 0.09328504 0.12848048
0003a0 c0 6d bd 3d 71 03 9c bc 11 e3 75 bd a3 5d 6a 3d
       0.09249449 -0.01904461 -0.060031 0.057218205
0003b0 f2 ce 73 ba 9c 58 e6 bc ea 54 51 bd 1e 10 0d 3e
       -0.00093005516 -0.028118424 -0.05110637 0.1377568
0003c0 68 0e ef 3b 5f 7c 63 3d f8 a3 fd bd 7e 92 19 3d
       0.0072954185 0.05553853 -0.1238479 0.03749322
0003d0 17 52 f2 3c 42 e1 80 bd f7 f6 ac 3c ec e5 03 3e
       0.02958016 -0.062929645 0.021113856 0.12880677
0003e0 b7 ff 11 3e c3 a8 d3 bc 1e ee 8d 3c f8 44 fb b7
       0.14257704 -0.025837308 0.017325457 -2.9953648e-05
0003f0 63 fa 8f bd a0 d7 09 3e 52 c8 fc 3d e5 a3 15 3d
       -0.07030179 0.1346116 0.123428956 0.036533255

lstm.bias_hh_l0 f4 [256]
000000 a2 ea 8b 3c d1 09 0e bd 20 9f 0a bd 9f 51 4d bd
       0.017079655 -0.03467733 -0.03384316 -0.050126668
000010 c3 2f a4 ba ae d5 48 3d d5 cf dc 3d 3a 31 61 bd
       -0.0012526441 0.049031906 0.10781828 -0.054978587
000020 06 1e 38 3d c0 1c d8 3d 85 3e 82 bd 26 80 81 3d
       0.044950508 0.105523586 -0.06359581 0.063232705
000030 62 d8 b4 3c 18 ef d4 bd 81 24 44 bd 50 38 4e bd
       0.022075836 -0.10397166 -0.047886375 -0.050346673
000040 d9 a8 f5 3d 78 c6 bf 39 c6 56 05 3e 6c 9a c1 bc
       0.11995096 0.0003657823 0.13021383 -0.023633204
000050 f2 de a6 3d a0 18 ee 3c 5e c3 eb 3d 77 8b 85 bd
       0.08147992 0.029064476 0.11511873 -0.065207414
000060 ed dc 0c 3d 0f c1 c0 bc f9 45 b8 3d b9 28 8f 3c
       0.03439038 -0.023529558 0.08997721 0.017475473
000070 65 5d 7e bc ac 4e c1 3c 10 4a fa 3d 43 8e 03 bd
       -0.015525197 0.023597084 0.122211576 -0.032118093
000080 79 fb 04 3e b9 f9 1e 3b cc 1f 05 be af c4 fc bd
       0.12986554 0.0024257733 -0.13000411 -0.12342202
000090 a3 0f e9 3d f7 c3 b6 3d 56 07 ee 3d a7 af 3d 3d
       0.113799356 0.08924096 0.11622493 0.046310093
0000a0 48 e5 6d bc 59 14 81 3d f7 ad ae bd 7a 91 93 3d
       -0.014519997 0.06302709 -0.08529275 0.07205482
0000b0 cf 12 e3 bd fb 99 1d bd a2 df ae bd c7 c7 10 3c
       -0.11087572 -0.038476925 -0.08538748 0.008836693
0000c0 12 00 09 3e 37 c5 a3 bd 2d ef d3 3d 36 f6 8e bd
       0.13378933 -0.079966 0.103483535 -0.06980555
0000d0 b8 40 4a bd fc 20 96 bd 22 a5 05 3e c1 de 04 3e
       -0.049378127 -0.0733051 0.13051274 0.12975599
0000e0 ff f6 c7 3d a4 7b c7 bc 77 e2 4a bd 5e e7 e2 bd
       0.09763908 -0.024350949 -0.04953238 -0.11079286
0000f0 c1 ca 94 bd 19 38 81 3d 9b 8f 49 3d 65 2a 6f 3d
       -0.07265235 0.06309528 0.04920922 0.05839004
000100 b3 dd ea 3c d8 d0 88 bb f8 84 08 3c ee a1 3e bd
       0.028670168 -0.0041752867 0.0083324835 -0.046541147
000110 0d 71 91 3d ec d8 92 bd 2c ed 1d ba da be 41 3d
       0.07101641 -0.07170281 -0.0006024416 0.04730115
000120 c2 8b 99 3c 40 f2 9b bd 81 f7 13 3d 32 3b cc bc
       0.0187434 -0.07614565 0.03612471 -0.02493057
000130 16 18 ae bd 15 e8 b5 bc d4 3b 06 3e 73 45 e8 bd
       -0.08500688 -0.022205392 0.1310876 -0.113413714
000140 e6 84 9f bd d0 b1 c4 3d 7c 03 39 3d bf 8d 0f bc
       -0.0778902 0.096042275 0.04516934 -0.008761822
000150 2c 57 14 bd de 9d 00 3d 52 d8 5d bc 3e d0 95 bd
       -0.036215946 0.031400554 -0.013540344 -0.0731511
000160 eb 17 ae bc ab 5e 82 bd e8 14 69 3d ed d5 8c bd
       -0.02125164 -0.06365713 0.056904703 -0.068767406
000170 20 04 de bd ed 8f a0 3d fd 29 11 3d ad 86 dd 3d
       -0.108406305 0.07839952 0.035440434 0.10816703
000180 74 38 02 3e ec 12 f4 bb eb 14 12 be c7 0b 57 3c
       0.12716848 -0.0074485447 -0.14265792 0.0131253665
000190 53 aa 3a 3a 58 03 c3 bd 29 48 06 3e f5 29 98 3c
       0.0007120717 -0.09522122 0.13113464 0.018574694
0001a0 9a 19 ca 3d 16 4b dd 3b 74 e8 b5 3d ca 6c bd 3d
       0.09868164 0.0067533357 0.088822275 0.092492655
0001b0 85 f4 a1 bd c0 4e 0a 3a 3d 15 30 3d fc 10 a1 3c
       -0.079079665 0.0005276017 0.042989004 0.01966142
0001c0 0d 58 b6 3d 8a ff fe 3c cc 3d a8 3d 04 1a cb 3d
       0.08903513 0.03112771 0.08214912 0.099170715
0001d0 36 f6 ca 3d ce 37 66 3d 1c b9 b1 3d 9e b4 5b bd
       0.09910242 0.056205563 0.08677885 -0.053639047
0001e0 b0 81 b4 3d 58 b0 5a 3b 69 a5 d1 bd 74 de 69 bd
       0.088137984 0.003336927 -0.102366276 -0.057096913
0001f0 c3 e8 a4 3d 39 ed 37 3d a7 3a 16 3d 7a b1 b6 3d
       0.08052208 0.044903968 0.03667703 0.0892057
000200 15 59 00 3e ac 7a 87 bd 67 ca e4 3d bd cc a9 bc
       0.12533982 -0.06615195 0.11171418 -0.02072751
000210 f4 33 79 3d 4b 2d 1b bd 97 13 da 3d e4 01 4d 3d
       0.060840562 -0.03788499 0.10648268 0.05005063
000220 9b 19 75 3d 2b 23 8a bd 2d 16 cd 3d 83 4e 32 bd
       0.059838872 -0.06744989 0.10013995 -0.043531906
000230 1c 2c a3 3b ec 8b 41 bd 36 c1 1a 3d 05 d9 c0 bd
       0.0049796235 -0.04725258 0.037781917 -0.09416393
000240 c9 e1 0e 3d 9f fa f0 bd c5 fb c9 3d 5c 53 9a bd
       0.034883294 -0.11766552 0.09862474 -0.07535431
000250 63 28 fa bc c5 78 6e 3d 2e 4a 47 bc 8e 7f fe bd
       -0.030536836 0.058220644 -0.012163682 -0.12426673
000260 61 60 2e bd f3 b8 84 3d 52 d9 99 3d 89 46 91 bd
       -0.042572383 0.06480589 0.07512154 -0.07093532
000270 eb a6 d7 bd 85 08 7d bd d8 5f a5 bd d4 1c 9c 3d
       -0.10529884 -0.061775703 -0.08074921 0.07622686
000280 a8 54 aa 3d 31 cb 97 bd e0 38 61 bd 87 cb 9b 3c
       0.08316928 -0.074118026 -0.05498588 0.019017948
000290 81 2a da 3d f0 6b 61 bb 86 c6 06 3d 6e 2f 10 bd
       0.10652638 -0.003439661 0.03290417 -0.035201482
0002a0 5a 3e b4 3d 48 5a 5a bd 60 6b c7 bd 68 bd ff 3c
       0.08800955 -0.053308755 -0.09737277 0.031218246
0002b0 88 6e 6b 3d d7 6d 95 bd 36 da c6 bc 9c 68 fa bd
       0.057478458 -0.07296341 -0.024273973 -0.12226984
0002c0 75 03 1c bd 71 87 a1 bc 3a 9b 59 3d 5c 92 a2 3c
       -0.038089234 -0.019717904 0.05312655 0.01984518
0002d0 d4 c8 43 bd 2a 86 82 3d c1 e8 a3 3d e4 fb ac 3d
       -0.047798946 0.06373246 0.08003379 0.08446482
0002e0 cb 0f df bc 6f a6 08 bd 57 03 77 3d d4 1e 9a bd
       -0.02722921 -0.03336185 0.06030592 -0.07525411
0002f0 6e 1e a8 bc 4d e2 f9 3d 25 77 59 bd 25 ab b4 3d
       -0.020522323 0.122013666 -0.05309214 0.08821706
000300 1e 7c ba 3d 63 6a ae 3b c1 1a 7d bd c4 f1 f3 3d
       0.09105705 0.005322741 -0.061793093 0.119113475
000310 a0 98 3d bd 42 2b 13 3d 21 53 d1 bc cf 24 d0 3d
       -0.046288133 0.035929926 -0.025552334 0.10163271
000320 45 0a ff 3d da 91 87 3d 6d d6 fe bb 48 83 a5 3d
       0.12453131 0.06619616 -0.0077770264 0.080816805
000330 a4 ee 10 3b af 00 c6 bc c2 b4 17 bc 0a 6b b9 bd
       0.0022114897 -0.024170248 -0.009259405 -0.09053619
000340 63 2d ac 3d ac b5 c2 3d da 7b 19 3e e9 39 77 3d
       0.08407094 0.095073074 0.14988652 0.06035796
000350 72 80 9f bd b0 b9 82 3d 36 02 51 3d a6 f0 a1 bd
       -0.07788171 0.06383073 0.0510275 -0.07907228
000360 2c 05 ef bc c0 de 0a 3e 9f 75 ba 3d 28 27 cb 3d
       -0.02917727 0.13561535 0.09104466 0.09919578
000370 cd c5 e1 bd 80 c7 5b 3c d1 10 82 3d 71 09 92 bd
       -0.11024056 0.013414264 0.06350864 -0.07130707
000380 af a5 ed 3c 6c 31 32 3d 3f 02 86 bd c3 65 68 3c
       0.029009668 0.043504164 -0.06543397 0.014184418
000390 5b 7e da bd 5a ec b4 3d cc 2c 56 3d 69 9c 40 3d
       -0.10668632 0.08834143 0.052288815 0.047024164
0003a0 fa bb 8e bd d8 98 3b bc 2b 2e d1 bc 87 66 79 bd
       -0.069694474 -0.011450015 -0.02553471 -0.060888793
0003b0 58 df 90 3d 9b 6f ee 3d ce 71 53 bd 66 e3 58 bd
       0.070738494 0.11642381 -0.051622204 -0.05295124
0003c0 e6 a1 66 3c 39 ab 85 3d a8 ad 8a 3d 03 26 49 3d
       0.0140766855 0.06526799 0.067714036 0.049108516
0003d0 e5 58 d0 bd fb 85 47 bb 04 c0 52 3d 3f ba 81 3d
       -0.10173205 -0.0030444849 0.05145265 0.06334352
0003e0 ed 50 18 3d b1 d7 fa 3d 5e 5f a9 3d 0d 87 f4 bd
       0.03718655 0.12248171 0.08270143 -0.119398214
0003f0 8d 12 98 bd 24 46 e4 3d 5d d7 11 3d 2d e5 2a 3d
       -0.07425413 0.11146191 0.035605777 0.041722465

lstm.weight_ih_l1 f4 [256, 64]
000000 af 86 ca 3d 05 94 c4 bd c4 15 45 3d ea 3e 28 3c
       0.0988897 -0.09598545 0.04811646 0.010268906
000010 09 69 d8 3d 60 47 c4 bc 20 b6 81 bd 61 5e c1 bd
       0.10566909 -0.023959816 -0.06333566 -0.094418295
000020 65 ee 02 3e d5 a3 44 3d 35 a4 0d 3d 0c 99 3c bd
       0.12786253 0.048007805 0.03458043 -0.046044394
000030 46 a7 b3 bd 8c a1 dd 3c c8 44 de bc c3 3b c2 bd
       -0.08772139 0.02705457 -0.027132407 -0.09484055
000040 8b b9 11 bc b9 a0 06 be 51 9f 78 bd b6 7b 86 3d
       -0.008894335 -0.13147248 -0.06069881 0.06566565
000050 45 1c 6f 3b 87 39 06 be e7 8b 6c bd 77 e8 47 3d
       0.0036485356 -0.13107882 -0.05775061 0.04880568
000060 61 5c 85 3d ab 49 36 3d 36 56 30 3d e8 3a e3 3d
       0.065117605 0.04450385 0.043050967 0.1109522
000070 6d 4c aa bd 03 06 40 bc 52 85 d5 bd 5a 8a a1 bd
       -0.08315358 -0.011720183 -0.104258195 -0.078877166
000080 07 7b 9d bc fd 53 1e bc 4d 52 91 bd 25 00 78 bb
       -0.019223703 -0.009663579 -0.07095776 -0.0037841883
000090 e0 d7 c0 bc 9d 10 a9 3d 18 3c 17 3d c9 58 b0 bd
       -0.023540437 0.08255122 0.036922544 -0.086106844
0000a0 0d 97 e3 bd a7 69 e2 bd 9a 4e ae bd da 38 5f 3c
       -0.11112795 -0.11055308 -0.08511086 0.013624394
0000b0 7e 27 80 ba 67 ea 5e bd 48 c5 d7 3d a1 c3 b4 bd
       -0.0009777395 -0.054422762 0.10535675 -0.08826376
0000c0 e1 05 a6 bd f0 da 2e bc 48 17 03 3d ac 90 95 bd
       -0.0810659 -0.010672316 0.032004625 -0.073029846
0000d0 dc 6f 72 bd 86 76 e0 bd 54 d2 63 bd 01 b9 d0 bc
       -0.05918871 -0.109601066 -0.055620506 -0.025478842
0000e0 6f f3 24 be c4 c2 98 3d a8 9c a7 3d f1 38 66 3d
       -0.16108488 0.074590236 0.08184177 0.056206647
0000f0 81 ba 8a 3c ff 25 46 bd 1e 58 cb bd 3d 00 32 bd
       0.016934635 -0.04837608 -0.099289164 -0.04345726
000100 6e f1 85 bd bd a2 84 bd b2 92 c7 3d 34 2a 06 be
       -0.0654019 -0.06476352 0.09744777 -0.13102037
000110 63 e1 17 bd 84 ad 08 be bd ce 4f 3d 70 7e a3 3c
       -0.03708018 -0.13347441 0.05073427 0.019957751
000120 19 b0 93 3d d9 fd 48 3d e3 95 9a bc 67 69 b3 bd
       0.07211322 0.049070213 -0.0188703 -0.08760338
000130 09 33 33 3d 85 9b 56 3d d6 53 0c 3e e7 e8 80 3c
       0.043749843 0.05239441 0.13703856 0.015736056
000140 13 4a a5 bd 67 98 79 3d d6 8d c5 bd c4 d7 cd bd
       -0.08070769 0.060936358 -0.09646194 -0.1005092
000150 2f 1e 25 3e 58 9b 1d bc 37 20 13 bb ba 77 e9 3c
       0.16124795 -0.009619556 -0.0022449621 0.028499473
000160 be 6b cd 3d c2 76 f5 bd 26 40 5e bd d3 50 b8 3d
       0.10030316 -0.11985542 -0.054260395 0.08999791
000170 f4 29 a3 3d 81 2a ab 3d a1 a6 91 3d 8a 86 17 3e
       0.07966986 0.08357716 0.0711186 0.14797416
000180 20 e5 17 3c 66 38 77 bd 3b 6d 47 3d ce 82 1b be
       0.009270936 -0.06035652 0.048688155 -0.15186617
000190 92 dc c2 3d 3d e4 87 3c 3f 9e c5 3b d9 93 d0 3d
       0.09514727 0.016588325 0.0060308273 0.1018445
0001a0 54 97 94 3d 0b 92 14 3c 77 10 be bd f2 d0 d4 3d
       0.07255426 0.0090680225 -0.09280484 0.10391416
0001b0 2e 0b a2 bd 4e 39 8b 3b 1c b5 d9 3d bc bb c2 3d
       -0.079122886 0.0042487746 0.10630247 0.09508464
0001c0 3c 14 93 3d 87 d2 a2 3d 65 3b 24 bd 6c c6 db bd
       0.07181594 0.07950311 -0.040095706 -0.10731205
0001d0 d3 6a eb bd 8b 68 89 bd 1a 55 b0 bd bc 7f 8c 3b
       -0.114949845 -0.06709393 -0.08609982 0.004287688
0001e0 39 ee 03 bc 21 00 9a 3d 0a 91 d9 3c 30 d1 40 bd
       -0.008052402 0.07519556 0.026558418 -0.047074497
0001f0 96 3e 3b bc e6 b7 b4 bd 8e ed 70 3d fe 63 31 3d
       -0.011428496 -0.08824138 0.0588203 0.04330825
000200 f8 92 62 bd 10 61 b0 3d 7b c0 07 bc 67 3d 28 3c
       -0.05531594 0.08612263 -0.008285637 0.010268546
000210 fb 8c 40 3d c2 fe ab bd ac 9b b6 3d 68 8a a8 bd
       0.04700945 -0.083982006 0.08916411 -0.08229524
000220 66 42 19 3d 47 2f 49 bd a1 80 a4 3d 39 41 56 bd
       0.037416838 -0.049117353 0.080323465 -0.052308295
000230 73 9d 50 3d ae c4 e1 3d c2 16 67 bd 2e c7 13 bd
       0.050931405 0.11023842 -0.056418188 -0.036078624
000240 bc 8d e5 bd 54 ff d8 3d 9b 1f d5 bd a0 bf e1 3d
       -0.11208674 0.10595575 -0.10406419 0.11022878
000250 b2 55 97 3d 8e 95 8f bb 96 69 8e 3d 72 65 f6 3c
       0.07389392 -0.004381842 0.06953733 0.03007767
000260 a8 c6 cd bd b4 25 36 3d 55 8d 50 3d db 84 23 3c
       -0.10047656 0.04446955 0.050916035 0.009980406
000270 eb a6 d3 bd 03 99 99 bb 69 07 4b 3d ed 5c 99 3d
       -0.103345715 -0.00468743 0.049567614 0.07488427
000280 e8 0a 94 3d ec 0d 3b 3c 97 71 75 bd 90 62 49 bd
       0.07228643 0.011416893 -0.05992278 -0.049166262
000290 9d 4b 02 be 1b da b9 3d 28 1b 78 3d 4b 7c 3c bd
       -0.12724157 0.090748034 0.060572773 -0.046016973
0002a0 8a 7b 5c 3b da 12 d0 3c c1 89 d6 bc c6 b3 da bd
       0.003364297 0.025399614 -0.026188733 -0.1067882
0002b0 bc 2d 9b 3d a4 23 dc bd f2 34 54 bd 94 bf 92 bd
       0.075770825 -0.107489854 -0.051808305 -0.07165447
0002c0 3c fc dd 3c fa c0 b4 3d 55 cf aa bd 57 d5 9c bd
       0.027097814 0.0882587 -0.08340327 -0.07657879
0002d0 72 df ba bd d0 b0 26 bc 33 82 1d 3d 24 8c 2b bd
       -0.0912465 -0.010173991 0.038454246 -0.041881695
0002e0 92 b1 34 3d d9 cf a2 bd f0 d3 a6 bd de d3 15 bd
       0.044114657 -0.079498 -0.081458926 -0.036579005
0002f0 7c 28 09 bd ac ca bd bd fd 8b a5 3d da 2c d8 bd
       -0.033485875 -0.09267172 0.08083341 -0.1055543
000300 3a c4 9b 3c fb 62 09 be 36 a3 fb 3d b1 d9 e5 bd
       0.019014467 -0.13416664 0.122869894 -0.11223162
000310 01 a6 84 3d f2 ef b6 bc a3 49 9f 3c c7 f1 09 3d
       0.06476975 -0.022331212 0.019444292 0.033677842
000320 1a a6 cc bc b8 ef c8 3d 11 a2 8d bd 30 2e 33 3c
       -0.024981547 0.09811348 -0.06915677 0.010936305
000330 ff 0f bb 3c cb 83 8d 3d 5d 1e c4 bd 55 3f a7 bd
       0.022834776 0.06909903 -0.09576104 -0.081663765
000340 ba a8 e2 bd 43 2a 95 bd 59 33 2f bd aa 1b b9 bd
       -0.11067338 -0.072834514 -0.04277358 -0.090384796
000350 ff e1 13 3c b6 ea c2 bd 53 9b a9 3d 55 8c e9 bd
       0.00902605 -0.09517424 0.08281579 -0.11403719
000360 f2 15 f6 3c 87 8c ea 3d 0a 59 7e 3d cf 9b 89 3d
       0.030039761 0.11452585 0.062096633 0.06719171
000370 9a 29 d3 3d 0d 5b 28 3d ff 73 d8 bd 5c 93 f7 3d
       0.10310669 0.041102458 -0.105689995 0.120886534
000380 b7 bc cd 3d 6c c3 83 3a 06 82 0e bd 26 db 6b bd
       0.1004576 0.0010052747 -0.03479197 -0.057582043
000390 68 c7 53 bd 8d 5b f0 3d 96 a6 7c 3c 8c 82 97 bd
       -0.05170384 0.11736212 0.015420577 -0.07397947
0003a0 79 9d a8 3d cc f4 48 3d 8d 84 92 bd f2 fa ad bd
       0.082331605 0.04906158 -0.07154188 -0.0849513
0003b0 cf d2 2d bd 31 0a 1a be 1e d6 ca 3d 0c 24 1b bd
       -0.04243737 -0.1504295 0.09904121 -0.037876174
0003c0 86 f7 cb bd 72 cf a5 bd 27 40 d5 3d 55 6c 43 bd
       -0.09959321 -0.08096208 0.10412627 -0.047710735
0003d0 53 15 8a 3c 84 84 e8 3d 45 fb fb 3d d9 09 97 3d
       0.016855871 0.113534 0.12303785 0.07374925
0003e0 fa 2b ce 3d 24 21 29 3c 38 38 f8 bc 58 8d c0 3c
       0.100669816 0.010322843 -0.030300245 0.023504898
0003f0 9b 18 41 3d 5a f4 d1 3b b0 32 a0 3d 6a 71 b2 bd
       0.047142606 0.006407303 0.07822168 -0.08713038

lstm.weight_hh_l1 f4 [256, 64]
000000 8a d6 a7 3d e2 a5 c4 bd 13 d4 3a bd 34 55 20 bd
       0.08195217 -0.09601952 -0.045612406 -0.039143756
000010 c8 2a 97 3d e1 3c 00 3e b1 70 e8 bd 89 34 85 bd
       0.07381207 0.12523223 -0.11349619 -0.06504161
000020 da 14 14 3d 07 c3 68 3d 37 ca c9 3d 62 46 b3 3d
       0.036152698 0.056826618 0.098530225 0.08753659
000030 4d e8 d4 3c c3 76 be bd d4 bf c7 3d e4 3d 0d bc
       0.025989676 -0.09299996 0.09753385 -0.008620713
000040 e1 92 cc 3d 01 e0 5a bd ca 66 0e 3e fc 24 fb bd
       0.099889524 -0.053436283 0.13906398 -0.122629136
000050 68 bd 14 bd 00 f0 20 3e 59 38 92 bd 4c ca aa 3d
       -0.036313444 0.15716553 -0.07139654 0.08339366
000060 d8 30 c3 3d 79 62 f3 bd 31 62 b3 3d f1 6d cd 3b
       0.095308006 -0.118840165 0.08758963 0.0062692096
000070 7a 42 ab 3b 3b 61 7e bd 8e 74 dc bd 90 b6 6a bb
       0.0052264305 -0.062104445 -0.107644185 -0.0035814382
000080 a0 2e f3 3d 7d 46 db bb 75 83 db bd e4 d1 ed bd
       0.118741274 -0.0066917525 -0.10718433 -0.11612299
000090 2e 53 69 bd e6 b9 f2 3c 33 a3 99 3c 36 2d b7 3d
       -0.056964092 0.029629659 0.018754577 0.0894417
0000a0 23 29 20 3e 62 43 ed 3d 77 df 08 3c d6 00 bc 3a
       0.15640692 0.11585118 0.008354059 0.0014343511
0000b0 99 16 54 bd 6e 22 cf bd 05 b3 c2 bd 13 16 a6 3d
       -0.051779363 -0.10113989 -0.095068015 0.08109679
0000c0 d5 cf 53 bd 94 03 bc bd 17 df 26 bc 9a 31 1d bc
       -0.051711876 -0.0918037 -0.010185025 -0.009594345
0000d0 4d fa 7b bc 44 d9 ca 3c 4f 56 31 bc 6d 36 da 3d
       -0.015379501 0.024761803 -0.0108238 0.10654912
0000e0 83 a2 80 bc ba 0f 8f 3d b8 e9 a5 3d c6 af 90 3a
       -0.015702492 0.069854215 0.08101219 0.0011038713
0000f0 66 99 f3 bd 30 32 4e 3d 1a 0b c2 bb 29 db b2 3d
       -0.11894493 0.05034083 -0.0059217336 0.08733208
000100 ae d6 d0 bd a9 59 bf bd 9d f1 50 3c b5 b8 80 3d
       -0.10197197 -0.09343273 0.012752918 0.0628523
000110 02 b0 f0 3d 78 a8 8c 3d 5f 24 5e bc 07 84 4a bd
       0.11752321 0.0686807 -0.013558476 -0.049442317
000120 fa 81 ee 3d dc 01 df bd ed 29 a8 bd 97 82 69 3c
       0.11645885 -0.108890265 -0.08211122 0.014252326
000130 5f 49 95 bd 5f 71 ae bd 1f 94 a3 bd 43 12 b5 bd
       -0.07289385 -0.085177176 -0.07987236 -0.08841374
000140 1f e1 53 3d a3 55 0b bb 0c 2b 8b bd 5f dc d7 3c
       0.051728364 -0.002126076 -0.0679532 0.026350198
000150 1c 07 6b bd 69 a4 a1 bd 47 f6 e8 3d 5b 78 44 3d
       -0.057379827 -0.07892687 0.11375099 0.047966342
000160 20 3e 11 3e b7 69 99 bd bd fd 95 bd fb b9 6e 3d
       0.14183855 -0.07490867 -0.07323787 0.058282834
000170 2d b3 89 bd 70 b2 58 bd f0 03 a1 bd 51 b8 84 3c
       -0.06723628 -0.052904546 -0.07862079 0.01620117
000180 e6 60 8d 3c c1 bc b9 3c 7c 60 a7 ba ad 52 84 3d
       0.017258119 0.022673013 -0.0012769843 0.06461082
000190 b5 c0 a0 bd 62 8d 84 bc ba bb 9a 3c 42 33 ae bd
       -0.07849256 -0.016180698 0.018888343 -0.085058704
0001a0 87 4e 22 3e 35 89 cc 3d 41 79 e1 bd 46 c8 5b 3c
       0.15850268 0.09987108 -0.110094555 0.013414448
0001b0 bf 2c 11 3d 7d 50 8e 3c c4 c0 91 ba e1 bf 82 3d
       0.035443064 0.017372364 -0.0011120071 0.06384254
0001c0 12 49 2f 3d 06 e8 7c 3c e3 a2 9a 3d bc 15 1c bd
       0.042794295 0.015436178 0.075505994 -0.038106665
0001d0 7e 1a e9 bd 56 f7 8f 3d db 65 84 3d 3a ab 0f be
       -0.11382006 0.070295975 0.0646474 -0.14030161
0001e0 0b 3a c5 bd ff cc a4 3d 73 c1 86 bc f6 0e 41 3c
       -0.096302114 0.080469124 -0.016449666 0.011783352
0001f0 40 16 c8 3d 85 8d 1d 3d 71 f0 17 3d 5a ea b3 3d
       0.09769869 0.03846504 0.037094537 0.087849334
000200 0b fd ca bd 08 f9 f8 bd a3 a7 e4 3d 70 48 ae 3d
       -0.09911545 -0.12156874 0.11164787 0.0850991
000210 a1 2a e0 3c 06 1c 23 3d d6 bd 86 3d ec 6c a8 3d
       0.027364077 0.039821647 0.06579177 0.082239
000220 ea 7c 19 3d af 60 91 3c d0 5d ce bd 6f 71 ce bd
       0.037472643 0.017746298 -0.10076487 -0.100802295
000230 6c 94 35 bd a4 68 ba 3d 4c 29 05 be f6 a8 b0 bd
       -0.044331 0.0910199 -0.13004035 -0.08625977
000240 58 d1 06 3e 24 85 38 bd 15 6f f3 bd f5 e6 8f bd
       0.13165796 -0.045048848 -0.118864216 -0.070264734
000250 c1 2d f1 3d a1 49 a6 3d d3 27 ac 3d d5 e3 f9 3c
       0.11776305 0.08119512 0.08406033 0.030504147
000260 b7 db 58 bd 21 1e cc 3c 83 22 44 bd 2d 7d ea 3b
       -0.05294391 0.02491671 -0.047884475 0.0071560354
000270 a3 ff c3 3d ae ce 03 3e 2b de 87 3d cd 1e d5 3b
       0.09570243 0.12871811 0.06634172 0.006503916
000280 d6 2a 67 3d f8 39 62 3d f1 b5 f0 3d 70 7e a2 bc
       0.056437336 0.055231065 0.117534526 -0.01983568
000290 77 cf fb bd c1 9b 4a bd d4 73 3a bc e7 88 32 bb
       -0.1229543 -0.049464945 -0.011380155 -0.0027242245
0002a0 06 e0 ef bc d1 3d a7 bd 3e 52 4b 3d 03 3d ac bd
       -0.029281627 -0.081660874 0.04963898 -0.084100746
0002b0 7f 55 c6 3c a1 58 cf bd 32 a3 2f 3c a2 cc e7 3d
       0.02421069 -0.101243265 0.010720061 0.113183275
0002c0 da 88 8a bd 9a 0e ac 3d f9 6d e5 3d b9 e2 84 bd
       -0.067643836 0.084012225 0.11202616 -0.064885564
0002d0 bb 93 c5 bd 9e 0e a7 bd be a6 3b 3d 74 c0 4b bd
       -0.09647318 -0.08157085 0.045813315 -0.049744084
0002e0 f2 b5 3c 3a c1 73 c4 bc 86 86 98 bc 13 43 04 bd
       0.0007198743 -0.023980977 -0.018618833 -0.03229053
0002f0 08 7f dc bd 85 0a b6 3d f4 42 66 bd 90 bd b0 3d
       -0.10766417 0.08888725 -0.056216195 0.08629906
000300 e8 fd d8 bd 0a f2 c0 3d cb ef c4 bb be d5 d4 3d
       -0.10595304 0.09421165 -0.006010031 0.103923306
000310 56 0f e4 bd 82 f8 00 3e cb 08 bc bd a6 1d 3f bd
       -0.111357376 0.12594798 -0.091813646 -0.046659134
000320 72 7d d5 bd cf 88 fe 3d a7 a8 91 3d 41 a7 2c bc
       -0.104243174 0.12428438 0.07112246 -0.010537923
000330 fd e4 79 3c 5e 9b a9 bd 29 70 be bd 65 7f 7d 3c
       0.015252349 -0.08281587 -0.092987366 0.015472268
000340 41 01 6f bb ba 0f 0c bc 38 aa af 3d e9 69 a5 3c
       -0.0036469253 -0.008548671 0.085773885 0.020192103
000350 a2 63 03 bd e3 05 01 bd 25 46 19 3c 40 d8 b5 3d
       -0.03207744 -0.031499755 0.009355103 0.08879137
000360 7d d8 83 3d af 6e ca 3d ba e2 0f bb 7f 36 d3 bd
       0.06437776 0.098843925 -0.0021955208 -0.10313129
000370 da e1 1c bc 62 ac 43 bc c5 bd db 3c 7a 9d e3 3d
       -0.009575332 -0.011942955 0.026823888 0.11114021
000380 a9 cc fb bc a6 b8 7f 3d fc 78 c9 3c 81 ba d9 bd
       -0.030737238 0.062431954 0.024593823 -0.10631276
000390 a5 6a ca bd 32 12 9b 3d 9b 2e d5 bd c4 ef a9 3d
       -0.09883622 0.0757183 -0.1040928 0.08297685
0003a0 f4 64 dc bd 23 6e 0d bd b2 a8 7a 3b 51 a7 61 3d
       -0.10761443 -0.034528863 0.0038247523 0.055091206
0003b0 39 3e d1 3d 96 ef 62 3d 25 c1 f6 ba ad 27 42 3d
       0.10216946 0.05540427 -0.0018825872 0.04740112
0003c0 44 9e ab bd f4 54 b4 3b 5a 26 80 3a 60 0e 95 bc
       -0.08379796 0.0055032913 0.0009777055 -0.018195331
0003d0 aa ba 02 be a0 8c a9 bd 6c b2 d2 bd 72 77 92 bd
       -0.12766519 -0.08278775 -0.102879375 -0.07151689
0003e0 6f c8 ee 3c 4e 81 04 bc 06 86 e2 bd 2b 74 4b bc
       0.029148309 -0.008087469 -0.11060719 -0.012417833
0003f0 59 e6 e3 3d f2 53 b1 3d 8b e3 23 bd 66 57 41 bc
       0.1112792 0.086585894 -0.040011924 -0.011800623

lstm.bias_ih_l1 f4 [256]
000000 a0 a6 a9 bb 04 8b 04 3e 1e a4 73 3d c3 8b b6 bd
       -0.005177334 0.12943655 0.059482686 -0.08913376
000010 f0 00 39 bd 5b 98 35 3d 41 3e 07 3e 7f 1e 1a 3d
       -0.04516691 0.04433475 0.13207342 0.03762674
000020 ab a1 d8 3d 0d 08 18 3c d8 f4 d9 bd 30 96 44 bd
       0.10577711 0.009279263 -0.10642403 -0.047994792
000030 fc 7b c0 3d f7 20 c5 bd 75 f6 75 3d 69 42 bc 3c
       0.09398648 -0.09625428 0.060049493 0.022980886
000040 4d cd 36 bd d4 08 24 3d 44 f7 93 3d bd e0 78 bd
       -0.044629384 0.04004748 0.072248966 -0.060761202
000050 fa 32 8b bd b2 92 c3 3d 25 d0 05 3d 6b ba ff 3a
       -0.067968324 0.09549464 0.032669205 0.0019510513
000060 f9 86 8e bd b5 0c a5 3d 5f 20 24 bb 6d f9 57 3d
       -0.06959338 0.08059064 -0.0025043709 0.052728105
000070 94 75 f1 3d d4 1c f8 bc e0 9f b4 3b 18 c8 d8 bb
       0.117900044 -0.030287184 0.0055122226 -0.00661565
000080 7c a0 fb 3d cf 5b 2d bc 72 ed 10 3d 83 96 3d bd
       0.12286469 -0.010580971 0.035382695 -0.046286117
000090 c2 43 00 ba 05 2d 27 bd 18 00 e0 bb ce d7 e7 bd
       -0.0004892909 -0.04081442 -0.0068359487 -0.11320458
0000a0 c6 1f 8b bd ca 9a c6 bd 90 56 7b 3d d2 0e 2a bd
       -0.0679317 -0.096974924 0.06136185 -0.04151804
0000b0 2b e2 c2 bd 0e f6 99 3d 1c 7f 00 3e d0 2e e9 bd
       -0.09515794 0.07517634 0.12548488 -0.11385882
0000c0 c0 7a 9a bd 75 34 98 bd de e6 87 3d 2c ce 66 3d
       -0.07542944 -0.074318804 0.06635831 0.056348965
0000d0 da 80 b9 3c cc 54 21 3c 00 63 e7 3c 46 a0 b3 3c
       0.022644449 0.009846877 0.028245449 0.02192701
0000e0 33 fc 6f bc 1f 7c 25 bc 61 c2 f3 bc 42 51 94 bc
       -0.014647531 -0.010100394 -0.029755773 -0.018105153
0000f0 ad 5e 58 bd 04 6b 16 bd 1e eb 88 3d fb ce fb 3b
       -0.052824665 -0.03672315 0.0668547 0.007684586
000100 58 65 77 3d c9 92 8e 3d 7b 45 9c bd 15 d9 84 3d
       0.060399383 0.06961591 -0.0763044 0.064867176
000110 dd 52 f1 3c 3a 75 9a bc b7 11 1b 3d ef ac f3 bb
       0.029458458 -0.018854726 0.03785869 -0.007436387
000120 37 7c 28 3d a3 29 8b 3d 77 64 f4 3d cd f1 c2 3d
       0.041134086 0.06795051 0.11933225 0.09518776
000130 e6 63 5f 3d 33 d6 f2 bd 99 13 b2 bd ab 1d 0a bd
       0.05453863 -0.118572615 -0.08695144 -0.0337197
000140 83 5f 9a bd 5e c2 81 3b e2 43 0f 3d 46 61 dc 3d
       -0.07537749 0.003959938 0.034976847 0.10760741
000150 e5 6c e3 3d 6b e5 70 3d 92 c1 00 be 92 ce 03 3d
       0.11104754 0.05881254 -0.12573841 0.032179423
000160 da 56 68 3d 82 43 e4 3c 3b b2 8d 3d 95 b7 d6 bd
       0.056723453 0.027864221 0.069187604 -0.10484234
000170 16 49 5b 3c 3d 1d dd 3d a7 bf e8 3d 78 f3 09 3e
       0.013384124 0.107965924 0.1136468 0.13471782
000180 1f ab 09 3d 57 e4 e2 3d 70 39 da bd 7a f4 14 3d
       0.03361046 0.110787086 -0.106554866 0.036365964
000190 e8 02 bc bd 08 90 bb 3c 07 df b1 3d 3d c6 cd bc
       -0.09180242 0.022895828 0.08685117 -0.025118941
0001a0 0a 4d 1e 3b dd 54 75 bd 89 e8 cf bd 27 f3 dc bd
       0.0024154806 -0.059895385 -0.101517744 -0.10788565
0001b0 1a 1e 98 3d 28 3a 8e bd 1b 89 87 bd a1 27 af 3d
       0.074276164 -0.06944686 -0.06617948 0.085524805
0001c0 28 09 ca 3d b8 dd d2 3d cd ae 31 bd 7d 90 6e 3d
       0.09865028 0.10296196 -0.043379594 0.058243264
0001d0 85 4c 60 3d 0a fe d3 3d 81 26 9a 3d 12 e0 ae bd
       0.054760475 0.103511885 0.07526875 -0.08538832
0001e0 a1 83 6d 3c bc 98 b0 3c 4b d2 bf 3d d8 e4 f1 3d
       0.014496715 0.021557204 0.09366282 0.118112266
0001f0 5b 40 07 bb fc fb a5 bd ee 16 9c 3d cc 05 84 bd
       -0.0020637724 -0.08104703 0.07621561 -0.06446418
000200 c0 7e 1f bd 38 7d 0c 3d ff bf 96 bc a0 08 b6 3d
       -0.038939238 0.034299105 -0.018402098 0.08888364
000210 ab 11 c7 3c 8d c6 b4 3d ae f5 fd bb c0 53 7d bd
       0.024300417 0.08826933 -0.0077502346 -0.06184745
000220 9b 71 81 bc 6e 90 11 bd ad 0f ed 3c 21 be 20 3d
       -0.015801242 -0.03553813 0.028938139 0.03924382
000230 6b c7 ad bd 8f 61 99 bc ee 44 80 3d 26 97 83 bd
       -0.084853016 -0.018723277 0.06263147 -0.06425314
000240 87 48 41 3d 8a 95 a0 bd 79 91 ca 3c cc 67 a2 bd
       0.047188308 -0.07841022 0.02472757 -0.07929954
000250 1f f9 b1 bd ab 00 0d bd e7 5e c7 3d a6 d7 f5 bd
       -0.08690094 -0.034424465 0.09734898 -0.12004022
000260 45 77 f7 bd d8 fe 75 bd eb e3 9d bd ae 7c 34 3d
       -0.12083296 -0.06005749 -0.077094875 0.044064216
000270 b8 f9 e8 3d 47 4f cf bd 36 1c 81 bd 5a 7b 8c 3d
       0.11375755 -0.10122543 -0.06304209 0.06859465
000280 28 8d 89 3c 51 b3 33 3c 6a 02 87 3d 3c a5 ae bd
       0.016790941 0.010968045 0.06592257 -0.0852761
000290 dd 67 b5 3d 90 63 cb 3d d3 ac 9c 3d 78 a0 07 3e
       0.08857701 0.099310994 0.07650151 0.13244808
0002a0 e9 80 2f bd 29 3a 56 bd 9a 59 4c bd 8f 92 f9 bd
       -0.042847548 -0.05230156 -0.04989014 -0.12186157
0002b0 4d 0d 1a bd 97 47 9d bb 39 4b 75 3d c5 0b 9c bc
       -0.03761034 -0.004799794 0.05988619 -0.01904858
0002c0 d6 b8 0d be 51 c8 e0 bd 1a d7 2c bc 62 19 ad bd
       -0.1384004 -0.10975707 -0.010549331 -0.08452107
0002d0 d8 b7 cb bd a3 2e d0 bd 93 50 f5 bd 1b d7 7d bd
       -0.09947175 -0.10165145 -0.11978259 -0.06197272
0002e0 14 cc 9b 3d 9a e0 f4 bd bd 7f 76 3d b3 89 cd 3d
       0.07607284 -0.11956902 0.060180414 0.1003603
0002f0 98 b0 56 3d 22 85 d6 3c 06 22 83 bd d1 11 cf 3d
       0.052414507 0.02618653 -0.06402974 0.1011082
000300 7c e6 fe 3c 97 09 be bc a3 8d f3 bc 79 03 cb 3d
       0.031115763 -0.023197932 -0.029730624 0.09912772
000310 f3 7b a7 3d e8 df 8e bd bd 1d f4 bc 85 22 97 b9
       0.08177938 -0.069763005 -0.029799337 -0.00028826683
000320 d9 08 1a 3c 2a 42 0b 3d a1 ef e6 3d 61 5f 0e 3e
       0.0094015235 0.033998646 0.11276174 0.13903572
000330 a0 92 12 3e 5f 73 80 3c e8 9d ce bd 62 64 15 3d
       0.14313745 0.015680013 -0.10088712 0.036472686
000340 fa b1 f8 3d be f1 da 3d d6 db ad 3d b2 f4 45 3d
       0.12143321 0.1069064 0.08489196 0.048329063
000350 21 af 24 bd 35 b2 f1 bb b2 a7 86 bd f9 c4 28 3d
       -0.04020608 -0.0073759803 -0.06574954 0.041203473
000360 06 62 72 3c 08 55 8f bd a8 f6 3c 3c de 6c b0 3c
       0.014793878 -0.0699864 0.011533417 0.021536287
000370 c4 1b 7f 3d 8e 9d e7 3c a2 d8 71 ba 49 28 33 bd
       0.06228234 0.02827337 -0.0009225701 -0.04373959
000380 66 57 c5 bd c9 a0 08 3d 5c bf 2c 3d dd cb c8 3d
       -0.096358106 0.03335646 0.042174682 0.09804509
000390 d0 44 ee bd 4d 5e 82 3d 21 1a 65 3d 32 dd 73 3d
       -0.11634219 0.06365643 0.05593312 0.05953712
0003a0 48 0c b0 bd dd 75 80 3d 2f 49 44 bd 70 5a f2 3d
       -0.085960925 0.06272481 -0.047921356 0.11833656
0003b0 bd 83 01 bc 7b 78 a5 3d 6e 77 16 bd f3 ae 0f be
       -0.007904944 0.080796205 -0.03673499 -0.14031582
0003c0 aa 4e 02 3e 61 69 c2 bd 53 51 e0 bd 69 30 f5 3d
       0.1272532 -0.09492756 -0.10953011 0.11972124
0003d0 c3 2b 90 bc ac a0 dd 3d 79 8f c7 3d a0 11 4d bb
       -0.017598992 0.10821661 0.09744162 -0.0031291023
0003e0 ca 45 5f 3d 0d ea a3 3d 2d 6b ec 3d a7 da a3 bc
       0.054509915 0.08003626 0.1154388 -0.020001722
0003f0 22 5f b9 bd 1c 02 73 3d f6 46 04 be 5e 2a 2f bd
       -0.09051348 0.059328184 -0.12917694 -0.042765014
