src/deep_learning/artifacts/lstm_model_NVDA.pt (torch, 217167 bytes, 12 tensors)

lstm.weight_ih_l0 f4 [256, 2]
000000 02 45 1f 39 14 ec 05 be d3 49 20 3e 0d 89 e0 3d
       0.00015189129 -0.13078338 0.15653162 0.1096364
000010 7b 76 7f bd ae e5 57 bd 22 2f 1d 3e 82 2f c0 3d
       -0.06236885 -0.052709274 0.15350011 0.093840614
000020 95 c1 5c 3b e8 02 06 bb ad 4c 90 bd 7d e3 86 3c
       0.003368472 -0.002044851 -0.07045875 0.016465897
000030 24 d4 40 bd 5f a0 07 be 96 59 81 3c a0 e5 2a 3c
       -0.047077313 -0.1324477 0.015789788 0.010430723
000040 a9 92 a1 bd 74 a6 50 bc df e9 84 bc 1a ea 25 bd
       -0.07889301 -0.012734998 -0.0162248 -0.04050646
000050 bf dd 80 bd ad f7 a6 bd e3 63 f5 3c 3a ee 3b 3c
       -0.06292295 -0.08152709 0.029954856 0.011470372
000060 41 74 da 3c b6 1c 37 bd 4a 2c 63 bd 61 4d 0d be
       0.026666762 -0.044705115 -0.05546216 -0.13799049
000070 05 45 0e 3e cc 3b 1e 3b 1f 07 8d 3d 6f 03 83 3d
       0.13893516 0.0024144528 0.06886124 0.06397139
000080 40 17 84 3d e1 df 11 be 46 73 12 bd 3a 01 00 be
       0.06449747 -0.1424556 -0.035754465 -0.12500468
000090 54 df 46 bc 34 bf 0e be 76 87 d9 3d fb f5 5f bc
       -0.0121382065 -0.13940126 0.1062154 -0.013669486
0000a0 7a 73 92 bd 4c 64 21 bd 85 a0 bf 39 a9 f7 ac bd
       -0.07150932 -0.03940229 0.00036549955 -0.08445675
0000b0 8b 1b ba bc b7 5b e7 3d 23 6c 87 3d 8c 84 6a 3d
       -0.022718212 0.1129679 0.06612422 0.057255313
0000c0 1d 2d 62 bd 85 60 2f 3e 4f fd 6d bd fc e6 2d 38
       -0.055218805 0.17126663 -0.058102902 4.1461535e-05
0000d0 2c 5d 11 3a 8f aa 89 bd df 6d 23 3e 4c 76 d7 bc
       0.0005545195 -0.067219846 0.15959881 -0.026301526
0000e0 90 94 29 3e ba fd b6 3d e6 8a 18 3e 59 4d 45 3d
       0.16560578 0.08935113 0.14896736 0.048169468
0000f0 10 4c 78 bd b0 ae c8 bd d9 00 04 3e 9c 29 ef 3c
       -0.060619414 -0.09798944 0.12890948 0.029194646
000100 1e b1 22 3c 98 07 42 3d 82 db 11 3e de f8 cf bc
       0.009929923 0.047370523 0.14243892 -0.025387224
000110 77 5d 46 bd af 22 07 3d 9a 68 43 bd b3 4f 0c be
       -0.04842898 0.03299206 -0.047707178 -0.13702278
000120 db 0e ab 3d c8 ae 0b be ac ce 18 bd 3e 12 d2 bd
       0.08352443 -0.13640893 -0.037306473 -0.10257386
000130 73 f5 10 3e 1c 85 60 bd b6 3b 8b 3c 9f 94 c2 bc
       0.14156131 -0.054814443 0.016996246 -0.023752509
000140 a2 4f f1 3d 97 f7 b8 bd 0d e8 14 3e fd 66 ad 3c
       0.11782767 -0.09031599 0.14541645 0.021167273
000150 30 e9 f4 3d c1 b4 32 bd bb 92 2e 3d 1e a2 5a bd
       0.119585395 -0.04362941 0.0426204 -0.053377263
000160 1e 97 1f 3e a0 e9 ca bd 36 63 81 3d bf d8 2f bd
       0.1558499 -0.09907842 0.06317751 -0.042931315
000170 a0 8e e4 3d ba 8a 16 3d 0f a7 ac 3d aa 64 9b 3d
       0.11160016 0.036753394 0.084303014 0.075875595
000180 30 e8 12 3e a6 4c 0e 3d f5 87 b5 3d 87 cf 0c 3c
       0.14346385 0.034741066 0.08863822 0.0085944
000190 da e6 05 3e 91 a0 c9 bd 56 b8 a0 bc 46 54 6b 3c
       0.13076344 -0.09845079 -0.019619148 0.014363354
0001a0 07 38 bb bd 2d 9d 6a 3b ed d7 cf 3d 1a 17 cb ba
       -0.09141546 0.003579925 0.101486064 -0.0015494556
0001b0 37 b0 f1 3d 25 07 e1 bd 95 a6 fd bc 40 14 07 3e
       0.118011884 -0.10987691 -0.030963222 0.13191319
0001c0 a6 f5 e1 bd 66 78 21 3e f1 70 34 3d e4 5f a5 bd
       -0.11033182 0.15768585 0.04405302 -0.0807493
0001d0 dd 06 a1 bd e6 86 6c bd 52 48 24 3d aa df 14 3d
       -0.07862637 -0.057745837 0.040108033 0.036346115
0001e0 08 1f 20 3b 04 00 15 3d 97 a9 21 bc 32 53 9b bc
       0.0024432559 0.036376968 -0.0098670935 -0.018960569
0001f0 bd c7 0c 3e 76 67 6e 3d 62 70 05 3e d4 c1 64 bc
       0.13748069 0.058204137 0.13031152 -0.013962228
000200 68 c7 49 bd c3 70 fe 3c d4 a1 8e bd 2f 32 a6 bd
       -0.049262434 0.031059628 -0.0696446 -0.081150405
000210 92 3a 8c 3d 40 1f a3 bd be fa 3a 3d d4 70 c3 3d
       0.06847109 -0.07964945 0.045649283 0.09543005
000220 72 3c 04 3d a3 c8 63 3d 64 a1 7d 3d c2 d8 be bd
       0.032284208 0.055611264 0.061921492 -0.09318687
000230 f0 67 2d bd 55 58 13 be 44 f4 07 bc 95 db 93 bd
       -0.04233545 -0.14389165 -0.008297984 -0.07219616
000240 48 cb 09 be ff aa 86 3d a9 b3 b7 bd 20 75 ad 3c
       -0.13456452 0.06575584 -0.08969814 0.021174014
000250 d3 7d 4a 3d 8a 55 06 bd 21 69 d6 bc a5 d6 5f bd
       0.0494364 -0.03279642 -0.026173176 -0.05464806
000260 6a 4c 3b 3e 47 df d6 3d 44 0e 41 3e 20 33 8f 3d
       0.18290868 0.104918055 0.18853098 0.06992173
000270 3d 83 cc 3d 3b 9f f2 bd 84 f9 1a 3e a9 f8 6b bd
       0.09985969 -0.11846777 0.15134245 -0.057610188
000280 28 53 af 3d a2 97 4b 3b 4f cd 01 bd 87 a4 ae 3d
       0.08560783 0.0031065722 -0.03168994 0.08527475
000290 b0 85 29 3e 53 2e 7e bd 5c 93 c0 3d 8e fb 3b bb
       0.16554904 -0.062055897 0.094031066 -0.0028683874
0002a0 62 25 86 3d 44 54 69 3c 06 0b 14 3e 94 80 c1 3d
       0.06550099 0.014241282 0.1445733 0.094483525
0002b0 68 51 77 bc 1d 8f c3 3d 76 ed 75 bd 96 45 a7 bd
       -0.015095092 0.09548781 -0.060040914 -0.08167569
0002c0 08 44 a7 bd 91 e4 af 3d 7e d1 03 3e dc e7 a4 3c
       -0.08167273 0.085885175 0.12872884 0.02013009
0002d0 cc 0b 50 bd 5c 94 9c 3d 6d a4 f6 3b 36 aa ec bd
       -0.0507925 0.07645485 0.0075269253 -0.11555903
0002e0 87 bf d6 bc 36 aa a3 3b 6e c7 e2 3c bf bc a0 3d
       -0.026214374 0.004994656 0.027682986 0.078485005
0002f0 05 9f a4 3d 34 7f 14 be 76 c3 43 bd 33 85 e6 bc
       0.08038143 -0.14501649 -0.047793828 -0.028139686
000300 eb d0 9f 3d 37 a4 be 3d aa 7b a2 bc ee 49 d2 bb
       0.0780352 0.09308665 -0.019834358 -0.0064175045
000310 88 7c 62 3d 85 e5 c8 3d 83 e6 be 3d d8 bd ad 3d
       0.055294544 0.098094024 0.0932131 0.084834754
000320 99 7f b2 bd 4d ff 87 3c 79 ee 2c 3e dd 47 ae bd
       -0.087157436 0.01660123 0.16887845 -0.085098006
000330 71 23 00 3e 82 20 c4 bd 2e 57 a3 3c 3a 95 94 3d
       0.1251352 -0.09576513 0.019939031 0.07255025
000340 6f f5 e1 3d f1 33 09 be 7f c1 3b 3d 11 bb d9 3c
       0.11033141 -0.1339872 0.04583883 0.026578458
000350 cb d8 96 3c bc 85 7a 3c f4 89 e0 3d 7f 83 a7 3d
       0.018413922 0.015290674 0.109638125 0.08179378
000360 a7 ca 2f 3d 09 1a 07 3e 08 34 d3 3d eb 97 3b 3d
       0.042917874 0.13193525 0.103126585 0.045799177
000370 a2 b3 b3 bc 5d 12 ab bd 68 5d 0f 3e 56 37 e5 3b
       -0.021936242 -0.08353112 0.14000475 0.006995122
000380 33 0e 72 3d d3 bf 24 3d c8 b5 88 bd 18 4b b2 3d
       0.059095573 0.040222 -0.06675297 0.08705729
000390 21 b8 3e 3e d2 bc c4 3d 76 12 9e 3b a9 61 8a 3b
       0.18624927 0.09606327 0.004823978 0.004223068
0003a0 4c 27 15 3e 18 62 91 bd ff 77 58 3c bf 6d b0 3d
       0.14565772 -0.07098788 0.013212203 0.086146824
0003b0 8b de 33 3e ef ee c0 3d 6a e4 0b bd 0c ff e1 bc
       0.17565362 0.09420573 -0.03415338 -0.027587436
0003c0 0d e3 e9 bd 5d fc b3 3d 03 71 8f bd 5b 50 ec bd
       -0.114202596 0.08788369 -0.07003977 -0.11538764
0003d0 90 d0 af 3c 51 d3 5e bb e9 39 47 bd e3 cc 24 3b
       0.021461755 -0.0034000466 -0.04863921 0.0025146536
0003e0 4d 00 94 bd e3 98 b6 3d 34 e3 bd 3d cb 79 72 3b
       -0.0722662 0.089158796 0.09271851 0.0036998864
0003f0 a7 2a 71 3c b4 76 6f bd 8b 30 5c bb 3a 43 ec bc
       0.014719642 -0.058462813 -0.003359827 -0.02884065

lstm.weight_hh_l0 f4 [256, 64]
000000 da 38 de bd d6 6e be 3d 4d d9 d5 bd 9f af 91 bd
       -0.10850687 0.09298484 -0.104418375 -0.07113575
000010 a5 87 e7 3d 2f d1 ea 3d f2 ca ae bd b9 a7 00 3d
       0.11305169 0.1146568 -0.085348025 0.031409953
000020 81 1f 2e 3d e6 61 b1 bc f1 8c 66 bd ad 59 b4 bd
       0.042510513 -0.021653127 -0.056286756 -0.08806167
000030 5e 8e 08 bd 45 17 8e bd 9b 48 bf bc 56 24 19 bd
       -0.033338897 -0.06938032 -0.02335005 -0.03738817
000040 c0 d3 fe bd 52 f1 7c bd a0 4a 94 bd 6f a2 96 bc
       -0.12442732 -0.06175358 -0.07240796 -0.018388001
000050 f4 ef d0 3c b9 6c b9 3d 74 47 9b bd 9f 1a 0b bc
       0.025505044 0.0905394 -0.07581988 -0.008490234
000060 80 6e 66 3d 92 c9 f9 3d e2 f5 e4 bd 40 2b 60 3d
       0.056257725 0.121966496 -0.11179711 0.054728746
000070 33 24 d8 bd 2e 5d b7 3c 01 1f 9c 3c 94 71 b6 bd
       -0.105537795 0.022383299 0.019057753 -0.08908382
000080 73 95 bb 3d c0 0e 91 bc 4f 6e 03 3e eb ca fa 3d
       0.091593646 -0.017707229 0.12835048 0.12245735
000090 59 7f 9f 3d 9f 57 be 3d e9 10 49 bd c8 0f d0 bc
       0.077879615 0.09294056 -0.049088392 -0.02539815
0000a0 9b c8 cc bd 84 de 6e 3c d8 38 99 bc b7 e1 4e 3d
       -0.099992 0.014579419 -0.018703863 0.050508227
0000b0 ba 0c 49 bb 17 20 77 bc 5a bd 81 3d 31 f0 d6 bc
       -0.0030677752 -0.015083334 0.06334944 -0.026237579
0000c0 dd 4d 02 3e b1 eb 10 bd ff be 67 bd 4e a8 8d 3d
       0.12725015 -0.035381023 -0.056578632 0.06916867
0000d0 84 22 85 bd 09 36 9e 3d 79 b2 c3 3c fb e5 04 3e
       -0.06500724 0.0772515 0.023888813 0.12978356
0000e0 d7 40 a6 bd bd 59 12 bd 75 fc f4 ba 36 05 df 3d
       -0.08117836 -0.035730112 -0.0018690961 0.10889666
0000f0 51 4f 2f bc 91 06 fe 3d a4 40 be 3d e0 ad af 3d
       -0.010700063 0.12403596 0.09289673 0.08578086
000100 63 a9 18 3d a3 01 ae 3d bf 2a 17 bd 1c b4 ac 3d
       0.037270915 0.08496406 -0.036906 0.08432791
000110 46 e9 40 3c 34 c1 dd bc 7d a5 56 3c a9 d5 12 3d
       0.011774367 -0.027069665 0.013100979 0.035848293
000120 04 c1 94 bd 71 a3 44 3c d7 37 f3 3d 71 ab bd 3b
       -0.07263377 0.012001858 0.11875885 0.0057882597
000130 ea bd 9b bd 1c 53 91 3d 39 71 b9 bb 81 6d be bd
       -0.076045826 0.0709593 -0.005659249 -0.0929823
000140 64 cc ab bd d9 8e f6 3d 53 b8 91 3d 30 6d dc bd
       -0.08388594 0.12038965 0.07115235 -0.10763013
000150 1c a9 d4 3d b6 dd 62 bd 74 cd 77 bd e1 1e b6 bc
       0.103838176 -0.05538722 -0.06049867 -0.022231521
000160 e1 91 90 bd 6c d7 a4 3d 49 b7 58 bd 90 f6 f6 3d
       -0.07059074 0.08048901 -0.05290917 0.12058747
000170 1e 9c db 3d 00 61 d6 bd d6 7e de bd 02 56 76 bd
       0.10723136 -0.1046772 -0.10864036 -0.060140617
000180 47 b3 f2 bd c3 0f f8 bd f9 00 67 3b f4 9d 73 bd
       -0.11850601 -0.12112381 0.0035248382 -0.059476808
000190 05 29 6c 3d 8d bd 14 bd 6e 05 16 3d 3e 21 ad 3d
       0.057656307 -0.036313582 0.036626272 0.08453606
0001a0 d0 15 ac bd 3a 42 e3 bd 8e a6 f8 3d 99 2a 44 3d
       -0.08402598 -0.11096616 0.12141143 0.047892187
0001b0 06 d3 86 bd 7a 29 75 3d 28 00 d7 3d d5 32 32 bd
       -0.06583218 0.05985401 0.10498077 -0.04350551
0001c0 10 e1 7e 3c b3 1c 87 bc 3c 72 d6 bd 3b 45 73 bd
       0.015556589 -0.016493177 -0.10471007 -0.059392195
0001d0 a8 4a aa bd d8 62 bc bc 95 28 c6 bd ca e5 63 bd
       -0.08315021 -0.022996351 -0.09675709 -0.055639066
0001e0 d2 be 23 bd 35 a1 94 bd 52 0a cf bd e6 44 37 bd
       -0.039976902 -0.0725731 -0.1010939 -0.04474344
0001f0 9d 0e e5 bd 8f 23 ea 3d a1 be 31 bd 6d 16 c2 bd
       -0.11184428 0.114325635 -0.04339469 -0.09476934
000200 b3 d7 9c bc 16 98 f1 ba 60 6b 7d 3d f0 aa 94 bd
       -0.019145822 -0.0018432166 0.06186998 -0.07259166
000210 6d d7 c6 3d 58 66 42 3d 0e 81 eb 3d ec 5b b1 3d
       0.09709058 0.047460884 0.114992246 0.08660111
000220 fc 62 e4 bc 15 a4 82 bb 97 5b c6 3a 90 26 02 3e
       -0.02787923 -0.0039868453 0.0015133497 0.12710023
000230 c9 8a cc bd 9e 42 25 bd 9b 3c e6 bd 96 28 6c 3d
       -0.09987409 -0.040346734 -0.11242028 0.057655893
000240 41 4a de 3c 54 4a 9f bd 27 f5 d0 bd 6b b9 a9 bd
       0.027135016 -0.07777849 -0.10203009 -0.08287319
000250 c4 2e 39 bd e1 cd 30 3c 0b e4 43 bd 7e bb a7 bd
       -0.045210615 0.010791273 -0.0478249 -0.08190058
000260 07 ff 75 bd 9e ce 57 3b 05 c2 0e bd 3d cb ce 3d
       -0.060057666 0.003292955 -0.034853 0.100973584
000270 b1 58 ae 3c 66 b7 e6 3d 08 de bf 3d f1 b1 fd 3d
       0.021282526 0.11265449 0.09368521 0.12387455
000280 2f d4 a5 3d 4c d9 90 3d f4 92 57 bd 7d 7d 08 3b
       0.080971114 0.07072696 -0.05263038 0.002082675
000290 93 c2 31 bd eb 92 be bd 35 1f 22 3d ba c8 43 3d
       -0.04339845 -0.09305366 0.039580543 0.04779885
0002a0 cf 8d a8 bc 39 0c 8c bb 51 6e 1c 3d 83 d6 00 3c
       -0.020575432 -0.004273918 0.038191143 0.007863644
0002b0 81 d2 7c bd 60 95 f4 3c e3 f3 31 bd 24 db 23 be
       -0.06172419 0.029856384 -0.04344548 -0.16001564
0002c0 ac d5 f9 3d 82 1a 2a 3d e7 f7 c1 3d af 45 88 3d
       0.12198958 0.041529186 0.09471112 0.06653916
0002d0 7c 74 c8 bd d7 55 ab 3d ad eb 89 3c 4a bb 42 3d
       -0.09787843 0.08365982 0.016836012 0.047541894
0002e0 4a 15 b9 3b db 62 6a 3c 9e 16 ad bd 23 37 ea ba
       0.00564829 0.014305796 -0.084515795 -0.0017869215
0002f0 e9 c1 ac 3d 9e 45 5e bc d1 09 f5 3d d6 f3 80 3c
       0.08435423 -0.013566403 0.11964763 0.01574127
000300 b2 cb 94 3a 53 1a 28 3d 30 4b d7 3d 01 e7 dd bc
       0.001135221 0.04104073 0.10512388 -0.02708769
000310 4f e9 bb 3d 52 e6 8b bd 09 5d 2f bd fc c1 06 3e
       0.091753595 -0.068310395 -0.042813335 0.13159937
000320 29 04 84 3d db b4 9b bb b1 a2 fe bb 48 2c 3d bd
       0.06446106 -0.0047517843 -0.007770859 -0.046184808
000330 f4 44 95 3b f7 e9 b0 3b c8 4e 8a bd 7d c9 ba bd
       0.004555339 0.0053989845 -0.067533076 -0.09120462
000340 78 b4 25 bd 89 49 94 3d 80 31 38 3d fb 74 cb bc
       -0.04045531 0.07240588 0.044969082 -0.024836054
000350 50 4b b5 bd cf 1a 10 bd 21 ca 6a bb 24 fb 8a bd
       -0.08852255 -0.035181817 -0.0035826045 -0.067861825
000360 e5 39 a2 bd 87 f2 a6 3d 41 1a 42 3d f0 02 2e 3b
       -0.07921199 0.08151727 0.04738832 0.0026552044
000370 c9 cc 0c be eb 22 fe 3d b9 c3 6b bd 9f 4c 00 bd
       -0.13749994 0.12409004 -0.057559703 -0.03132307
000380 c6 31 a0 bd cf 39 34 3d 0d bb c2 3c 1b 8d 00 3d
       -0.078219935 0.044000443 0.023770833 0.03138457
000390 c0 19 e2 bd cc b2 17 bd 91 80 97 3c 99 97 8a 3d
       -0.11040068 -0.03703575 0.018493922 0.06767196
0003a0 7b a6 3a 3b 53 f7 9a bd d5 fd 2d 3d 5c f3 e2 3d
       0.0028480578 -0.075667046 0.0424784 0.11081573
0003b0 f4 fc 71 3c 95 1e d8 3d 6e 44 8f bd e3 f6 36 bd
       0.014769781 0.10552708 -0.06995474 -0.044669043
0003c0 fc 57 2c 3d d0 08 27 bd f7 80 9a bb b8 6f d3 bd
       0.042076096 -0.04077989 -0.004715081 -0.10324043
0003d0 0d a1 0f 3d 37 44 73 bd 31 71 9c 3d d7 c3 27 3e
       0.0350657 -0.059391227 0.07638777 0.163833
0003e0 db 55 a4 3d 21 e4 f1 bd b9 c0 08 3c d5 04 4b bd
       0.08024188 -0.1181109 0.00834673 -0.049565155
0003f0 4c cb d8 bd e8 dd fa 3d fe 9a 71 3d 9f 20 2f bd
       -0.10585651 0.122493565 0.058985703 -0.04275572

lstm.bias_ih_l0 f4 [256]
000000 e1 03 96 3c 86 73 61 bd 96 8c 18 bd 33 eb b5 3d
       0.018312396 -0.055041812 -0.03724345 0.08882751
000010 3c e7 48 3c 9d 75 4d 3d 98 14 e1 3d e0 ee ab bc
       0.012262162 0.050160993 0.10990256 -0.020987928
000020 67 18 ba 3d 47 7a 51 bd ea e7 dd 3c de fe 59 bc
       0.09086686 -0.051142003 0.027088124 -0.013305394
000030 77 28 a8 bd ef f1 d2 bb 0e b4 af 3d de a8 fc 3d
       -0.08210843 -0.006437532 0.085792646 0.12336896
000040 4c d4 bd 3d 2f db cb bd bf 4b 9c bd 1f dd cc 3a
       0.09269008 -0.09953915 -0.07631635 0.0015629864
000050 54 b8 0c be fa c6 e9 3d d0 59 a2 3d c6 51 e1 3c
       -0.1374219 0.11414905 0.079272866 0.027504813
000060 3f a3 f0 3d d3 a5 4b bd 63 05 ef bc 07 08 d7 bc
       0.11749887 -0.04971869 -0.029177373 -0.026248945
000070 6e ac a7 3d f4 8f ca bd 5d 80 9d 3d 4a ae 66 3a
       0.08187185 -0.09890738 0.07690499 0.0008799775
000080 99 b4 07 3e 50 32 c5 3d 53 e5 90 3d 26 ef 5c bd
       0.13252486 0.09628737 0.0707499 -0.053939007
000090 6f f8 af 3c a1 1b 53 bd c5 8a c2 bd 6d af b6 bd
       0.021480767 -0.05154002 -0.094991244 -0.089201786
0000a0 9e 06 be 3c 71 3b 4f 3d 01 04 31 bd e1 3f 0b bd
       0.023196515 0.050593797 -0.04321671 -0.033996467
0000b0 93 ec 4d 3d 4e b4 90 bd be f1 bd bb 43 ad 17 bd
       0.050274443 -0.070656404 -0.00579664 -0.03703047
0000c0 82 d1 db bd f5 3f ca 3d cb 45 54 bd e3 c1 c6 bd
       -0.1073332 0.0987548 -0.051824372 -0.0970495
0000d0 c9 62 d9 bd 5e 92 81 bd 57 b4 8e 3d 96 1b cb 3a
       -0.10614545 -0.063267455 0.06967991 0.0015495892
0000e0 2b ef a2 3c 78 81 c7 bd 91 be af 3c e2 14 a1 bc
       0.019889435 -0.09741491 0.021453174 -0.019663278
0000f0 5b e8 a5 bd c9 10 60 bd fc 01 01 bc 8a 98 23 bd
       -0.08100959 -0.054703508 -0.007874008 -0.039940394
000100 71 3d 2c bd 19 d9 51 3d dd 1f d4 bc 6a 81 86 bd
       -0.042050783 0.05123243 -0.0258941 -0.065676525
000110 58 24 a3 bd 39 63 f0 3d 7f 4b 5e 3d 5d a6 cb bc
       -0.079659164 0.11737675 0.054271217 -0.024859602
000120 91 26 d1 bd 76 23 03 be b0 23 a7 bd 9d f1 07 bd
       -0.10212434 -0.12806496 -0.08161104 -0.033189405
000130 59 49 b2 3c 8f a7 22 3d eb 29 c1 3d e9 5c 80 3d
       0.02176349 0.039710578 0.09431823 0.06267721
000140 b4 18 9e bd a2 29 5a bd 91 97 cf bd 6c bf 9a bc
       -0.077195555 -0.05326236 -0.10136331 -0.018890105
000150 66 12 94 bd 70 97 81 bd 56 96 08 3e 03 45 be 3c
       -0.07230072 -0.063277125 0.13338599 0.023226267
000160 be 28 f1 3d db cf db 3d 27 74 a8 3c d1 fa d5 3d
       0.11775349 0.10733005 0.020563198 0.1044823
000170 0d cc 28 3d 32 93 c3 bc 84 aa e9 bd 24 65 b4 3c
       0.041210223 -0.0238739 -0.114094764 0.022020884
000180 65 aa d9 3d f5 e1 82 bb e8 25 ef 3d d0 31 55 bd
       0.10628203 -0.0039942213 0.11677152 -0.052049458
000190 39 6e 86 3d 03 f8 d8 3d 59 0c 9a bd 4d c1 af bd
       0.06563992 0.105941795 -0.075218864 -0.08581791
0001a0 d1 c9 86 3d 8d 70 a6 bd ea 86 12 bd 31 77 dc bd
       0.06581462 -0.08126936 -0.035773195 -0.107649215
0001b0 8f 68 be 3c 45 73 df 3d ef 27 56 bd 3e b9 b7 bb
       0.023243217 0.10910658 -0.052284177 -0.0056067994
0001c0 54 a4 35 bd f4 13 7c bb 42 98 7c bd 4a 4e 84 bd
       -0.04434617 -0.0038464041 -0.061668642 -0.06460245
0001d0 4c 75 e3 bc 5e f5 12 3e b8 19 53 bd 9d 4b 60 3d
       -0.027765892 0.14351413 -0.0515382 0.05475961
0001e0 82 b6 2b 3c 77 f7 5a bd 51 7d 0b 3e 12 e8 14 bd
       0.010480525 -0.053458657 0.13622023 -0.036354132
0001f0 22 f3 61 bd a5 3e f7 3c 05 ec d1 3d 04 e0 09 3e
       -0.05516351 0.030181238 0.10250095 0.13464361
000200 30 a9 bd bd 61 38 e6 bd 71 1c ac bd 7d e4 6d 3d
       -0.092607856 -0.11241222 -0.08403862 0.05807923
000210 d5 20 f8 3d 4d 46 63 3d 1f 87 a1 bc a3 6c 0f 3d
       0.12115637 0.055486966 -0.019717751 0.035015713
000220 89 fc 63 3c c3 3d 0d be 03 f2 ff 3d 02 f2 c4 bd
       0.01391519 -0.13793091 0.12497332 -0.09616472
000230 87 d3 ac 3d 1f e6 1e bd a4 af 7d 3d 50 5b f5 bd
       0.08438783 -0.03879368 0.061935082 -0.11980307
000240 e8 a7 50 bd 9e 59 80 3c 5c 49 07 3e 11 69 cc bd
       -0.050941378 0.015667733 0.13211578 -0.09980977
000250 36 af 07 be 23 c9 6f 3d 4f dc e6 3d 09 ed 97 3d
       -0.13250431 0.05854143 0.11272489 0.07418258
000260 2f 3b b7 bd 89 14 d9 bd 32 1b b7 bd 5b 18 00 3d
       -0.08946835 -0.1059962 -0.08940734 0.031273227
000270 37 c5 4d 3d 85 1a e5 3d 5b 90 83 3d c9 0b 8d 3d
       0.050236907 0.11186699 0.06424018 0.068870135
000280 48 b1 f7 bd 93 ef 5d 3c 9f 4d 1c bd ba 05 53 3c
       -0.120943606 0.0135458885 -0.038159963 0.012879783
000290 c0 6c 93 bd c6 ae 1f 3d 72 2a 9b 3d cf e7 fa 3c
       -0.07198477 0.038985036 0.07576455 0.030628113
0002a0 9c a7 84 bd 4a dc c7 3d e1 ef a1 bd e2 04 08 be
       -0.064772815 0.09758814 -0.079070814 -0.13283113
0002b0 c6 17 cf 3d 7c 6d ba bd a1 6e a1 3b f5 b8 d3 bc
       0.10111956 -0.09102914 0.004926518 -0.02584503
0002c0 9d ab e7 3c 83 2d cd bc e6 70 a4 3d 7a 64 cc 3d
       0.028280074 -0.025046116 0.08029346 0.09980102
0002d0 a5 85 c4 bd d1 2f bd 3d 04 6b ce bc 38 13 b8 bc
       -0.09595803 0.09237636 -0.025197513 -0.022470102
0002e0 9a c0 fa bd a2 b0 fa bd f4 e7 08 3e 33 73 f2 bc
       -0.12243767 -0.12240721 0.13369733 -0.029595947
0002f0 f0 ee 43 3b 4e fe ad 3d 86 c1 dd 3d 00 41 8c 3d
       0.0029897057 0.084957704 0.10827927 0.06848335
000300 ee 1b 82 bd 48 77 37 3b b7 2f f1 bc 75 dd b2 3d
       -0.063529834 0.002799468 -0.029441698 0.08733646
000310 03 55 06 3e 21 a5 df 3c 2e 5c e2 3d cc 7d 86 bd
       0.13118367 0.02730042 0.11052738 -0.065669626
000320 de 3c 33 bd 39 7c 00 bd 33 85 6c 3d 0c 15 f6 3d
       -0.04375922 -0.031368468 0.057744216 0.12015733
000330 9e d7 1b 3e 51 5c 67 bd 4f 01 89 bd 4b af 5d bd
       0.1521897 -0.056484524 -0.06689703 -0.05412225
000340 9c 90 0c bd 39 db 42 3d 96 a3 c3 3d 17 8b e5 3d
       -0.034317598 0.04757235 0.09552686 0.1120817
000350 7d ca 93 3d 17 10 60 bd 88 c2 bd bc a4 23 00 3c
       0.07216356 -0.054702844 -0.023164049 0.007820997
000360 01 44 06 3e 8a 21 ed 3d 4e df 8e bd 63 ca af 3d
       0.13111879 0.11578663 -0.06976186 0.08583524
000370 f6 44 ba bd 58 47 04 3d b8 7b 0e be ac d7 3f bc
       -0.090951845 0.0322946 -0.13914382 -0.011709135
000380 1e 54 06 bd 75 68 52 bc 37 36 b8 3c 50 2e bb bd
       -0.032795064 -0.012842287 0.02248679 -0.09139693
000390 e8 ce 01 be 26 e2 93 3c b6 5a af bd 39 ac e2 bb
       -0.12676585 0.018052172 -0.085622236 -0.006917503
0003a0 73 51 3f bd 34 d5 53 bd 2d 9d 73 bd 71 88 7b 3d
       -0.046708535 -0.051717 -0.059476066 0.061409418
0003b0 33 1f f9 3d 95 52 91 3d 0f ef ff 3c 42 97 36 3d
       0.12164154 0.070958294 0.031241922 0.044577844
0003c0 0d ca bd bd 9b c1 1e bd 66 2e d1 3d a9 f1 02 be
       -0.09267054 -0.038758855 0.10213928 -0.12787499
0003d0 02 5b d5 bd df 3b 47 bd d0 8e 06 3e dd d4 67 3d
       -0.10417749 -0.048641082 0.13140416 0.056599487
0003e0 53 82 f8 3d f7 d2 e8 bd da 27 25 bd 89 5b da 3c
       0.12134232 -0.11368363 -0.04032121 0.026654975
0003f0 4c 6c 59 bc cf 12 f6 bb e6 c9 4d bd b8 d8 e6 bd
       -0.013270449 -0.0075095664 -0.050241373 -0.112718046

lstm.bias_hh_l0 f4 [256]
000000 ab 22 66 3d 5e 47 06 bd 8d b4 07 3e 1d e8 9a bd
       0.056185406 -0.032782905 0.13252468 -0.07563803
000010 0a c8 09 3e 7d 4f c5 3b 26 e3 c2 bd af eb 53 bd
       0.13455215 0.0060214386 -0.095159814 -0.051738437
000020 4c 0e 17 be 10 28 01 be ae 8f a3 bd db 0d 54 bc
       -0.14751548 -0.12612939 -0.07986389 -0.0129427565
000030 d1 9a f2 3d 3d 28 29 bd 71 b2 8c bc cb fb 08 3d
       0.11845935 -0.04129814 -0.017174931 0.033443253
000040 da 12 9e 3d 6a 2e ed bc 73 5a c5 bd b5 fd cf 3d
       0.077184394 -0.028952796 -0.096363924 0.10155813
000050 5d 0f e8 bd c1 a9 0b bb 3b e0 cc 3d 89 3f 17 3e
       -0.11331055 -0.0021310898 0.10003706 0.1477033
000060 d7 75 27 3e d6 08 99 3c 74 56 8e bd 09 b9 d5 bd
       0.16353546 0.018680971 -0.069500834 -0.10435683
000070 e9 74 3d bc 96 5d a5 bd 1f 3b 7d 3d b5 e3 99 3d
       -0.011563518 -0.08074491 0.06182396 0.07514135
000080 4b c7 81 bc 64 1e af bd 58 dc cf bc 8a ee 7f 3d
       -0.0158421 -0.085507184 -0.025373623 0.062483348
000090 15 c7 9c 3c 4e ce 03 3e 85 54 c0 3d 8b b4 a8 3d
       0.019137898 0.12871668 0.09391121 0.08237561
0000a0 2d ec 33 bd a3 9c 20 bd 3a 43 bb 3d ad 85 e6 bd
       -0.043926407 -0.03921188 0.09143682 -0.112559654
0000b0 08 e3 0a 3e 3d 42 21 bd 9b 60 e8 3c c7 b8 7e 3d
       0.13563168 -0.03936981 0.028366378 0.062187936
0000c0 d7 c2 09 3d 4f 0a 9e bd b3 4c f9 3d 88 cd 90 3c
       0.03363308 -0.0771681 0.12172832 0.01767613
0000d0 da b9 36 bd cc 2e ee 3d f4 20 fb 3d a6 97 36 bd
       -0.044610836 0.116300195 0.12262145 -0.044578217
0000e0 21 1b 99 bd 7b a2 9a bd 1d df 95 bc 08 79 30 bc
       -0.074758776 -0.07550522 -0.018294865 -0.010771044
0000f0 03 2f 8b bd 86 81 e5 3d e3 87 8d bc 76 a7 a8 3c
       -0.06796076 0.11206345 -0.01727671 0.020587664
000100 6c 08 e3 3d 66 47 c1 bd ac 0e 2e bc 7f 12 2c bd
       0.11085591 -0.09437446 -0.010623615 -0.042009827
000110 57 ed 92 3d de aa 75 3d 39 ce 2f bd 90 eb 14 bb
       0.07174175 0.059977405 -0.04292128 -0.0022723414
000120 8b 2b c3 bd 6e d9 ed bd ca b1 46 3c b1 e2 0a 3e
       -0.095297895 -0.11613737 0.012127349 0.13563038
000130 2e 08 0c 3e 13 83 a6 bc b5 68 94 bb f7 f4 d3 3c
       0.13674995 -0.020326173 -0.0045290836 0.025873644
000140 a8 23 c2 bd 7e 82 7d 3d a5 4e f1 ba e9 02 e9 3d
       -0.09479457 0.061892025 -0.0018410279 0.11377508
000150 e5 33 0c bd 63 f5 6d 3c 80 24 10 bd fe d3 a2 3d
       -0.034229178 0.014523837 -0.03519106 0.079505906
000160 e3 87 49 bd 1f 21 de 3d 29 7d c7 3d eb 5a c4 3d
       -0.049201857 0.10846161 0.09740669 0.09587654
000170 53 a1 07 bd d5 66 a0 bd e4 21 b6 bd 9b 0c 96 bd
       -0.033112835 -0.07832114 -0.08893183 -0.07326623
000180 5c 96 e0 bb 30 98 be 3d f0 b9 d6 bc de b3 00 bd
       -0.0068538617 0.09306371 -0.026211709 -0.031421535
000190 5d f0 c2 3d 75 06 72 3d 90 f7 78 3d 05 25 ab bd
       0.09518502 0.05908819 0.06078297 -0.0835667
0001a0 d8 d1 a4 bd 5d 7b 51 bd 38 88 78 bd f1 e0 92 3d
       -0.08047837 -0.05114304 -0.060676783 0.071718104
0001b0 c1 d5 08 bd c1 cc b5 bd 77 17 df 3c 69 73 b2 3d
       -0.033406977 -0.08876944 0.027232869 0.08713419
0001c0 78 b8 1c 3d b9 a9 9c 3c 7f ce 66 3d 48 56 e7 3b
       0.03826186 0.019123899 0.056349274 0.007059846
0001d0 cc 82 f2 bd a6 44 b2 3d fa 00 86 bc 39 08 9c bd
       -0.11841354 0.087045 -0.016357888 -0.07618756
0001e0 2b cd 90 bc e5 a0 a3 3d 0c 42 12 3e 2f 29 cd bd
       -0.017675957 0.079896726 0.14283007 -0.10017621
0001f0 5e 49 4a bd 91 e5 43 bd 87 e1 e3 3d 93 28 1e bd
       -0.049386375 -0.047826353 0.11127 -0.038612913
000200 d4 76 f4 bd fd 3d e8 3d 4d b3 2c bc 04 66 a4 bd
       -0.11936727 0.11339948 -0.0105407955 -0.080272704
000210 25 8f d4 bd d0 cb 7a bc 40 42 3e 3d f2 e0 88 bd
       -0.10378865 -0.015307382 0.0464499 -0.0668353
000220 3f ed f9 bd fe 63 95 3d 8a 97 00 3d a0 8f 01 3e
       -0.12203454 0.072944626 0.03139452 0.12652445
000230 f3 41 e3 bd b0 13 c3 bd c3 11 ef bc 17 0c bb bd
       -0.11096563 -0.095252395 -0.029183274 -0.09133165
000240 cf e5 cb bd bd d8 b0 3d 9f f6 17 bd fb db b1 bd
       -0.09955942 0.086350895 -0.03710043 -0.08684536
000250 15 55 4c 3d e6 ba 8b 3d 5d ce 01 3e 3c 7c 44 bd
       0.049885828 0.068227574 0.12676378 -0.04797004
000260 a6 8e df bd 29 4c 80 3c 53 6b 56 bd 16 78 ee 3d
       -0.1091588 0.015661316 -0.052348446 0.11643998
000270 b3 5c dc bd ef 54 a4 3d 08 fb 49 3d e6 9e bc 3d
       -0.107598685 0.08024012 0.049311668 0.09209995
000280 c9 e4 26 3a a6 b9 b2 bd 6c 1b 96 bc 60 0d 6c 3d
       0.0006366489 -0.08726816 -0.018323623 0.057629943
000290 b6 24 b5 bd 3a a7 b3 3d a0 11 be bd 6c af ae bd
       -0.08844893 0.0877213 -0.092807055 -0.08529553
0002a0 07 64 06 bd 21 3e fd 3d 15 e6 b2 bd 34 61 e5 bd
       -0.032810237 0.12365366 -0.08735291 -0.11200181
0002b0 6e d2 98 3d 58 f6 02 3e 27 d9 d4 bd b5 70 17 3d
       0.07462011 0.12789285 -0.10392981 0.03697272
0002c0 b5 f5 86 3d 3c 07 f8 3d 78 5e e4 bd 74 75 02 3e
       0.06589834 0.12110755 -0.11150831 0.12740117
0002d0 18 36 4b 3d f3 51 a5 bd f8 70 9b 3d a0 ff f3 ba
       0.049612135 -0.08072271 0.075899065 -0.0018615611
0002e0 ae e8 c4 3b 87 c2 08 bd b9 57 10 3e 0b 6d a7 bd
       0.006009183 -0.03338864 0.14095964 -0.08175095
0002f0 c6 c9 55 3d fe 98 b7 3c 69 2a f1 3d 7e 01 b8 bd
       0.05219438 0.02241182 0.11775667 -0.089846596
000300 d8 32 29 bd 30 84 c5 3d 0c b3 16 3d 18 2a 82 bd
       -0.041308254 0.096443534 0.036791846 -0.06355685
000310 8d 55 07 3e c0 72 c1 3d 94 51 92 bd 51 9b 10 bd
       0.13216229 0.09445715 -0.07144466 -0.03530437
000320 70 50 96 bd 5c c0 9d 3d 39 11 c2 bd 74 bb ce 3d
       -0.07339561 0.07702705 -0.09475941 0.100943476
000330 6e 00 77 bd c3 9a 0c 3d a1 78 85 3d ec be e5 3d
       -0.060303144 0.03432728 0.06517149 0.11218056
000340 51 5c 27 bd e8 87 95 bc 5f ad 0b 3e 06 39 0e 3e
       -0.040859524 -0.018253282 0.13640355 0.1388894
000350 37 d4 86 3d 31 4f d6 3d a5 96 6f bd 0c ec cc 3d
       0.065834455 0.10464323 -0.058493275 0.1000596
000360 a5 b0 ec 3d 2a 61 06 bd 9b c6 1a 3d 2b d8 6a bd
       0.1155713 -0.032807507 0.03778706 -0.05733506
000370 47 a0 0e 3e 36 83 0f 3d 4c ff ff bd 77 4d ad 3d
       0.13928328 0.035037242 -0.12499866 0.08462041
000380 1c 81 c6 3c f4 0f 38 bc 2c 48 42 3d e6 be 0c bd
       0.024231486 -0.011234272 0.04743211 -0.034361742
000390 66 d3 34 bc ef 40 20 bd e1 85 1a bd 50 b1 c0 3d
       -0.011036729 -0.039124426 -0.037725333 0.0940882
0003a0 98 7a 9b bd 61 e7 5e 3c 80 d7 c7 3d 71 36 01 3d
       -0.07591742 0.01360497 0.097579 0.03154606
0003b0 1d 56 03 3e 59 63 82 3d 59 64 7e bc 58 91 29 3e
       0.12825818 0.06366605 -0.015526854 0.1655935
0003c0 b1 23 d5 bd c7 58 c6 3d 42 50 bc 3d ae d0 0b 3d
       -0.10407198 0.09684902 0.091949955 0.03413456
0003d0 1a d9 81 bd 5d 6e 15 3d 5e 89 37 3d 26 e7 15 3d
       -0.06340237 0.036482204 0.044808738 0.036597393
0003e0 29 ac d8 3d ee 93 02 3d 33 79 cf bd dc ab ba 3c
       0.10579712 0.031879358 -0.10130539 0.022787027
0003f0 19 ae 2d bd 30 5d c1 bc 69 8d 8a 3d 68 63 a0 bd
       -0.04240236 -0.023604006 0.06765253 -0.0783146

lstm.weight_ih_l1 f4 [256, 64]
000000 d8 3f 07 be 23 6c a7 bd ca c8 9e bd da 55 8d 3d
       -0.13207948 -0.08174922 -0.07753141 0.069011405
000010 b8 67 34 3d 3d 87 0b 3e bd 92 83 bd 20 c7 44 3d
       0.044044226 0.13625808 -0.064244725 0.048041463
000020 c8 e6 a7 3c f6 b4 c3 3c 8d a4 dd 3c 2c 32 c8 3d
       0.020495787 0.02389 0.027056003 0.097751945
000030 3c 7c 4a 3d b1 73 f0 bd 54 5a c6 3d f7 17 50 bd
       0.049434885 -0.117408164 0.096851975 -0.050804105
000040 ab c7 33 3d fc 2c 8f 3d e2 8a 64 3d e4 fc c6 bd
       0.04389159 0.06991002 0.05579651 -0.09716204
000050 70 1c 95 bd 76 2b 49 3c f8 25 35 bb 9c ff 1f 3e
       -0.07280815 0.012278428 -0.002764104 0.15624851
000060 18 d4 8d bc e3 98 ce 3d 51 ab b8 bd 5b 38 b9 bd
       -0.017313048 0.100877546 -0.09017051 -0.09043952
000070 41 e8 c4 3d 5c 6d 6f 3d 43 f2 7a bc ac 77 ab 3d
       0.096146114 0.058453903 -0.015316549 0.08372435
000080 6a 63 ad 3d 4d fc cf 3c 3e 9f af 3d 92 7b 82 bd
       0.08466227 0.025388861 0.08575295 -0.063712254
000090 ee 25 fc 3d 35 ab 01 3e 2c b6 d3 bc e6 95 a0 3d
       0.12311922 0.12662967 -0.025843702 0.07841091
0000a0 09 42 cc bd 23 a5 e7 3a e0 55 7a bd ac 56 9c bd
       -0.09973533 0.0017673116 -0.061117053 -0.07633719
0000b0 37 75 82 bd d5 a6 d2 bc 85 8c 01 bd 06 98 e3 bd
       -0.06370013 -0.025714317 -0.03162815 -0.111129805
0000c0 40 42 3c bd 3e ed 00 3e 0f 6f 82 bb 0d 6c ce bd
       -0.04596162 0.125905 -0.0039805244 -0.10079203
0000d0 f2 29 28 3d 0d a9 0e be 59 2b 0d 3e 22 73 36 3c
       0.041055627 -0.13931675 0.13786067 0.011135848
0000e0 ae 6d 69 3d c2 ad bb 3d 95 a5 6b bd e5 aa 88 3d
       0.056989364 0.09164001 -0.05753096 0.066732205
0000f0 6f 93 1b 3d 1a 73 ee bd 24 8f b5 bd 41 43 9b 3d
       0.0379824 -0.11643048 -0.088651925 0.07581187
000100 f8 74 06 bd 0a ff d2 bc de a5 c2 bd c4 4b 6e 3d
       -0.032826394 -0.025756378 -0.09504293 0.058177724
000110 4e 81 aa 3c 3e ce 96 bd bd 34 26 3d da 2d 14 3e
       0.02081361 -0.07363556 0.04057764 0.14470616
000120 c1 d0 f3 3d 81 23 ef bd 42 92 1f bd 42 c7 1d bd
       0.11905051 -0.11676694 -0.03895784 -0.038520105
000130 e9 54 1c be 88 82 61 3d c7 3c e6 bc 82 67 12 bd
       -0.15266766 0.055056125 -0.028105153 -0.035743244
000140 2a 25 61 bb 77 55 9b bd d3 81 4c bc bd 53 65 3d
       -0.0034354427 -0.075846605 -0.012482124 0.055988062
000150 e2 a4 ec 3d 99 b1 7d bd 48 d3 8b bd 64 34 85 bd
       0.115548864 -0.06193695 -0.06827408 -0.06504133
000160 0b 87 26 3e cd b5 9c bc ee 9f c2 3d 93 e2 d9 3d
       0.16262452 -0.019129658 0.095031604 0.10638919
000170 b1 45 06 bd 2a e8 cd 3d bb 76 6f bd 70 21 f6 bc
       -0.032781307 0.100540474 -0.05846284 -0.030045241
000180 c5 f3 ee bd 3c 0f ee bd b7 d5 09 3e 96 ab 1e 3d
       -0.11667589 -0.116239995 0.13460432 0.038737856
000190 4e 1f 69 bd f2 0a 3d 3d b7 b5 7f 3d 92 39 87 bd
       -0.05691462 0.046153016 0.062429156 -0.066027775
0001a0 28 4c 46 3c ea f1 ca 3c 63 05 ac 3d f3 62 f1 bd
       0.012103118 0.024773557 0.08399465 -0.11786451
0001b0 db 7e da bb 19 c3 8c 3c 73 94 21 3d 22 71 ad bd
       -0.0066679544 0.017182874 0.039448213 -0.08468844
0001c0 3f 73 72 3d 9d 0e a5 3d 2a e7 f6 3c a2 16 4b 3d
       0.05919194 0.08059428 0.030139524 0.04958213
0001d0 32 f2 1b 3d 9f f4 19 bd 0c df ab bd 77 42 c8 3a
       0.038072772 -0.037586804 -0.08392152 0.0015278597
0001e0 7c ef 19 3e 18 90 07 bd 3c 92 96 3d fc 98 02 be
       0.15032762 -0.033096403 0.07352111 -0.12753671
0001f0 a4 6a c3 bc 68 61 c2 bc b8 26 eb 3d 34 48 00 3e
       -0.023854561 -0.023728088 0.114819944 0.12527543
000200 20 63 17 bd 0c 8f ca 3c 43 75 d3 3d 42 23 c0 3d
       -0.036959767 0.024726413 0.103251 0.09381725
000210 4c 26 8f 3d d6 22 8a 3d 38 4e 91 3d 3e f8 bc 3d
       0.069897264 0.06744926 0.07094997 0.09227036
000220 b9 31 52 bc c5 97 57 3d de b7 93 3d d1 8b 54 3d
       -0.012829238 0.052634973 0.07212804 0.05189115
000230 4d 3f 0d bd 74 b5 6e 3d 06 39 d7 bd 63 99 64 bd
       -0.034484196 0.058278516 -0.10508923 -0.055810343
000240 4f fb dc bd a2 35 16 3e 2d c5 79 bd af 44 57 3d
       -0.10790121 0.14668897 -0.060979057 0.052555736
000250 13 42 f5 bc 62 36 e7 3d 4c 13 f7 3d 1a 65 5c bd
       -0.029938733 0.112896696 0.120642275 -0.053807355
000260 25 79 9c 3d be 77 03 3e 0d 0f d5 bd 0b 78 e0 3d
       0.07640294 0.12838647 -0.10403261 0.109603964
000270 b4 f2 0f be 4e 26 7c bd 03 06 8f 3d 67 73 85 3c
       -0.14057428 -0.061559968 0.069835685 0.01629038
000280 de 9b eb 3c 2c 80 aa 3d ed d2 df bd a1 54 2d 3d
       0.028760847 0.08325228 -0.10928903 0.042317037
000290 da 6b d6 bd 23 07 e2 3c fe 1f e4 3c 12 95 05 be
       -0.1046979 0.027591294 0.027847286 -0.13045147
0002a0 87 a9 7b bd d6 5b 26 bd 01 90 d2 3d 54 e0 d3 bd
       -0.06144097 -0.040614925 0.10281373 -0.103455216
0002b0 14 7d dd bc d9 ca 20 bd 6e 33 b2 3d a0 b1 87 bd
       -0.027037181 -0.03925595 0.08701216 -0.06625676
0002c0 00 25 24 3d d4 64 8b 3d 57 15 2d bd 8d 5b b1 bd
       0.04007435 0.06806341 -0.04225668 -0.0866004
0002d0 11 dc 97 3c 82 01 4c 3d 8e 97 da bc 9b d7 9f 3d
       0.018537553 0.049806125 -0.026683595 0.07804795
0002e0 50 ac 9b bc e8 79 1a 3d 7f 31 91 3d 66 c6 2c 3d
       -0.019003063 0.037713915 0.07089519 0.042181395
0002f0 e3 68 ea bd 5b 95 b5 3d ce bf ca 3d 47 c0 30 bd
       -0.11445787 0.08866378 0.09899865 -0.04315212
000300 04 46 bc bd 69 cb 5e bd 28 30 3f 3c 12 41 f4 3b
       -0.09193042 -0.054393206 0.011669196 0.007454046
000310 c7 7c f8 bc bb 36 22 bd 2a 1f 19 3e 52 85 bb bd
       -0.030332936 -0.039602976 0.14953294 -0.09156288
000320 87 2f 95 3d ec 75 b0 bd dd 10 ca 3d 71 6f 3c bd
       0.07284456 -0.08616242 0.09866498 -0.046004716
000330 2f 20 ad 3c 00 90 19 bd e3 c0 e7 bd 37 cf b7 bd
       0.02113351 -0.037490845 -0.11316087 -0.0897507
000340 9f ae 0b bd 72 16 67 bd dd 1d bd bc 7b 30 f7 bd
       -0.03410208 -0.05641789 -0.023085529 -0.12069794
000350 50 34 4e bc 6f 6a 11 3e 0f 20 bb 3d 03 c6 22 3d
       -0.012585714 0.14200757 0.09136974 0.03973962
000360 4c a9 f4 3d 91 d0 35 3d 89 be 7c bd ef dd 98 bd
       0.11946353 0.044388358 -0.061705146 -0.074642055
000370 d8 14 67 3c 57 17 ca 3d 6a b6 28 bd e9 52 ab bd
       0.014104091 0.09867733 -0.04118959 -0.08365423
000380 53 ad 25 3d 2e 25 75 bd 00 c5 22 bd ae fa 6f 3d
       0.040448498 -0.05984991 -0.039738655 0.058588676
000390 bd 99 01 be d9 3c 9a bc 57 e1 53 3d 16 58 d1 bd
       -0.12656303 -0.018827843 0.051728573 -0.10221879
0003a0 39 54 f8 bd 11 af d0 3d cc 1f 73 bd ce 36 b1 3d
       -0.12125439 0.10189641 -0.059356496 0.08653031
0003b0 77 71 9b bd b3 f2 88 3c 05 71 70 3d 67 61 da bd
       -0.07590001 0.01671729 0.058701534 -0.10663109
0003c0 0a 17 80 3c dc c4 d6 3d b8 a0 f9 3d a1 06 9f bd
       0.015635986 0.10486767 0.12188858 -0.07764936
0003d0 61 88 0a bd cc 1c 4f bd 95 4f bd 3d b6 89 86 3d
       -0.033821467 -0.050564572 0.09243695 0.06569235
0003e0 b7 fb 98 bd 56 34 81 3b 85 0a 01 bc 0f 39 7a 3d
       -0.07469886 0.0039430065 -0.007876043 0.06108957
0003f0 66 4b 6f 3c 65 7c 91 bd 55 df ea 3d 4f 17 a8 bd
       0.014605379 -0.071038045 0.114683785 -0.08207571

lstm.weight_hh_l1 f4 [256, 64]
000000 51 d8 ef 3d 08 66 43 bd c7 4e d6 3d ff 72 07 be
       0.11711181 -0.047704726 0.10464244 -0.13227461
000010 52 60 73 3d 2f e2 0e 3d 51 60 5f bc 12 d6 fd bc
       0.05941803 0.034883674 -0.013633803 -0.030985866
000020 d0 d9 1d bd d9 61 9b bb 64 92 a3 bd 4d 8e 9a 3d
       -0.0385378 -0.004741889 -0.07986906 0.07546673
000030 45 f1 87 bd cf 54 82 bd d4 3f cd bc 89 dd b4 3b
       -0.066378154 -0.06363832 -0.02505485 0.005519573
000040 12 0f a9 bd 2e 61 74 3d 16 27 08 be 50 3d dc 3d
       -0.082548276 0.05966299 -0.1329616 0.10753882
000050 08 18 72 bb 09 76 8f 3d 7c 6e 2f bd d8 ae cc 3c
       -0.0036940593 0.07004935 -0.042829975 0.024985716
000060 ce 3f d3 3d 3a b5 35 3c e7 b4 33 bd d1 53 93 3d
       0.10314904 0.011090571 -0.043873694 0.07193721
000070 b8 d0 9e bc d9 f1 c6 bd bc 99 61 3d 62 3c 54 3d
       -0.019386634 -0.097140975 0.055078253 0.051815398
000080 d3 a3 f9 3d 92 fe 87 3d 97 9b 47 bd a3 57 c9 bd
       0.1218945 0.06640352 -0.048732366 -0.098311685
000090 b1 26 b8 3c 25 09 c0 3d d3 d2 80 3d a3 52 3f bb
       0.022479387 0.09376744 0.062902115 -0.0029193542
0000a0 63 19 6a 3d 11 30 d7 bd 56 82 8c bd 13 fd a0 3d
       0.057153117 -0.10507215 -0.06860797 0.0786077
0000b0 14 1f d5 bd 34 67 a4 3d 18 e1 25 3c 35 6d 46 bc
       -0.10406318 0.08027497 0.010124467 -0.012110998
0000c0 5f 34 db 3c d7 9d 83 bd ac 59 9e bd 99 93 94 3d
       0.02675837 -0.0642659 -0.07731947 0.072547145
0000d0 bc 24 94 3d 17 95 80 3c 7b f3 10 3c 1b 3c 76 bd
       0.07233569 0.015696092 0.008847113 -0.060115915
0000e0 81 72 57 3d 80 4f e6 bc 6d 92 09 bc 6c 97 01 bd
       0.052599434 -0.02811408 -0.008396727 -0.031638548
0000f0 2c 3d 58 bd c2 5f ea bc ed e4 de 3d 84 3b a8 bd
       -0.052792713 -0.028610114 0.10883508 -0.08214477
000100 52 ec 94 3d 2f 2a e1 bd eb be b3 3d 76 52 69 bd
       0.07271637 -0.10994374 0.08776649 -0.056963407
000110 f2 e1 d0 bc c2 ff d0 3d a0 89 10 bd d6 a8 eb bd
       -0.025498364 0.10205032 -0.0352875 -0.11506812
000120 a9 4a e0 bc 3b 3d 89 bc 2f dc f4 3c d3 81 b0 3d
       -0.02737935 -0.01675283 0.029890148 0.08618512
000130 0c 52 06 3e 94 19 0c be 3d 1b a1 bb 63 62 7d bd
       0.13117236 -0.13681632 -0.004916577 -0.061861407
000140 16 0a c0 3d 92 df 08 be af 59 1b be 78 43 e2 bd
       0.09376924 -0.13366535 -0.1517093 -0.11048025
000150 34 85 ec 3c 33 c0 21 3d e7 d3 88 bd 26 6d dc bc
       0.02887211 0.039489936 -0.06681042 -0.026907515
000160 b3 9e ad 3c 3a da 96 bd 36 8e 29 3d 52 c8 46 bd
       0.021193838 -0.07365842 0.04139539 -0.048530884
000170 b0 4f 34 3d d4 44 e5 3c 86 0f 9f bd 99 31 33 bd
       0.04402131 0.027986921 -0.07766633 -0.043748472
000180 be d0 18 bd 57 6a 9a 3d 6c 1f cf bd 7a b6 e9 3d
       -0.037308447 0.07539814 -0.10113415 0.11411758
000190 01 a3 c3 3d f8 c8 06 be 30 34 33 3c 64 de 9a bd
       0.09552575 -0.13162601 0.010937735 -0.07561949
0001a0 f8 92 15 3c 04 3c 12 bd 43 d6 f8 3d 37 01 97 3d
       0.009129278 -0.035701767 0.12150242 0.073732786
0001b0 ff 55 38 3d 56 46 c6 3d ef 24 d6 3d 80 ce 27 bd
       0.045003887 0.09681384 0.10456263 -0.040968418
0001c0 64 e5 57 bc 74 83 b4 bd 9d 4c 24 3b ec 4d f6 bc
       -0.01317725 -0.08814135 0.002507008 -0.030066453
0001d0 ef 4c b0 3c 50 0c 93 3d 13 cf 0b bd 0f 1a 07 be
       0.02152106 0.07180083 -0.03413303 -0.13193534
0001e0 42 4d 9f bc 19 65 cf 3d d9 d7 a7 3c 1c 4e cb 3d
       -0.01944602 0.10126705 0.020488666 0.099270076
0001f0 7e 57 1d 3d d2 95 e5 3d a7 cc 9f bc d5 d9 f1 3d
       0.038413517 0.112102166 -0.019506766 0.11809126
000200 50 9f bd bd 8c d1 fc 3d d4 40 e8 bd 53 51 c0 bc
       -0.09258902 0.123446554 -0.1134049 -0.023476278
000210 41 e9 f1 bc 52 bb 2a bc d7 08 8d 3c f4 4b 13 3d
       -0.02953017 -0.010420637 0.01721613 0.035961106
000220 ce 46 7c bd 9d 76 9b bd b8 f7 f9 3c 1d 46 b5 3d
       -0.061590962 -0.07590983 0.03051363 0.08851264
000230 ec 40 f3 3d 4d e0 60 3d 86 17 98 bb f2 3f f3 3c
       0.11877617 0.05490141 -0.004641476 0.029693577
000240 9a cf a2 bd 5e ac 8f bd 52 95 fc bb 79 f6 04 3e
       -0.07949753 -0.07015298 -0.00770823 0.12984647
000250 d9 6c 26 3d c5 d6 72 bc 69 bc 4f bd 13 db 1d bd
       0.04063115 -0.014821713 -0.05071679 -0.038539004
000260 b7 e5 bc 3c 7d f8 9e 3d aa 49 c8 3d 97 af a9 bd
       0.023058755 0.07762239 0.09779675 -0.08285444
000270 d9 43 8c bb 9b a7 07 3d 1d 29 ee 3d 81 78 9f bd
       -0.004280549 0.033118825 0.116289355 -0.07786656
000280 93 9d 0d 3e 52 84 7f 3d 13 a2 e3 bd b8 ba 94 3d
       0.13829641 0.06238205 -0.111148976 0.07262176
000290 b6 b8 c3 3d 5d 7f 83 bd b1 5b a6 3c 2d f6 a1 bd
       0.09556715 -0.06420777 0.020307394 -0.079082824
0002a0 0d 90 06 be 48 f8 ef bd e8 8b c8 bd 85 d4 f2 3c
       -0.13140889 -0.11717278 -0.0979231 0.029642353
0002b0 06 bc d0 3d 84 db f1 bd c6 35 31 bd 14 7e ac bb
       0.101921126 -0.118094474 -0.043264173 -0.005264053
0002c0 a6 66 e5 3d 0d 37 61 3d 99 6d 32 bc 92 b2 47 3d
       0.11201219 0.05498414 -0.010890388 0.048754282
0002d0 cc 5f c0 bd 9c 0b 39 bb c3 22 8c bc 45 16 dc bd
       -0.09393272 -0.002823568 -0.01710642 -0.10746435
0002e0 54 f7 22 3d ca 68 b0 bc 41 d9 d4 3d 16 fc 61 3d
       0.03978665 -0.021534342 0.103930004 0.05517205
0002f0 f6 82 e5 bd 1f d3 f8 3d 2f d4 d6 3d 9a 89 ca bd
       -0.112066194 0.12149643 0.104896896 -0.09889527
000300 cd 88 e6 3d 3b 48 ab bc 8f 7c 2c bd 1a e2 89 3d
       0.112565614 -0.020908466 -0.042110976 0.067325786
000310 05 1e 11 3a f5 88 a9 3d 3f 5d 22 3d 24 94 cc bc
       0.00055357843 0.082780756 0.039639708 -0.024972983
000320 03 2d ab bd da ff ca bd c0 46 7c bc 06 0f 6e 3d
       -0.08358195 -0.09912081 -0.0153977275 0.058119796
000330 e6 1d ed 3d dd 24 69 3d 4d 83 d4 bd 2a a7 31 bc
       0.11577968 0.05691992 -0.10376606 -0.010843078
000340 77 a9 59 bd 3d dc 01 be 03 2b f6 bd f7 ad e9 bd
       -0.05314013 -0.1268167 -0.120199226 -0.11410134
000350 30 dd 9f bd 5d 32 80 bd fe e9 f6 bc 4d e6 44 3d
       -0.0780586 -0.06259606 -0.030140873 0.048071194
000360 4e 83 9c bd 36 9c 09 bd d9 4e ea 3c 69 ce f8 bb
       -0.07642232 -0.03359624 0.02860205 -0.0075929654
000370 c0 ca bb bd a4 d1 cf bd 33 54 ef 3c 66 49 89 3d
       -0.09169531 -0.10147408 0.029214954 0.06703453
000380 29 9a 9b bd e0 ed c5 bc ce ed 0b 3e 78 c1 3d 3d
       -0.07597763 -0.02416128 0.13664934 0.046327084
000390 e7 34 f5 3d c8 38 cf bc ac a6 d8 3d 4b 80 40 bd
       0.11972981 -0.02529563 0.10578665 -0.04699735
0003a0 91 75 99 3d 0a eb b1 bd 0e 15 c6 3d 23 88 f4 3d
       0.07493127 -0.08687408 0.096719846 0.119400285
0003b0 c5 22 f7 3c af 83 3e 3d cf 0c 54 bb ec 56 51 3d
       0.030167947 0.046512302 -0.0032356267 0.051108286
0003c0 13 db ad bd 5e a5 dc bd e3 d5 95 3d 43 7b a5 3d
       -0.08489051 -0.10773729 0.07316186 0.08080151
0003d0 8f 53 54 3d 7f da db 3d 0f 34 7a bd 40 e2 b9 3d
       0.0518375 0.10735034 -0.061084803 0.09076357
0003e0 15 dd 23 3d 20 70 f2 bd ca 05 c2 3d 85 c7 65 bd
       0.040005762 -0.118377924 0.094737604 -0.05609848
0003f0 e0 66 8a 3d 1a cc a2 3d 4c a0 f9 bd ea cc 3b bd
       0.06757903 0.079490855 -0.12188777 -0.04584972

lstm.bias_ih_l1 f4 [256]
000000 fb 47 c5 3b 8b 94 fb 3d d5 c2 a4 bd 8f c6 e6 bc
       0.0060205436 0.12284192 -0.08044974 -0.028170852
000010 34 f5 f5 3b a9 b1 42 3d 9a c5 11 bd 29 8e bd 3d
       0.007506037 0.04753271 -0.03558884 0.092556305
000020 93 67 e7 3d ec 72 a6 bd 97 dd 11 3c 81 36 d1 3d
       0.11299052 -0.08127388 0.008902929 0.10215474
000030 bd 72 7f 3d f0 a2 ea 3c 2e a1 31 3d ee e5 b7 3d
       0.062365282 0.028642148 0.043366604 0.089794025
000040 f7 f2 c9 3c 29 90 2a bd 0c 6b 9b bd f9 12 42 3d
       0.024651987 -0.041641388 -0.07588777 0.047381375
000050 99 c3 3d bd 10 12 7b 3c f4 91 d7 3b 63 fd c2 3d
       -0.046329115 0.015324131 0.0065786783 0.09520986
000060 22 ee e2 3c 80 cf ec bc 87 51 6d 3d e5 62 a7 bd
       0.027701441 -0.028907537 0.05793908 -0.081731595
000070 98 2e 6d bd b8 b7 59 bd 4b 52 57 3d 7e 49 71 3c
       -0.057905763 -0.053153723 0.052568715 0.014726995
000080 89 4f 75 3d 11 2e ba 3d 26 52 0d 3b a2 fc 6f bd
       0.059890304 0.09090818 0.0021563857 -0.05859054
000090 ea 40 bf bc 54 51 ad bd 56 33 07 3c c0 ca a1 bd
       -0.023346383 -0.08462778 0.008251986 -0.078999996
0000a0 15 f1 cc 3d d4 c8 b6 3d 45 44 cb bd 00 95 e7 3d
       0.1000692 0.08925024 -0.09925131 0.11307716
0000b0 eb 1a b3 3d 00 e8 b0 3c 5c 90 b5 bd 49 56 91 3d
       0.087453686 0.021595001 -0.08865425 0.07096536
0000c0 6f 30 a6 bd b2 4e 92 bd 1b d0 18 3e 8d 63 6e bc
       -0.08114707 -0.07143916 0.14923136 -0.014550102
0000d0 45 e1 b8 bc 4d 32 d5 bd 43 6d fc 3c 41 b2 c8 bd
       -0.022568354 -0.10409985 0.030813819 -0.09799624
0000e0 97 ff c6 3d 53 b9 18 bd 0f f7 da bd 12 db 46 3d
       0.09716719 -0.037286114 -0.10691654 0.048548765
0000f0 9b d5 07 bd 03 44 60 3d 6c 85 99 bc d2 08 24 3d
       -0.033162694 0.05475236 -0.018740378 0.040047474
000100 95 e4 a7 bd 69 7c 83 bd 3a cc f4 3d 2f 8f e5 3d
       -0.081978954 -0.06420214 0.119530156 0.11208951
000110 a8 e0 cd bb aa 00 aa 3d e7 6c 79 bd ed c0 2e 3d
       -0.0062828846 0.08300908 -0.060894873 0.042664457
000120 d3 62 5a 3d ff 87 84 bd 8a c3 88 3d ad ca 7f bd
       0.053316902 -0.06471252 0.06677921 -0.062449146
000130 9d 8a 05 bd 1a 72 d4 3d 50 f3 7b bd 0c b8 cc bd
       -0.032602895 0.10373326 -0.061511338 -0.09996042
000140 5c 73 05 3d 55 24 68 3d 29 61 61 bd 68 be b0 bd
       0.03258072 0.056675274 -0.0550243 -0.08630067
000150 3a d6 c7 3d bb a4 b1 bd e1 6a a0 3d 4d 95 a4 3d
       0.09757657 -0.08673998 0.078328855 0.08036289
000160 a2 80 28 3d c5 43 a4 bd c0 a8 ad bc 01 7a c9 3d
       0.0411383 -0.080207385 -0.02119863 0.098377235
000170 d0 74 9e 3d 3f dc ce 3d 3f 7d b1 bd f2 36 4e bd
       0.07737124 0.10100602 -0.08666467 -0.05034537
000180 2c 2a ba bd e9 37 bc 3c b1 86 a7 bd 8c 84 a1 bd
       -0.09090075 0.022975879 -0.08179987 -0.078866094
000190 a0 a7 c5 3d 83 18 37 39 12 5c fd bd 63 32 96 3d
       0.096511126 0.00017461371 -0.12371077 0.07333829
0001a0 fe 4b 3f bd 9e d2 c9 3c 8b 8a 4a bd e8 9c d0 bd
       -0.04670333 0.024636563 -0.04944853 -0.101861775
0001b0 2d 94 b1 bd f0 ef f5 bb 3d 71 16 bd 21 bb 3b bc
       -0.086708404 -0.0075054094 -0.036729086 -0.011458189
0001c0 5f 3b 6d 3d da 63 9a 3c 5c e2 f0 3c 35 4d bd 3d
       0.05791795 0.018846441 0.029404812 0.09243242
0001d0 33 58 14 3e c7 36 f3 bd 18 92 c9 3d 77 19 e8 3d
       0.1448677 -0.11875682 0.09842318 0.11332982
0001e0 d8 df db bc 80 c7 1c bb 07 9a c2 3c 1e 30 05 3d
       -0.026840135 -0.0023922622 0.023755087 0.03251659
0001f0 44 b2 33 bd d3 28 75 3d 3a 23 08 3e 0b e9 2c 3c
       -0.04387118 0.059853386 0.13294688 0.010553609
000200 e0 d1 57 bd 72 71 04 3d 40 ed db 3d 66 5d d5 3c
       -0.052690387 0.032334752 0.10738611 0.026045512
000210 b1 ad 96 3c 1d ae c9 3d 65 5f 8a bd 93 c7 2f 3d
       0.01839337 0.098476626 -0.06756476 0.04291494
000220 09 a7 33 3d 71 3c a7 bd 5e d5 87 3d aa e8 b4 3b
       0.04386047 -0.08165825 0.066324934 0.0055209
000230 40 02 ec 3c d0 82 82 bd a2 80 fc bc bc 2c 93 3c
       0.028809667 -0.06372607 -0.030823056 0.017965667
000240 9e 44 d9 bd 2d cd 6c 3d 22 80 c9 bd 28 3c df 3d
       -0.10608791 0.05781286 -0.098388925 0.10900146
000250 36 73 bc bc 34 97 69 bd 71 2e 5d bd cc fe a7 bc
       -0.023004156 -0.057028964 -0.053999368 -0.020507239
000260 13 45 b6 3d 36 a4 be 3c 0b 5f 0a be 50 47 bf bd
       0.088998936 0.023271661 -0.13512819 -0.09339774
000270 f3 be a2 3c fe 18 ba 3c 9d 5c 40 bd f9 ef d3 bd
       0.019866442 0.022716995 -0.046963323 -0.103485055
000280 b5 a2 cb 3b b1 ef bf 3d af 03 f3 3d c1 e9 1b 3d
       0.0062144645 0.093718894 0.11865937 0.038064722
000290 99 94 ed 3d 58 96 58 bd 25 b6 36 bb 1b 28 8c 3d
       0.116006084 -0.052877754 -0.0027879563 0.06843587
0002a0 ca a2 af bd cc c2 1c 3e ef 47 ad bd 0d c8 9d 3b
       -0.085759714 0.15308684 -0.08460986 0.0048151077
0002b0 b0 05 79 bd 19 6f 2f 3d a9 6b a2 3d f6 f6 0b bd
       -0.06079644 0.04283056 0.07930691 -0.034171067
0002c0 00 0a 31 3d c3 90 b3 3d 4c f9 3e bd b9 de 82 bc
       0.043222427 0.087678455 -0.046624467 -0.015975343
0002d0 e2 4f a1 3d 96 ab 29 bd b5 34 2f 3c 91 31 2e 3c
       0.078765646 -0.041423403 0.010693719 0.010631935
0002e0 51 a6 35 3c 9a e8 4f bc d1 fa dc bd 41 01 49 bc
       0.011087016 -0.012689734 -0.10790027 -0.012268365
0002f0 35 3b 99 bc 9b a8 d2 3d 52 44 0b bd 3f 74 fa bd
       -0.01870499 0.10286065 -0.034000702 -0.122292034
000300 81 57 2f bd 28 35 5f 3d 2e ae 13 bc b6 b5 f0 bb
       -0.04280806 0.054494053 -0.009013696 -0.0073458804
000310 7f bd 88 3d ae 98 dc bc 42 20 e3 3d d2 36 d7 3d
       0.066767685 -0.026928272 0.11090137 0.10508503
000320 50 b6 2b 3d df f0 bd 3c 9e f0 d3 bd 4e dd 76 3d
       0.041921914 0.023186145 -0.103486285 0.060269646
000330 e9 c0 49 3d 82 ce ba bc a4 93 2e bd 74 01 90 bd
       0.04925624 -0.022803549 -0.04262127 -0.07031527
000340 87 42 8c 3d 76 9b 6e bd 1a 6f aa bd 31 5c 87 bd
       0.068486266 -0.058253728 -0.08321972 -0.06609381
000350 f7 46 f2 3d 00 f8 53 bd 0b c4 8a 3c 60 e9 f2 bd
       0.11829942 -0.051750183 0.016939184 -0.11860919
000360 14 41 b5 bd 0f 86 b1 3c 5d 68 99 3d 15 c3 18 3c
       -0.08850303 0.02167037 0.07490609 0.009323855
000370 96 79 ac bd fd d2 f0 3c 5f b6 bb 3c 65 7e 99 bc
       -0.08421628 0.029397482 0.02291411 -0.018737027
000380 5d 2b 15 3d fa 39 1d 3d 07 2f 2d 3d f0 ea 48 3d
       0.036418308 0.03838537 0.042281177 0.04905218
000390 c9 4c 69 3d 15 b8 d9 3b 88 c9 dc bd 63 60 c2 bd
       0.056957994 0.0066442587 -0.107806265 -0.094910406
0003a0 c2 db 27 3b 6e 37 d1 3d 06 fc 43 bd 9a 13 13 3d
       0.0025613164 0.102156505 -0.04784777 0.035907365
0003b0 22 33 e2 3d 36 11 94 3d 5e 4a 0e bd c1 df e5 bd
       0.11044909 0.07229845 -0.03473889 -0.11224318
0003c0 5f fa e6 bb e2 c6 e3 3d 89 8a 35 bd 5d b8 10 3c
       -0.0070488895 0.11121918 -0.04432157 0.008833018
0003d0 92 22 07 3d 62 e2 b1 bd d5 9b 14 bd bf 4e 20 3d
       0.032991953 -0.08685757 -0.036281426 0.039137598
0003e0 52 7d 2c bd 28 72 94 bc f4 6e de 3d 16 8c f3 bd
       -0.042111702 -0.01812084 0.108610064 -0.11891954
0003f0 16 a0 e5 39 18 9a 03 3d 44 ff e0 3d 7c 79 a8 3d
       0.00043797557 0.032129377 0.10986188 0.08226296
