src/deep_learning/artifacts/lstm_model_V.pt (torch, 217113 bytes, 12 tensors)

lstm.weight_ih_l0 f4 [256, 2]
0	0x3d27beae	0.04095333
1	0xbdfcd8c3	-0.123460315
2	0x3dc58565	0.096445836
3	0xbd269693	-0.040670943
4	0xbdb772ae	-0.0895742
5	0xbdf736b4	-0.12070981
6	0xbdad0fc6	-0.08450274
7	0x3d9d1d13	0.07671561
8	0xbd82fcc8	-0.063958704
9	0xbd8346f6	-0.06410019
10	0x3d737fcd	0.059448052
11	0x3d96ef7b	0.07369896
12	0x3d3faedd	0.046797622
13	0x3dba2c4f	0.090904824
14	0xbd384c80	-0.04499483
15	0xbdcb4fe9	-0.09927351
16	0x3d78723a	0.06065581
17	0x3cbd9a73	0.023144936
18	0xbd9c46db	-0.07630702
19	0xbdbf643f	-0.09345292
20	0x3dea8391	0.114508756
21	0xbdcd47ae	-0.100234374
22	0x3cebb81b	0.028774312
23	0x3cd1d8cf	0.025616078
24	0x3d8f4110	0.069948316
25	0x3d88ae14	0.06673828
26	0xbd209944	-0.039208665
27	0xbd646c61	-0.05576742
28	0xbc18c300	-0.009323835
29	0xbc6e14c8	-0.014531322
30	0x3dddec14	0.10836044
31	0xbdcf6b11	-0.10127843
32	0xbd567012	-0.052352972
33	0x3c94a989	0.018147247
34	0x3de53f9d	0.11193774
35	0xbc970805	-0.018436441
36	0x3d3e81e7	0.046510603
37	0x3d5570a6	0.052109383
38	0xbda394a8	-0.07987338
39	0xbdd3ff85	-0.10351471
40	0x3d1eb433	0.03874607
41	0x3ce333e4	0.027734704
42	0xbb02f7a7	-0.0019984038
43	0xbdd25b06	-0.102712676
44	0x3d6b24a1	0.05740798
45	0xbdd556c7	-0.10416942
46	0x3dd2d489	0.10294444
47	0xbda0edcb	-0.078578554
48	0xbdbe06e7	-0.0927866
49	0xbbe35f4a	-0.0069388496
50	0x3e07bcb7	0.13255583
51	0xbdfc674e	-0.12324391
52	0x3d18c6d0	0.037298977
53	0x3dd0884e	0.10182248
54	0x3db177fd	0.08665464
55	0x3e011d80	0.1260891
56	0xbdb8cfe0	-0.09024024
57	0xbd9eae6a	-0.077481106
58	0xbd8ea0b8	-0.069642484
59	0x3bff6b71	0.0077947904
60	0xbd1829e0	-0.03714931
61	0xbd9ec9ac	-0.077533096
62	0x3d0f62a0	0.035006166
63	0x3dc33ebb	0.09533449
64	0x3dd553e6	0.10416393
65	0xbd55b508	-0.052174598
66	0x3d57b22c	0.052660152
67	0xbd8936e5	-0.066999234
68	0x3dc76fde	0.09738134
69	0xbcfe0db4	-0.031012394
70	0xbd9104bb	-0.070809804
71	0xbcf2d814	-0.02964405
72	0xbd635991	-0.05550534
73	0xbd011a6a	-0.03151933
74	0xbd1a9483	-0.037739288
75	0xbdb1fe5e	-0.08691095
76	0x3d6c106a	0.05763284
77	0x3dde75fc	0.108623475
78	0xbd8e324a	-0.069431856
79	0xbddd6eeb	-0.108121715
80	0xbb8744d0	-0.004128076
81	0x3d9fb125	0.077974595
82	0xbdafdcca	-0.08587034
83	0x3d0e8ff8	0.034805268
84	0x3dde410b	0.1085225
85	0x3dcf8bee	0.10134111
86	0xbd7feaa9	-0.06247965
87	0xbcdb6b06	-0.026784431
88	0xbd0bfe64	-0.034178153
89	0x3da5d83f	0.08097886
90	0x3de19317	0.11014383
91	0x3cf88ee6	0.030341577
92	0x3de26cb7	0.11055892
93	0xbdbde8cb	-0.09272917
94	0xbc88ea82	-0.016713385
95	0xbdc50faa	-0.09622128
96	0x3d96ea0e	0.07368861
97	0xbd81a805	-0.06330875
98	0xbc16a078	-0.009193532
99	0xbd57d0c2	-0.05268932
100	0x3dcd1457	0.10013645
101	0x3e00fc70	0.12596297
102	0xbdc849e9	-0.09779722
103	0x3db21374	0.08695117
104	0xbd924c6a	-0.07143481
105	0x3e036082	0.12829784
106	0x3da6ec02	0.08150484
107	0xbdc0ea07	-0.09419637
108	0xbe0ff36d	-0.14057703
109	0x3da8e60a	0.082470015
110	0x3d042107	0.03225806
111	0xbcf7f88e	-0.030269887
112	0x3dc55ff8	0.09637445
113	0xbd793e0b	-0.060850184
114	0x3da94072	0.08264245
115	0x3e00e807	0.12588511
116	0x3c96dfe6	0.01841731
117	0xbdcffba3	-0.10155418
118	0x3d87109f	0.06594967
119	0xbdb002db	-0.08594295
120	0x3dba8167	0.09106713
121	0xbda88121	-0.082277544
122	0xbdcd1f27	-0.100157075
123	0xbb8a1199	-0.0042135236
124	0x3dc11746	0.09428267
125	0xbd1f9ef5	-0.038969953
126	0xbd41bea9	-0.04730097
127	0xbcedaf1c	-0.029014163
128	0x3d80fce3	0.06298234
129	0x3c94dc88	0.018171564
130	0xbdd683b9	-0.10474343
131	0xbcadd8e2	-0.021221582
132	0xbcbcffc8	-0.023071185
133	0xbdfcbbcb	-0.12340506
134	0x3cbde554	0.023180641
135	0xbd3fb75f	-0.046805736
136	0xbd27fe7a	-0.041014172
137	0x3dea197f	0.11430644
138	0x3d0263fb	0.03183363
139	0x3defa221	0.117008455
140	0x3bc59966	0.0060302494
141	0xbce9b2e4	-0.028527685
142	0x3d8eec88	0.069787085
143	0xbdfd98bd	-0.12382648
144	0xbcc55c62	-0.024091903
145	0xbd99feb6	-0.075192854
146	0x3e059100	0.13043594
147	0x3d29f8c8	0.041497022
148	0xbd31c5f8	-0.04340169
149	0xbdaa6d5d	-0.08321641
150	0xbd95485a	-0.072891906
151	0x3e020e2a	0.12700716
152	0x3d01f5b1	0.03172845
153	0x3d62f38d	0.05540805
154	0x3d7d5506	0.061848663
155	0xbd60e6d7	-0.054907646
156	0x3e022ec8	0.12713158
157	0x3dc90b7e	0.09816645
158	0x3df85701	0.1212597
159	0x3d9957a9	0.07487423
160	0x3d348d56	0.0440801
161	0x3db16d2f	0.08663403
162	0xbd6be326	-0.057589673
163	0xbdb75506	-0.08951764
164	0x3dda1c45	0.10649923
165	0xbddb8219	-0.107181735
166	0xbd5fb490	-0.054615557
167	0x3e014ee4	0.1262775
168	0x3d838563	0.06421926
169	0x3bcbb3fe	0.006216525
170	0x3dcf05b9	0.101085134
171	0xbde1a21f	-0.1101725
172	0x3a82956a	0.0009962742
173	0xbca073d8	-0.019586489
174	0x3d223ba2	0.03960765
175	0x3bc3bfbd	0.0059737847
176	0x3cc9db5f	0.024640737
177	0x3dc9a5ff	0.09846114
178	0x3d83dbb1	0.06438387
179	0x3daa0234	0.083012015
180	0x3dca3988	0.098742545
181	0xbd2291fe	-0.03969001
182	0xbd3f1f90	-0.04666096
183	0x3d1d7b3c	0.038447604
184	0xbc79b15d	-0.015240041
185	0x3df9ff3c	0.12206885
186	0x3d818ef4	0.06326094
187	0xbdd50f0d	-0.10403261
188	0x3e02cada	0.12772694
189	0x3e071441	0.1319132
190	0x3b669489	0.0035183749
191	0xbb76236b	-0.0037557732
192	0x3cf31c23	0.029676503
193	0x3cee72ac	0.029107414
194	0x3da162f1	0.078802
195	0x3b3069f3	0.002691862
196	0xbd1b548a	-0.03792242
197	0x3d7b26e1	0.061316375
198	0xbd14461d	-0.036199678
199	0x3dc51f5d	0.09625123
200	0xbcef1db4	-0.029188968
201	0xbdc7b71a	-0.09751721
202	0x3cf2d419	0.029642152
203	0x3ce1fad2	0.02758542
204	0x3d5af943	0.05346037
205	0x3cc389a4	0.023869343
206	0xbe059ca6	-0.13048038
207	0x3d053db8	0.032529563
208	0xbdc877cc	-0.097884744
209	0xbd57d2cb	-0.052691262
210	0x3de60d7b	0.1123304
211	0x3d8d6c13	0.06905379
212	0x3cfc1971	0.03077385
213	0x3bbc0c81	0.0057387953
214	0x3d8e3394	0.069434315
215	0x3dc1e197	0.09466856
216	0x3b842fbf	0.004034012
217	0xbdadf4d3	-0.08493962
218	0x3e019ab8	0.12656677
219	0xbdbd5066	-0.092438504
220	0x3d022dc6	0.031781934
221	0xbdd755e4	-0.10514429
222	0xbdd78b82	-0.10524656
223	0x3cea5191	0.028603347
224	0xbd5f22a0	-0.05447638
225	0xbcf9f355	-0.030511538
226	0x3d5f9e7c	0.0545945
227	0x3d4924f2	0.0491075
228	0xbd9595d9	-0.07303972
229	0xbc7950e6	-0.015217042
230	0xbda1b916	-0.078966305
231	0xbc76a0c5	-0.015052979
232	0x3d9934a6	0.07480745
233	0x3e0c5347	0.13703643
234	0xbdfddcb7	-0.12395614
235	0x3daa941f	0.08329033
236	0x3d193a0f	0.037408885
237	0xbcf9253f	-0.030413268
238	0x3cc578ad	0.024105394
239	0x3c220730	0.009889409
240	0x3da29422	0.0793841
241	0x3dd4499c	0.103656024
242	0xbcea0a3c	-0.028569333
243	0x3db14591	0.08655847
244	0x3c944404	0.018098839
245	0x3e0c2617	0.13686405
246	0x3d637542	0.055531748
247	0x3db11a1c	0.08647558
248	0x3d9790e8	0.074006855
249	0x3db0f00d	0.08639536
250	0x3db1614a	0.086611345
251	0x3da307a6	0.07960443
252	0xbdcfe707	-0.10151487
253	0x3dc854a7	0.09781771
254	0xbda3ba76	-0.07994549
255	0xbde057cc	-0.10954246

lstm.weight_hh_l0 f4 [256, 64]
0	0xbdd862ba	-0.105657056
1	0x3ba3eb37	0.005002405
2	0x3da18ed1	0.07888568
3	0xbd3e67e2	-0.04648579
4	0xbd1c8e38	-0.038221568
5	0xbccfd317	-0.02536921
6	0xbd89b675	-0.06724254
7	0xbd7d1b5e	-0.061793678
8	0xbce89482	-0.028391127
9	0x3dabdc5d	0.0839164
10	0x3df38cbe	0.11892079
11	0x3de89bb5	0.11357824
12	0x3e027927	0.12741528
13	0x3d9bffd3	0.07617154
14	0xbc33dbc0	-0.010977685
15	0xbc848a7f	-0.016179321
16	0xbab2ccaf	-0.0013641323
17	0xbde61597	-0.11234587
18	0xbdba26df	-0.09089445
19	0xbda2653c	-0.07929465
20	0x3cf9fd35	0.030516246
21	0xbdf1d8f8	-0.11808962
22	0xbdc6fe49	-0.0971647
23	0xbdf9c337	-0.121954374
24	0x3d5382b8	0.051638335
25	0x3da1a52e	0.07892834
26	0xbc416162	-0.011803003
27	0x3cb58a69	0.022160726
28	0xbdb1a6b1	-0.08674372
29	0xbd9d0223	-0.07666423
30	0x3dd2a16b	0.10284694
31	0xbdbee99b	-0.093219005
32	0x3d860578	0.06544012
33	0xbd853040	-0.065033436
34	0x3d71449a	0.058903314
35	0xbc518792	-0.01278867
36	0x3dcf6d7f	0.101283066
37	0xbcb16352	-0.021653805
38	0x3da511d8	0.08060044
39	0xbd803bf9	-0.06261439
40	0x3d7133e9	0.058887396
41	0xbbe8e717	-0.007107626
42	0xbccba55b	-0.024859121
43	0x3dbb53d8	0.09146851
44	0x3d3a4e04	0.045484558
45	0xbccd4945	-0.025059352
46	0x3e0520f3	0.1300085
47	0xbda1abe3	-0.07894113
48	0xbdfca8f7	-0.12336915
49	0x3d3d030e	0.04614549
50	0xbaea7e1a	-0.0017890364
51	0x3dcfab0a	0.10140045
52	0x3d4e35db	0.05034433
53	0xbd2c39ca	-0.0420473
54	0xbdeba5f9	-0.11506266
55	0xbce08651	-0.027407797
56	0x3de9d672	0.11417855
57	0x3d31e49d	0.043430913
58	0xbd50865b	-0.05090938
59	0x3dbad1bd	0.09122036
60	0x3d9be42a	0.07611878
61	0x3de40506	0.11133771
62	0xbd5a72c1	-0.053332094
63	0x3d72b715	0.059256632
64	0xbd238623	-0.039922845
65	0x3c511258	0.012760721
66	0xbd86eb29	-0.06587822
67	0xbd09a6a9	-0.033606205
68	0x3da3a494	0.07990375
69	0xbd604bb6	-0.054759704
70	0x3d7291c5	0.059221048
71	0x3d99b870	0.07505882
72	0xbd0158a5	-0.03157868
73	0xbdea0d92	-0.114283696
74	0xbdd4a625	-0.10383252
75	0xbdb02850	-0.08601439
76	0xbde0880d	-0.109634496
77	0x3b48642b	0.0030577283
78	0x3dbd6085	0.09246925
79	0xbd3bcce1	-0.045849685
80	0x3ce0bde1	0.027434291
81	0x3da83a25	0.08214215
82	0xbd541147	-0.05177429
83	0x3d3948fa	0.04523561
84	0xbdd2c714	-0.102918774
85	0x3c043817	0.0080700135
86	0x3d1fcf0b	0.03901581
87	0x3daac889	0.0833903
88	0xbdc8040e	-0.09766398
89	0xbdecb1d2	-0.11557354
90	0x3db0ec44	0.08638814
91	0x3d8d0c77	0.06887143
92	0x3db10c44	0.086449176
93	0x3d50beb0	0.050963104
94	0x3d4a309b	0.04936276
95	0x3d9a76f5	0.075422205
96	0x3dc0953d	0.09403465
97	0xbdb96929	-0.09053261
98	0x3c7fa204	0.015602592
99	0x3de34c76	0.11098568
100	0xbdd3eb83	-0.10347655
101	0x3da0586f	0.07829367
102	0x3c374f67	0.011188365
103	0x3df9b083	0.1219187
104	0xbcbb5365	-0.022866914
105	0xbdc348ff	-0.09535407
106	0x3c819446	0.015817773
107	0xbd72d194	-0.0592819
108	0x3d386a50	0.045023263
109	0x3c7c41f5	0.015396585
110	0xbd9e3ffc	-0.07727048
111	0xbd39f0cd	-0.04539566
112	0x3d068c84	0.03284885
113	0x3d20cd79	0.039258454
114	0xbdd00cf2	-0.10158719
115	0x3da4f420	0.08054376
116	0xbde88e5f	-0.1135528
117	0xbbae6c49	-0.005322967
118	0x3cfb93c4	0.030710109
119	0xbd61a50f	-0.055089053
120	0x3d2cb600	0.042165756
121	0xbd4e76e0	-0.050406337
122	0xbd853cec	-0.065057606
123	0xbd5b6f16	-0.053572737
124	0x3dc7a80e	0.09748851
125	0xbd6d805a	-0.057983734
126	0xbd40b6bc	-0.04704927
127	0x3c937ef3	0.01800487
128	0xbdc4c596	-0.09607999
129	0x3bced27b	0.0063117123
130	0x3d8f2fa7	0.06991511
131	0x3ddd1a6d	0.10796056
132	0xbdf54985	-0.11976913
133	0xbddfd29e	-0.10928844
134	0xbda5bb78	-0.080923975
135	0x3b31a9b1	0.00271092
136	0xbde29d1c	-0.110651225
137	0x3dc48599	0.09595794
138	0x3cbcb826	0.023037028
139	0x3b4b8682	0.0031055515
140	0xbcc7376e	-0.024318423
141	0x3dcb6806	0.0993195
142	0xbd94d6a8	-0.07267505
143	0xbd224c04	-0.039623275
144	0x3d946434	0.07245675
145	0xbddd4ef8	-0.10806078
146	0x3dbb396a	0.0914181
147	0xbd8edde7	-0.06975918
148	0xbd67e599	-0.056615446
149	0x3db700cf	0.08935701
150	0x3d8cf7c5	0.06883196
151	0x3cd3d62f	0.025858967
152	0x3ca90201	0.020630838
153	0xbc69ff2c	-0.014282029
154	0x3d17a6c8	0.03702429
155	0xbc04f150	-0.008114174
156	0x3db3a430	0.08771551
157	0xbdbc58bb	-0.091966115
158	0x3dc8ca55	0.09804217
159	0xbdc6494f	-0.09681951
160	0x3bb55efd	0.005535005
161	0x3b4d1786	0.0031294539
162	0xbd99e689	-0.07514674
163	0xbe046ade	-0.12931392
164	0xbe09bdfb	-0.13451378
165	0x3c2cd035	0.010547687
166	0x3bc62bf0	0.006047718
167	0xbd8eb8c3	-0.06968834
168	0x3c695fce	0.014244033
169	0x3dc56c01	0.09639741
170	0x3db4b0b6	0.088227674
171	0xbd7889de	-0.060678355
172	0x3e0a57e9	0.13510098
173	0x3ce0d40e	0.027444866
174	0xbd3f78cb	-0.046746057
175	0xbdc09c58	-0.0940482
176	0x3d3cf291	0.046129767
177	0x3d294c87	0.041332748
178	0xbbbda342	-0.005787284
179	0x3daa7135	0.08322374
180	0x3cd56cc3	0.026052838
181	0x3d210f6a	0.03932134
182	0x3d57533e	0.05256962
183	0xbc0d2220	-0.008614093
184	0xbdd5593e	-0.10417412
185	0x3d31ddad	0.043424297
186	0xbc886670	-0.016650409
187	0xbd732876	-0.05936476
188	0x3dcbdfd2	0.099548
189	0xbdf6c28a	-0.12048824
190	0xbdaa6114	-0.083192974
191	0xbde52476	-0.11188595
192	0x3d1358d8	0.0359734
193	0x3d9b85d0	0.07593882
194	0xbd92bf7a	-0.071654275
195	0xbd541710	-0.051779807
196	0xb8d41d1b	-0.00010114369
197	0x3d160ddb	0.036634307
198	0x37ac9869	2.057497e-05
199	0xbdf8b210	-0.12143338
200	0x3c134219	0.008987927
201	0xbc7f29ae	-0.015573902
202	0xbda2b509	-0.07944686
203	0x3d18b4dc	0.037281856
204	0xbd965e9f	-0.07342266
205	0xbde65f6e	-0.112486705
206	0xbdb0b363	-0.08627965
207	0xbbec0916	-0.0072032316
208	0x3d6c7ac1	0.057734255
209	0xbd050e57	-0.03248438
210	0xbc8a2208	-0.01686193
211	0xbd9963ad	-0.07489715
212	0x3da6d7ba	0.08146615
213	0xbc9c8e22	-0.019110743
214	0xbca00d87	-0.0195377
215	0x3dd988b2	0.10621776
216	0xbc35382c	-0.011060756
217	0x3d8d3ac0	0.06895971
218	0x3ceaefe2	0.028678838
219	0x3df6332d	0.1202148
220	0xbdee1d0e	-0.116266355
221	0xbd2a271d	-0.041541208
222	0xbdc4ebed	-0.09615312
223	0xbd92f8e8	-0.07176381
224	0x3d8c3141	0.06845332
225	0x3ddfc467	0.10926133
226	0xbd614c04	-0.055004135
227	0xbdcee1a2	-0.1010163
228	0x3c97093a	0.018437017
229	0x3d90f62b	0.07078203
230	0xbd0fb7b7	-0.035087314
231	0x3d0f99fc	0.03505896
232	0xbdb63e6e	-0.08898626
233	0xbc836ef1	-0.016044112
234	0xbdb7d8b7	-0.08976882
235	0xbd5af22c	-0.05345361
236	0x3d40b9ce	0.047052197
237	0xbd35a665	-0.04434814
238	0x3d7e6407	0.062107112
239	0xbded8768	-0.11598092
240	0x3d48ae8b	0.048994582
241	0x3cdcafa2	0.026939217
242	0xbd76f313	-0.060290407
243	0xbdd49323	-0.103796266
244	0xba31f72e	-0.0006788847
245	0x3d5ff097	0.054672804
246	0xbd1bcb36	-0.038035594
247	0x3d11a9d3	0.035562348
248	0xbd99071f	-0.07472061
249	0xbd5c7b49	-0.05382851
250	0xbd9f5c3e	-0.07781266
251	0x3dcd1e62	0.10015561
252	0x3c8acb03	0.016942507
253	0x3d9048b3	0.07045116
254	0x3dbbc5b4	0.09168568
255	0xbd3c841b	-0.046024423

lstm.bias_ih_l0 f4 [256]
0	0xbd426bb3	-0.04746599
1	0xbdd03775	-0.101668276
2	0xbdb5bfbf	-0.08874463
3	0x3d16bc10	0.036800444
4	0x3ca25175	0.019814232
5	0xbc3d765f	-0.011563866
6	0xbdc56b9d	-0.09639666
7	0xbd3c34cd	-0.045948792
8	0x3d9fd21e	0.078037485
9	0xbadc43e7	-0.0016804904
10	0xbd177986	-0.03698113
11	0x3e0babfa	0.13639823
12	0xbde68adf	-0.11256956
13	0xbdb999f8	-0.0906257
14	0xbd23c9a1	-0.03998721
15	0xbd80f794	-0.06297222
16	0xbd8dc51e	-0.06922363
17	0xbde29736	-0.110639974
18	0x3dc23f10	0.094846845
19	0xbdcf47b1	-0.10121096
20	0xbde21400	-0.11038971
21	0xbbaffb0d	-0.0053705038
22	0x3e0b9a1d	0.13633008
23	0x3de10cd5	0.10988776
24	0x3dbb0319	0.0913145
25	0xbd8ea367	-0.0696476
26	0x3db2e396	0.08734815
27	0xbd1a6629	-0.037695084
28	0xbd05f534	-0.032704547
29	0x3d10921e	0.0352956
30	0xbd75d3c9	-0.060016427
31	0xbda6c3bc	-0.08142802
32	0x3c65efe2	0.014034243
33	0x3c3ab2f4	0.011395205
34	0x3e01d609	0.12679304
35	0xbdc280de	-0.09497236
36	0xbda498f5	-0.08036987
37	0xba704b71	-0.0009166515
38	0xbd0128b6	-0.031532966
39	0xbcca85bf	-0.024721978
40	0x3daf7717	0.085676365
41	0xbc323707	-0.010877377
42	0x3c0d8b80	0.008639216
43	0x3c892478	0.016741022
44	0xbdcaae42	-0.09896518
45	0x3c3f4a2d	0.0116754
46	0xbc9d2c71	-0.01918623
47	0x3d8bcf48	0.06826645
48	0x3d8dc7c9	0.069228716
49	0x3e08a939	0.13345803
50	0x3cdda34d	0.027055407
51	0x3d9860a9	0.074403115
52	0xbc3c870b	-0.011506806
53	0xbd63b5a3	-0.055593144
54	0xbcbacc6c	-0.022802554
55	0x3d2264ba	0.03964684
56	0x3d91e8e7	0.07124501
57	0x3db19668	0.08671266
58	0xbd9ea916	-0.07747094
59	0xbdac9fd2	-0.08428921
60	0x3d2b976a	0.041892447
61	0x3ce56583	0.028002506
62	0xbd6a094c	-0.057137772
63	0x3d5a9a4b	0.0533698
64	0xbd0a8ece	-0.033827595
65	0xbcbeb411	-0.023279222
66	0xbe0024f1	-0.12514092
67	0xbd8cae5c	-0.06869194
68	0x3d88195c	0.06645462
69	0x3d3b5cee	0.04574292
70	0xbb40267e	-0.0029319818
71	0x3cffa024	0.03120429
72	0x3b95a058	0.0045662336
73	0x3d8119e4	0.06303766
74	0x3da791f3	0.081821345
75	0x3dc55a6e	0.09636389
76	0x3c997cf7	0.018736346
77	0xbdc12232	-0.0943035
78	0xbc0f0550	-0.008729294
79	0x3d8df60d	0.06931696
80	0x3dc47019	0.095916934
81	0xbdac5230	-0.084141135
82	0x3da581cd	0.08081398
83	0x3de5809a	0.112061694
84	0xbddd7ad4	-0.10814443
85	0xbd98e1af	-0.07464921
86	0xbc9cfe47	-0.019164218
87	0x3dcedd67	0.10100823
88	0xbdae33ab	-0.08505949
89	0x3d697c5c	0.057003364
90	0x3dda9e59	0.10674734
91	0x3df601f8	0.12012094
92	0xbd61830d	-0.05505662
93	0xbd9f6037	-0.077820234
94	0x3e05569c	0.1302132
95	0x3dbe482c	0.092911094
96	0x3d34324f	0.04399329
97	0x3d97b6ad	0.074078895
98	0x3def01c8	0.116702616
99	0xbdd6626e	-0.10467993
100	0x3dba0dfc	0.090846986
101	0x3e089eb6	0.13341793
102	0xbc05b08d	-0.008159769
103	0xbcd1e4bf	-0.02562177
104	0x3dade7cc	0.08491477
105	0xbdc741d9	-0.09729356
106	0x3d72d7ad	0.059287716
107	0xbcf12c2d	-0.02944001
108	0xbd398176	-0.04528948
109	0x3dac46ca	0.084119394
110	0xbbe567c0	-0.0070008934
111	0x3d45a38d	0.048251677
112	0xbd8fb890	-0.070176244
113	0x3d4fc7d0	0.050727665
114	0x3d4f25ea	0.050573267
115	0xbd1131a0	-0.035447717
116	0xbdc09c6f	-0.09404837
117	0xbba23f03	-0.0049513592
118	0xbd3429c4	-0.043985143
119	0xbb2f6d11	-0.002676789
120	0xbdd485f9	-0.10377116
121	0x3d95e4c1	0.07319022
122	0x3d97b5e6	0.07407741
123	0xbbc61209	-0.0060446304
124	0x3dcfe8da	0.10151835
125	0xbd6d5dfe	-0.057950966
126	0xbdd1b33c	-0.10239264
127	0xbd8b200d	-0.067932226
128	0x3df43cb9	0.119256444
129	0xbdec87d0	-0.11549342
130	0xbda89ae6	-0.082326695
131	0x3e0d99fa	0.13828269
132	0x3d60eb3f	0.05491185
133	0xbdbb1717	-0.091352634
134	0x3d579eac	0.052641556
135	0xbd11d1ee	-0.035600595
136	0xbdf7707b	-0.12082001
137	0x3cf4b100	0.029869556
138	0xbc7969dc	-0.015222993
139	0x3da4d223	0.08047893
140	0x3cb85faa	0.022506554
141	0xbd7ccca8	-0.061718613
142	0xbb9612f1	-0.0045798947
143	0x3d9d3c7f	0.07677554
144	0x3db2ccfe	0.087305054
145	0x3df6dbaf	0.1205362
146	0x3d0f33b6	0.034961425
147	0xbe0e47ac	-0.13894528
148	0x3dda8c62	0.10671307
149	0x3d9b13c1	0.07572127
150	0xbd96ef87	-0.07369905
151	0x3d943481	0.07236577
152	0xbdec16bb	-0.11527773
153	0xbdb78b7d	-0.08962152
154	0xbdf8a933	-0.12141647
155	0x3dd2104d	0.102570154
156	0xbd62efc3	-0.055404436
157	0xbd667bbc	-0.056270346
158	0x3d81b4f7	0.063333444
159	0x3ddf536f	0.109045856
160	0x3da79543	0.08182766
161	0xbda6080b	-0.08107003
162	0x3e0205cc	0.12697524
163	0x3e0449be	0.12918755
164	0x3dd7db3b	0.10539862
165	0xbb72f15b	-0.0037070129
166	0xbd614572	-0.05499787
167	0xbcc7e380	-0.024400473
168	0xbd11bd68	-0.035581023
169	0x3ce12fe4	0.027488656
170	0x3e16337c	0.14668077
171	0xbdb1a060	-0.08673167
172	0x3d012fd3	0.03153975
173	0xbdb78db8	-0.089625776
174	0x3dafe6c8	0.0858894
175	0xbdbf4477	-0.093392305
176	0x3d7ee341	0.062228445
177	0xbd71505f	-0.05891454
178	0x3bd99eb7	0.0066412347
179	0xbd7a00ac	-0.061035797
180	0xbe0e0852	-0.13870361
181	0x3e169264	0.14704281
182	0xbd38e4b5	-0.045139987
183	0x3e00283f	0.12515353
184	0xbb4f95ec	-0.0031675054
185	0xbe0463ce	-0.12928697
186	0x3d8f6eb6	0.07003538
187	0xbc42e976	-0.011896482
188	0x3ab1761a	0.0013539225
189	0x3d986e11	0.074428685
190	0xbd94111a	-0.07229824
191	0xbe03d33d	-0.1287355
192	0xbd5e5da2	-0.054288514
193	0xbc9bb010	-0.019004852
194	0xbd237258	-0.03990397
195	0xbcdbc84f	-0.026828913
196	0xbd435cce	-0.047695927
197	0x3cc00cf7	0.023443682
198	0xbd01d31f	-0.03169548
199	0xbca98f7d	-0.020698303
200	0x3d4fa02e	0.05068987
201	0xbda149d4	-0.0787541
202	0x3d7c3aea	0.061579622
203	0x3da6d648	0.0814634
204	0xbd209606	-0.039205573
205	0x3ce18ca3	0.027532881
206	0xbd685033	-0.05671711
207	0x3d93d923	0.0721915
208	0x3b19849c	0.0023424989
209	0xbe0182d4	-0.12647563
210	0x3d6f2481	0.058384422
211	0x3da96914	0.08271995
212	0x3da98049	0.082764216
213	0xbbc46737	-0.0059937495
214	0xbb725412	-0.003697638
215	0xbcce2046	-0.025161874
216	0x3dcc237b	0.09967705
217	0x3dc04728	0.09388572
218	0x3d0898b1	0.033348743
219	0x3daf0117	0.0854513
220	0x3cc07c59	0.023496794
221	0x3d4ecc80	0.050487995
222	0x3c20ae8f	0.009807243
223	0xbd6e7e53	-0.05822594
224	0x3cf039a1	0.029324355
225	0x3dd45a23	0.10368755
226	0x3cf8a0eb	0.03035017
227	0x3d7088d0	0.058724225
228	0x3d24b1c1	0.04020858
229	0x3da752cb	0.081700884
230	0x3de23f27	0.110472016
231	0xbc0ca203	-0.0085835485
232	0xbdf2664c	-0.11835918
233	0xbdebe218	-0.11517733
234	0x3c1b2b10	0.009470716
235	0x3c6cde24	0.014457259
236	0xbdbadab7	-0.09123748
237	0x3df19a1e	0.11796974
238	0x3d673b6b	0.05645315
239	0xbe08d6f0	-0.13363242
240	0x3d7da956	0.06192907
241	0x3c2eb8bd	0.010664162
242	0xbd869f69	-0.06573374
243	0xbd82520f	-0.06363308
244	0x3dce4a94	0.100728184
245	0x3b76383c	0.003757014
246	0xbdd4ba4e	-0.10387097
247	0xbdc9f21c	-0.09860632
248	0xbd39ea2e	-0.045389347
249	0x3d36ef41	0.044661764
250	0x3e0a17a6	0.13485584
251	0xbd24dc27	-0.040249016
252	0x3dbd5cd1	0.09246219
253	0x3c16adee	0.0091967415
254	0xbdd0c7c0	-0.10194349
255	0x3ce7f3ed	0.028314555

lstm.bias_hh_l0 f4 [256]
0	0xbdc33528	-0.09531623
1	0x3ddf3aa1	0.108998545
2	0x3d45a74d	0.048255254
3	0x3dde34f3	0.10849943
4	0xbd93784e	-0.07200681
5	0xbd1d08d4	-0.038338497
6	0x3c99555a	0.018717457
7	0x3d80fe52	0.06298508
8	0xbd9510e8	-0.07278615
9	0x3de490be	0.1116042
10	0x3d2c6d84	0.04209663
11	0x3dcc28b3	0.099687
12	0x3d3ce797	0.0461193
13	0xbc0dcc0f	-0.008654608
14	0xbc09628c	-0.008385312
15	0x3c54d468	0.012990095
16	0x3d71d17b	0.059037667
17	0xbdd54556	-0.104136154
18	0xbd4f501b	-0.050613504
19	0x3d621b5f	0.055201884
20	0xbab61f74	-0.0013894872
21	0xbdd168e4	-0.102250844
22	0x3c1c6db4	0.00954764
23	0x3d1298c8	0.035790235
24	0x3da48183	0.08032515
25	0x3daf94f7	0.08573335
26	0x3ca8d840	0.020610929
27	0xbdb11940	-0.08647394
28	0x3c5fa1d9	0.013649427
29	0xbd42f76f	-0.047599252
30	0xbcfc5102	-0.030800346
31	0x3c71c3fe	0.014756201
32	0x3d59c782	0.05316878
33	0xbd8eec3b	-0.06978651
34	0xbdc9cd75	-0.09853641
35	0x3cf6058b	0.03003194
36	0x3e01d6dd	0.1267962
37	0x3df6ce21	0.12051035
38	0xbd3a5b4a	-0.045497216
39	0xbdf4e4f3	-0.11957731
40	0x3dfa250e	0.12214099
41	0xbd6a593f	-0.057214018
42	0xbdc10bb0	-0.09426057
43	0xbd47ae70	-0.04875034
44	0x3dc55104	0.09634593
45	0x3df86e73	0.121304415
46	0xbcfb7c70	-0.030698985
47	0xbd4be584	-0.04977943
48	0x3da774ab	0.081765495
49	0xbb4fa108	-0.0031681675
50	0x3bc6f9cf	0.00607226
51	0x3d6a7f23	0.057250153
52	0x3df28940	0.118425846
53	0x3d8e4130	0.06946027
54	0xbccfe88c	-0.025379442
55	0x3df0d8a8	0.11760074
56	0x3d8387d9	0.06422395
57	0x3da44b0c	0.080221266
58	0xbcdd4518	-0.027010486
59	0xbdc4ab40	-0.09602976
60	0xbd0ca18d	-0.034333754
61	0xbddad0ea	-0.106843784
62	0x3dba06b3	0.09083309
63	0xbcf60bde	-0.030034956
64	0xbd968a6e	-0.07350622
65	0x3d625b51	0.055262867
66	0xbcb2f138	-0.021843538
67	0x3db5dd20	0.08880067
68	0x3dcadb2e	0.099050865
69	0x3c8e47c0	0.017368197
70	0xbe128f4c	-0.14312476
71	0xbc633c90	-0.01386942
72	0x3d468e64	0.048475638
73	0xbd31ab0e	-0.04337602
74	0xbd8f8483	-0.070076965
75	0xbd95e6f4	-0.073194414
76	0x3d41213d	0.04715084
77	0xbb78e337	-0.0037977227
78	0xbde9d4ff	-0.11417579
79	0x3de45266	0.11148529
80	0xbd70ef19	-0.05882177
81	0xbdb3fd62	-0.08788563
82	0x3d5dabdf	0.054118987
83	0xbb179f33	-0.0023135662
84	0xbdfa51f2	-0.12222661
85	0x3df1dd33	0.118097685
86	0xbd49b8e7	-0.049248602
87	0x3d98dbed	0.074638225
88	0x3dd2d9c7	0.10295444
89	0xbc3a3cad	-0.011367005
90	0xbd0c2cd8	-0.034222454
91	0x3d53f5dc	0.05174814
92	0xbdea547d	-0.11441896
93	0x3d47f18f	0.048814353
94	0x3df1379c	0.11778185
95	0xbd02e83e	-0.031959765
96	0x3d9a4284	0.07532218
97	0x3e0cd2ba	0.13752261
98	0xbc6d3bfd	-0.014479634
99	0x3dc9299c	0.098223895
100	0xbdc561da	-0.09637804
101	0xbbcd6723	-0.0062683984
102	0x3d293433	0.041309547
103	0x3d80643d	0.06269119
104	0x3d164590	0.036687434
105	0x3d154a83	0.036448013
106	0x3d106346	0.035250925
107	0xbc93140e	-0.017953899
108	0x3c17c180	0.009262443
109	0x3d805272	0.06265725
110	0xbd8b7bd9	-0.068107314
111	0x3db43476	0.08799069
112	0x3d7d56a3	0.0618502
113	0x3dd93734	0.10606232
114	0xbde8074d	-0.113295175
115	0x3d1494a5	0.03627457
116	0xb92a15b9	-0.00016220556
117	0x3dbdeb68	0.09273416
118	0xbe0315a1	-0.1280122
119	0x3d87467e	0.06605242
120	0xbdb5343d	-0.08847854
121	0x3cc18dd5	0.023627201
122	0x3e087fa9	0.13329948
123	0xbd8776c7	-0.06614452
124	0xbd89597e	-0.067065224
125	0x397fd247	0.0002439703
126	0xb95a9227	-0.00020844546
127	0x3df469a2	0.1193421
128	0x3dd2078b	0.10255345
129	0xbde98b12	-0.11403479
130	0x3dc7a5ba	0.09748407
131	0x3a8e91b9	0.0010877169
132	0xbd87f414	-0.06638351
133	0x3b070d73	0.0020607382
134	0x3d0d15f7	0.034444775
135	0x3d21167e	0.03932809
136	0x3dbb9a3b	0.091602765
137	0x3d58a3b9	0.052890513
138	0xbd7bdb28	-0.0614883
139	0x3d8ccd91	0.06875146
140	0xbd8aac33	-0.06771126
141	0x3daaa051	0.08331359
142	0x3d4cb291	0.04997498
143	0x3dba5195	0.09097592
144	0xbc41a022	-0.011817964
145	0xbdd568e5	-0.10420398
146	0xbc664739	-0.014055067
147	0xbce84a72	-0.02835581
148	0xbd3484bd	-0.0440719
149	0xbdd3d1d9	-0.1034276
150	0x3d54da8f	0.051966246
151	0x3d900adf	0.070333235
152	0xbd46d7be	-0.04854559
153	0xbb3ca248	-0.002878325
154	0x3d3a8a7e	0.045542233
155	0xbdce50c7	-0.10074001
156	0x3d74cf09	0.059767757
157	0xbdc70c02	-0.09719087
158	0x3d0c19e7	0.03420439
159	0x3d409e9a	0.047026254
160	0x3dafc775	0.08582965
161	0xbde58cf5	-0.11208526
162	0x3d448082	0.047974117
163	0x3d9f88cd	0.077897646
164	0x3da838f7	0.0821399
165	0x3de3b614	0.11118713
166	0x3d049132	0.03236503
167	0xbdadc062	-0.0848396
168	0x3df19090	0.11795151
169	0x3d785737	0.06063005
170	0x3d0d5106	0.034501098
171	0x3d2cc98d	0.0421844
172	0xbdded427	-0.108803086
173	0xbbad4925	-0.0052882605
174	0xbdde2826	-0.108475015
175	0xbdc095ed	-0.09403596
176	0x3d3abd9d	0.045590986
177	0xbde509eb	-0.11183532
178	0xbd52c526	-0.051457547
179	0xbba60899	-0.005066943
180	0xbdf50f98	-0.11965865
181	0xbda00fa0	-0.0781548
182	0x3d82502e	0.06362949
183	0x3d4ee6b9	0.050513003
184	0xbb03952e	-0.0020077932
185	0xbdaf4689	-0.085583754
186	0x3dbbef28	0.09176475
187	0x3e0f774f	0.14010356
188	0x3e0f63c8	0.14002907
189	0x3d330a63	0.043711077
190	0x3d87a772	0.066237345
191	0xbc6d4d3f	-0.014483749
192	0x3cd51c15	0.026014367
193	0x3cbaeef8	0.022819027
194	0x3cd691bb	0.026192537
195	0xbd085532	-0.033284374
196	0x3bea5a17	0.007151853
197	0x3d8a60ab	0.06756719
198	0x3d9276ef	0.07151591
199	0xbbb60b9e	-0.005555584
200	0xbdd8e482	-0.105904594
201	0x3df136a2	0.117779985
202	0xbd8a2c95	-0.067467846
203	0xbdaaaa42	-0.08333255
204	0x3d035a7e	0.032068722
205	0xbd9fc85c	-0.078018874
206	0x3c463a77	0.0120989
207	0x3d87cb1e	0.066305384
208	0x3d3ccb20	0.046092153
209	0xbd7e070a	-0.06201843
210	0x3deaffde	0.11474584
211	0x3dae2132	0.08502425
212	0x3d973bdb	0.073844634
213	0xbd40f188	-0.047105342
214	0xbd4487b5	-0.047980983
215	0x3c91bea0	0.017791092
216	0x3debcbbb	0.11513468
217	0x3dfd8222	0.123783365
218	0x3dd78e38	0.10525173
219	0x3c4d78b0	0.012540981
220	0xbdb43fa7	-0.08801203
221	0x3c0368b6	0.0080205705
222	0x3d92b455	0.07163302
223	0x3dd334ec	0.103128284
224	0xbb12a479	-0.0022375865
225	0xbcea15b2	-0.028574798
226	0x3cc501b0	0.024048656
227	0x3cd035ad	0.02541622
228	0xbde585d2	-0.11207165
229	0x3cd95d88	0.026533857
230	0xbcdabdb0	-0.026701778
231	0xbd3d5910	-0.046227515
232	0x3cff4015	0.031158486
233	0x3d745294	0.059649065
234	0xbd96aab4	-0.07356778
235	0x3cbfbdcf	0.023405937
236	0xbdc14127	-0.09436255
237	0x3e076b17	0.13224445
238	0xbb45de43	-0.0030192293
239	0x3dccca7b	0.099995576
240	0x3dbb4ff0	0.09146106
241	0xbd2b7b51	-0.04186565
242	0x3dde5bf2	0.10857381
243	0x3d9aa9c5	0.07551912
244	0x3d98322f	0.07431447
245	0xbc43616e	-0.0119250845
246	0xbd9c406a	-0.076294735
247	0xbdb7d962	-0.08977009
248	0xbce07e49	-0.027403967
249	0x3d155e4f	0.036466893
250	0x3bedf4a2	0.0072618285
251	0x3b4eb568	0.0031541232
252	0x3d1fd9b1	0.039025966
253	0xbd9da197	-0.076968364
254	0xbdcc328a	-0.09970577
255	0xbd935c96	-0.07195394

lstm.weight_ih_l1 f4 [256, 64]
0	0x3d1f4948	0.038888246
1	0xbe0c13bc	-0.13679403
2	0x3b2588f8	0.0025258642
3	0x3d15aeb5	0.036543567
4	0x3c4bcfde	0.012439696
5	0xbb6c7a80	-0.0036083758
6	0x3d73ac41	0.059490446
7	0x3de88079	0.11352629
8	0x3d9e8251	0.077397
9	0x3e10c61c	0.14138073
10	0x3db8a5cd	0.09015999
11	0x3da41d0f	0.08013355
12	0x3d6c7dae	0.057737045
13	0xbae05b63	-0.0017117079
14	0xbc655165	-0.013996457
15	0x3e0a1cb8	0.13487518
16	0xbd28e825	-0.041237015
17	0xbca0e43a	-0.019640077
18	0xbe0b912d	-0.13629599
19	0x3d2c73da	0.042102672
20	0x3d807a4c	0.06273326
21	0xbde0ce9d	-0.10976908
22	0xbe00018a	-0.12500587
23	0xbdc6732a	-0.096899346
24	0x3d9e7198	0.0773651
25	0xbdeb0423	-0.114753984
26	0xbdc4fcd1	-0.096185334
27	0xbd4eae12	-0.050458975
28	0xbda24052	-0.079224244
29	0xbdff6bbe	-0.12471722
30	0x3e01629a	0.1263527
31	0x3ca467e2	0.020069066
32	0x3dd4d8d3	0.103929184
33	0x3d1841c5	0.037172098
34	0x3d10078d	0.03516345
35	0x3d690411	0.056888644
36	0xbb320651	-0.002716441
37	0x3ddb046e	0.10694204
38	0x3d668b63	0.056285273
39	0xbde924bd	-0.113839604
40	0x3d2dc054	0.042419747
41	0x3e1cc05e	0.15307757
42	0x3da3c644	0.079968005
43	0xbd937b53	-0.072012566
44	0xbdf2a013	-0.11846938
45	0x3d575a92	0.05257661
46	0xbc456342	-0.012047591
47	0xbd59ebf1	-0.053203527
48	0x3d35050b	0.044194262
49	0x3da9bfd4	0.082885414
50	0xbbe0efbb	-0.0068645156
51	0xbdf3ea2d	-0.119099
52	0xbdb9ac21	-0.09066034
53	0x3defe9e9	0.11714537
54	0x3d327988	0.043572932
55	0x3e14a110	0.14514565
56	0xbc7e8ff1	-0.015537248
57	0x3d9886d4	0.074475914
58	0xbd7cf984	-0.061761394
59	0x3d478097	0.048706617
60	0x3c95eb1f	0.018300591
61	0xbb959e28	-0.004565973
62	0x3cbda716	0.023150962
63	0x3d6ecb91	0.058299605
64	0xbba30d8a	-0.004975979
65	0x3d36a5a8	0.044591576
66	0x3c9cc538	0.01913701
67	0x3ddfbb10	0.10924351
68	0x3d560d29	0.052258644
69	0x3dbb0548	0.09131867
70	0x3d92a05f	0.071594946
71	0x3ac83bce	0.0015276612
72	0xbdd10b0b	-0.102071844
73	0x3b76b0fd	0.0037642114
74	0xbd85c5e9	-0.06531889
75	0x3c469ccd	0.012122345
76	0x3de5ea4c	0.11226329
77	0xbdf525c1	-0.119700916
78	0x3de2744b	0.110573374
79	0x3d6a3a66	0.0571846
80	0xbdd6be4f	-0.10485517
81	0x3deee67b	0.116650544
82	0x39e52944	0.0004370903
83	0xbd79670d	-0.060889293
84	0xbde96af4	-0.11397353
85	0x3d040cd5	0.0322388
86	0x3dbd5983	0.09245589
87	0xbaa94e38	-0.0012916988
88	0x3c0e48c4	0.008684341
89	0x3d05e439	0.032688353
90	0xbd2714fb	-0.040791493
91	0xbdb3888b	-0.08766278
92	0xbda1add0	-0.0789448
93	0x3d541e2f	0.051786598
94	0xbbd80ccb	-0.006593322
95	0xbcf5e441	-0.030016067
96	0x3df26fc9	0.118377276
97	0xbda97606	-0.08274464
98	0xbd7fef0c	-0.062483832
99	0xbcfae6d0	-0.030627638
100	0xbd57448a	-0.0525556
101	0xbe0c7f29	-0.13720383
102	0xbdc8af92	-0.097991124
103	0x3db84391	0.08997262
104	0xbd00c111	-0.031434122
105	0xbdf851eb	-0.121249996
106	0x3d9ef49b	0.077614985
107	0xbd8b7cae	-0.0681089
108	0xbd356b92	-0.04429204
109	0xbd5c118d	-0.053727675
110	0x3d3005fd	0.04297446
111	0x3dd5e018	0.10443133
112	0xbe086839	-0.13321008
113	0x3cac1c20	0.021009505
114	0x3b3a12c4	0.0028392533
115	0xbdc4a791	-0.09602273
116	0xbd88f1f0	-0.06686771
117	0x3d82ee30	0.06393087
118	0xba118633	-0.0005551308
119	0xbd549ae6	-0.051905535
120	0xbced4865	-0.028965184
121	0xbdee1ddd	-0.1162679
122	0xbde24878	-0.110489786
123	0xbdd034dc	-0.10166332
124	0xbbd12817	-0.006382953
125	0xbdd2daf6	-0.1029567
126	0x3dd681dd	0.10473988
127	0x3d4dec42	0.05027414
128	0xbd93d3e8	-0.07218152
129	0xbda15387	-0.0787726
130	0xbdbc0204	-0.09180072
131	0x3c6727f5	0.014108648
132	0xbd65c873	-0.056099366
133	0xbe05cbbb	-0.13065998
134	0xbd818f0b	-0.063261114
135	0x3d21c2a5	0.039492268
136	0xbe0e1b71	-0.13877656
137	0x3d44e084	0.048065677
138	0x3d227c3b	0.039669257
139	0x3ba19b69	0.0049318564
140	0x3d01446b	0.03155939
141	0x3e0130ae	0.12616226
142	0xbd120a68	-0.035654455
143	0x3e152de1	0.14568283
144	0xbc52d876	-0.012868991
145	0x3e0def0a	0.13860717
146	0xbd6b2502	-0.05740834
147	0x3dc9bd62	0.09850575
148	0x3d84186d	0.06449971
149	0x3d8684f7	0.0656833
150	0xbdf610ca	-0.12014921
151	0x3dd0b6b2	0.10191096
152	0x3dc2016b	0.09472927
153	0x3d4a4c9e	0.049389474
154	0x3d14397c	0.036187634
155	0x3daa4179	0.08313269
156	0x3d3a684f	0.045509633
157	0x3c192dd0	0.009349301
158	0x3dbabee7	0.09118443
159	0xbd873344	-0.06601575
160	0x3da0dac0	0.07854223
161	0xbabb80f4	-0.0014305399
162	0xbd8d84e1	-0.0691011
163	0x3d87fb18	0.06639689
164	0x3e0ca203	0.13733678
165	0x3ddc43b7	0.10755103
166	0xbdc6a972	-0.09700288
167	0xbe1a2aa9	-0.15055336
168	0xbc2504de	-0.010071961
169	0xbc14fec6	-0.009093946
170	0x3c348292	0.0110174585
171	0xbd837c93	-0.06420245
172	0xbdc58502	-0.0964451
173	0xbbe809d1	-0.0070812483
174	0xbca9d71e	-0.020732459
175	0x3db29171	0.08719147
176	0x3d4c0277	0.04980704
177	0x3da24f47	0.07925277
178	0xbdcf6bda	-0.10127993
179	0xbdf1bb7a	-0.118033364
180	0x3da26280	0.07928944
181	0xbdf7f722	-0.12107684
182	0xbdb13be7	-0.086540036
183	0xbcbb5062	-0.022865478
184	0x3dcc6ce4	0.09981707
185	0xbd21b82b	-0.039482277
186	0x3d2c0b3e	0.04200291
187	0x3db6e256	0.08929889
188	0x3c904d18	0.017614886
189	0xbda8ba60	-0.08238673
190	0x3d8fe785	0.07026581
191	0x3d247776	0.04015299
192	0x3e04ea25	0.12979944
193	0x3ccd1fdc	0.025039606
194	0x3d3207e9	0.043464575
195	0x3db9d3c1	0.09073592
196	0x3dd1f60d	0.102520086
197	0x3daf4696	0.08558385
198	0xbd8e7607	-0.06956106
199	0xbdb36e2b	-0.08761247
200	0x3db88101	0.090089805
201	0xbdd202c6	-0.10254435
202	0x3c23001d	0.0099487575
203	0x3d00f84b	0.03148679
204	0xbc26666d	-0.010156256
205	0x3dd9d4fa	0.10636325
206	0xbb423393	-0.0029632791
207	0xbdb5a891	-0.08870042
208	0xbdc6801d	-0.096924044
209	0x3cfb6319	0.030686902
210	0xbdfd27d8	-0.12361115
211	0xbe0aff51	-0.13573958
212	0xbcef5712	-0.029216323
213	0x3c0e0db3	0.008670258
214	0xbdcacdf5	-0.099025644
215	0xbdb352f6	-0.08756058
216	0x3b917e58	0.00444011
217	0x3d8abe03	0.06774523
218	0xbdce843a	-0.10083814
219	0x3b4841dd	0.0030556836
220	0x3ce48169	0.027893739
221	0x3c68b81a	0.0142040495
222	0x3d2025ca	0.03909854
223	0xbdab94e0	-0.08378005
224	0x3ca4bd28	0.020109728
225	0xbdb4b742	-0.08824016
226	0xbd1ecb73	-0.038768243
227	0xbdb2f2fb	-0.08737751
228	0x3d0f37ac	0.034965202
229	0xbd11e579	-0.035619233
230	0xbd9ab5a3	-0.07554176
231	0xbd9aac07	-0.07552343
232	0xbdc9f4f5	-0.09861175
233	0x3e0986cb	0.13430326
234	0x3cc76f56	0.024345081
235	0xbd340cbd	-0.04395746
236	0xbc2293fc	-0.009922978
237	0x3c57ec2f	0.013178869
238	0xbd549e18	-0.051908582
239	0xbccfc89d	-0.025364215
240	0x3da77631	0.0817684
241	0xbda68bc1	-0.08132125
242	0xbbdd1495	-0.0067468383
243	0x3cc20677	0.023684723
244	0x3d880594	0.06641689
245	0xbc3af5b2	-0.011411117
246	0xbdffb4b9	-0.12485642
247	0xbdb81c9a	-0.0898983
248	0xbce74766	-0.028232288
249	0xbd9899cf	-0.07451212
250	0xbcae5782	-0.021281961
251	0x3d6848de	0.056710117
252	0x3d8efabf	0.0698142
253	0xbd67bdd9	-0.056577537
254	0xbda30822	-0.079605356
255	0xbd8682ba	-0.06567903

lstm.weight_hh_l1 f4 [256, 64]
0	0x3d398f62	0.045302756
1	0xbb9e73b2	-0.0048355693
2	0x3d140994	0.036141947
3	0xbcea893b	-0.02862989
4	0xbc6978e6	-0.014250016
5	0x3dcbae83	0.09945395
6	0x3e09cfcb	0.13458173
7	0x3c7f5ed2	0.015586572
8	0x3e14d6fa	0.14535132
9	0xbcb3f370	-0.021966666
10	0x3db80475	0.08985225
11	0xbd5a29da	-0.05326257
12	0xbdde1871	-0.108445056
13	0x3c5cbfed	0.013473493
14	0xbd365381	-0.04451323
15	0xbda21ffb	-0.07916256
16	0x3cc447fa	0.023960102
17	0xbd871db0	-0.06597459
18	0x3e0121c0	0.12610531
19	0xbd897e56	-0.0671355
20	0xbd1b7afc	-0.037959084
21	0x3e078c85	0.13237198
22	0x3c775ea9	0.015098252
23	0xbd271024	-0.040786877
24	0x3d7439bf	0.059625383
25	0xbe07cc51	-0.13261534
26	0x3d96deda	0.07366724
27	0xbd5780e1	-0.052613143
28	0x3dc3ada4	0.09554604
29	0x3e04a83f	0.12954806
30	0x3d9ae439	0.07563061
31	0x3deea8b4	0.11653271
32	0xbd997caa	-0.07494481
33	0x3dc2d3f7	0.09513085
34	0xbca67ca7	-0.02032311
35	0x3d463ee0	0.048399806
36	0x3cfce9ac	0.030873142
37	0xbd9a717c	-0.07541177
38	0x3d6b588a	0.057457484
39	0xbcd9d2ba	-0.02658974
40	0x3dd86ab3	0.10567226
41	0x3d96ebbf	0.07369184
42	0xbd6dca9a	-0.058054544
43	0xbd210441	-0.039310697
44	0xbe151fb0	-0.14562869
45	0x3ccf97a5	0.025340864
46	0xbdb6868e	-0.08912383
47	0xbd20c378	-0.039248914
48	0x3dc0a159	0.094057746
49	0xbdf98bc1	-0.12184859
50	0xbda094bc	-0.07840869
51	0xbd8c8eca	-0.06863172
52	0x3d05e32a	0.032687344
53	0xbca8f3f3	-0.020624137
54	0x3d4f375c	0.050589904
55	0x3d5bcea4	0.053663865
56	0x3dd365a0	0.10322118
57	0x3dbbd7bf	0.0917201
58	0x3dc00d92	0.09377588
59	0xbc6093ed	-0.013707143
60	0x3db36623	0.087597154
61	0xbd2a20da	-0.041535236
62	0x3d5bdc6a	0.053677
63	0xbe0599c1	-0.13046934
64	0xbc29b29c	-0.010357525
65	0x3c25b3ef	0.0101137
66	0xbda1b15e	-0.07895158
67	0xbdd025c9	-0.10163457
68	0xbdb02d2d	-0.086023666
69	0xbc2c314d	-0.010509801
70	0xbdcf51e7	-0.101230435
71	0x3ac99f3a	0.0015382536
72	0xbd8d275d	-0.068922736
73	0x3db83c81	0.08995915
74	0x3d46f8c9	0.048577104
75	0xbd418b83	-0.04725219
76	0xbd92a39a	-0.07160111
77	0x3d817344	0.06320813
78	0x3d55d14e	0.05220156
79	0xbd545862	-0.0518421
80	0xbdaed207	-0.08536153
81	0xbd4a6163	-0.04940928
82	0x3c57937e	0.0131577235
83	0xbd0bbaaf	-0.034113582
84	0xba912705	-0.0011074251
85	0x3ce2548b	0.027628204
86	0xbcf64a1f	-0.03006464
87	0xbd349ff4	-0.044097856
88	0x3dc4148d	0.09574232
89	0x3baa7d41	0.0052029197
90	0xbdd63368	-0.10459024
91	0xbda62e3e	-0.08114289
92	0xbd846566	-0.06464653
93	0x3c4a07da	0.0123309735
94	0x3ce98029	0.028503494
95	0xbdcec1f3	-0.10095587
96	0x3d6f43a0	0.0584141
97	0xbd84535b	-0.06461211
98	0xbdcbc6ed	-0.099500515
99	0x3c148e63	0.009067151
100	0x3e04bdf2	0.12963083
101	0xbc181d52	-0.009284334
102	0x3d88ff4a	0.066893175
103	0x3d26e138	0.04074213
104	0x3da75094	0.08169666
105	0x3dea4995	0.11439816
106	0xbd3214db	-0.04347692
107	0x3dd60ad0	0.10451281
108	0x3da19681	0.078900345
109	0x3de4fa4d	0.111805536
110	0x3c1321f8	0.008980267
111	0x3df044d6	0.117318794
112	0x3d04d680	0.032431126
113	0x3d8b499a	0.06801148
114	0x3cbadfea	0.022811849
115	0xbdc75cb6	-0.0973448
116	0xbdd3c768	-0.10340768
117	0x3d926462	0.07148053
118	0x3d4ba522	0.04971803
119	0x3d203876	0.039116345
120	0x3d5e585c	0.054283485
121	0x3d6b5083	0.05744983
122	0x3d150ba7	0.036388066
123	0xbdba3cdc	-0.09093639
124	0x3e0216e4	0.12704045
125	0x3d3d82bf	0.046267267
126	0x3dd072bc	0.10178134
127	0x3d31b41e	0.043384664
128	0xbddb844f	-0.10718595
129	0xbcde5df2	-0.027144406
130	0x3adf87bc	0.0017054002
131	0xbd9a31b2	-0.0752901
132	0xbc3046d6	-0.010759076
133	0x3d6539af	0.055963214
134	0x3d13dfb0	0.036101997
135	0x39be3601	0.0003627986
136	0xbc1ec634	-0.00969081
137	0x3df3d084	0.119050056
138	0xbdb0ff9c	-0.086425036
139	0xbd2acbbd	-0.041698206
140	0xbe0b6d45	-0.13615902
141	0x3c7a7473	0.015286553
142	0x3b867a40	0.004103929
143	0xbd34ae15	-0.04411133
144	0x3d880f2b	0.06643518
145	0xbdd38c43	-0.10329487
146	0xbdb25cf6	-0.08709137
147	0x3d56cb0f	0.052439746
148	0xbdfb4dfe	-0.12270735
149	0x3dd1a6f8	0.10236925
150	0x3dc0be04	0.094112426
151	0xbd40f8d7	-0.047112312
152	0x3da1e9c3	0.07905915
153	0x3ceae95f	0.028675733
154	0x3db6e844	0.0893102
155	0xbae92f28	-0.0017790543
156	0xbc8778a2	-0.016537014
157	0xbd6483b9	-0.055789683
158	0xbcaea8b9	-0.021320688
159	0x3d6ce393	0.05783422
160	0x3dd4f0bd	0.1039748
161	0xbdc89eb8	-0.09795898
162	0xbe0b27d3	-0.1358941
163	0x3cfaa565	0.030596444
164	0x3d8d4da7	0.06899577
165	0xbd9759d3	-0.073901795
166	0xbdd72cee	-0.105066165
167	0x3d935fef	0.07196032
168	0x3e07fb8f	0.13279556
169	0xbd95b939	-0.07310719
170	0xbd2c349c	-0.04204236
171	0xbe0f28eb	-0.13980453
172	0x3d1d9874	0.03847547
173	0x3ce34aee	0.02774569
174	0x3e01b9cc	0.12668532
175	0xbc645fef	-0.013938888
176	0xbbf67a59	-0.007521909
177	0x3d666191	0.05624539
178	0xbd219b56	-0.03945478
179	0xbca28b02	-0.019841675
180	0xbb36a668	-0.0027870182
181	0x3d8b350b	0.067972265
182	0xbd929afc	-0.07158467
183	0x3c40e937	0.011774353
184	0x3df6dab7	0.12053435
185	0xbd890dd2	-0.06692089
186	0xbb4166f3	-0.0029510825
187	0xbdbe939e	-0.093054995
188	0x3d66d6a7	0.056357052
189	0x3dd9f6ba	0.106427625
190	0x3d01f048	0.03172329
191	0xbd809a5b	-0.06279441
192	0x3da9153b	0.082560025
193	0x3a82fd70	0.0009993743
194	0xbcedde34	-0.029036619
195	0x3d39e3f9	0.045383427
196	0x3ddc6a79	0.107624955
197	0x3dd79342	0.10526134
198	0x3e059cef	0.13048147
199	0xbdd7037d	-0.10498712
200	0x3da68e88	0.081326544
201	0x3d828a83	0.06374075
202	0xbd8c878b	-0.0686179
203	0x3dc1d54f	0.094645135
204	0xb8867267	-6.410927e-05
205	0x3cb95146	0.022621762
206	0x3c756617	0.014977953
207	0xbc9c5dcf	-0.0190877
208	0x3dd8520a	0.10562523
209	0xbdfcee00	-0.123500824
210	0x3dd14857	0.10218876
211	0x3ca1383c	0.019680135
212	0xbc2c5921	-0.010519297
213	0xbd1c21f8	-0.038118333
214	0x3d2ad0d8	0.041703075
215	0xbd8960c6	-0.06707911
216	0x3dea7116	0.11447351
217	0xba551a15	-0.00081291917
218	0xbd7020d6	-0.058625065
219	0x3a153a08	0.0005692546
220	0xbdc9498f	-0.09828483
221	0x3bf81451	0.0075707813
222	0xbb2038f1	-0.0024448002
223	0xbdee415c	-0.1163356
224	0xbcdd3580	-0.02700305
225	0x3ce3f3c7	0.027826203
226	0xbdde5641	-0.108562954
227	0xbd8d15bb	-0.068889104
228	0x3c64d178	0.013965957
229	0x3deda297	0.11603277
230	0xbb413d1a	-0.0029485882
231	0xbdd3cb9f	-0.10341572
232	0x3d5251dc	0.0513476
233	0x3bad0407	0.005280021
234	0xbd0d1f0a	-0.03445343
235	0x3dd67ed1	0.10473407
236	0x3dd6b387	0.10483461
237	0xbbb38404	-0.005478384
238	0xbbc7d978	-0.0060989223
239	0xbc6a561e	-0.0143027585
240	0x3c8bddad	0.017073477
241	0xbc8a312e	-0.016869154
242	0xbdb1b819	-0.08677692
243	0xbda9f3a0	-0.08298421
244	0xbdea1ef0	-0.11431682
245	0xbd3cd2bb	-0.046099406
246	0xbc97e669	-0.018542485
247	0x3d7cb8ad	0.061699558
248	0x3d2ccd62	0.042188056
249	0xbd5f12ca	-0.054461278
250	0xbbe234ed	-0.006903282
251	0xbc1c5113	-0.009540814
252	0x3d7837b2	0.06059999
253	0x3d22e0dc	0.039765224
254	0xbde14b44	-0.11000684
255	0x3cfa20f1	0.030533286

lstm.bias_ih_l1 f4 [256]
0	0xbc916b89	-0.017751472
1	0x3cbc9e7c	0.02302479
2	0xbcb05104	-0.021523006
3	0x3daae36d	0.08344159
4	0xbde2dd7b	-0.110774
5	0x3d54cfe8	0.051956087
6	0xbd8d4039	-0.06897015
7	0x3daf13cd	0.085486986
8	0xbdea40c7	-0.114381365
9	0x3e00866a	0.12551275
10	0x3df292f8	0.11844438
11	0x3df7d3cd	0.12100945
12	0xbd942bb1	-0.07234896
13	0x3de74dfd	0.11294172
14	0xbd711d65	-0.058865923
15	0xbc1acf4b	-0.009448837
16	0xbd42aad8	-0.04752621
17	0xbd32c225	-0.043642182
18	0xbd507f18	-0.050902456
19	0xbd3c196e	-0.04592269
20	0xbd82e360	-0.063910246
21	0x3cf36767	0.029712392
22	0x3d09d129	0.033646736
23	0xbc684a1a	-0.014177823
24	0x3d493084	0.049118534
25	0xbd464da8	-0.048413903
26	0x3d078bca	0.033092298
27	0x3d6c0937	0.057625975
28	0x3d0cb808	0.034355193
29	0xbd9b5178	-0.07583898
30	0x3cf87e11	0.03033355
31	0xbd9d515a	-0.07681532
32	0x3db1abd2	0.0867535
33	0xbd3d8f05	-0.046278972
34	0xbd963734	-0.07334748
35	0x3c6cc767	0.014451838
36	0xbdb8a383	-0.090155624
37	0xbd364fad	-0.04450958
38	0xbc027f60	-0.007964939
39	0xbd743bab	-0.059627216
40	0x3e0cd40c	0.13752764
41	0xbc5e9eed	-0.013587696
42	0x3c931fcf	0.017959503
43	0x3d9ef285	0.07761101
44	0x3dc1edd0	0.09469187
45	0xbd4b7aa4	-0.049677506
46	0xbd0410f0	-0.032242715
47	0x3e0c7513	0.13716535
48	0x3c7bb98e	0.015364064
49	0xbd9cfa77	-0.0766496
50	0x3d05c9a5	0.032663006
51	0x3e0a5bde	0.13511607
52	0x3dbf3719	0.09336681
53	0x3d0157e7	0.03157797
54	0x3e0dcc30	0.13847423
55	0x3dd101a6	0.102053925
56	0xbdfe9549	-0.12430818
57	0xbd89bc86	-0.06725411
58	0xbdd976f3	-0.10618391
59	0xbd94799a	-0.07249756
60	0x3dd489a6	0.10377817
61	0x3dccfc6c	0.10009083
62	0xbdae2908	-0.0850392
63	0xbc057667	-0.008145905
64	0x3d0da8d3	0.03458483
65	0xbc941d49	-0.01808037
66	0xbcb5394b	-0.022122046
67	0x3d173f95	0.03692587
68	0x3d38fd88	0.04516366
69	0xbc87ad02	-0.016561989
70	0xbdb07d96	-0.086177036
71	0xbc6c8541	-0.014436067
72	0x3d9084b4	0.07056561
73	0x3d72bed1	0.059264008
74	0x3cf3bea1	0.029753985
75	0x3dbfeb71	0.09371079
76	0xbd47e066	-0.048797987
77	0xbd5aef85	-0.05345108
78	0x3e11884c	0.1421215
79	0x3d90d7b8	0.07072395
80	0x3c86bdd4	0.016447939
81	0xbd4fb041	-0.0507052
82	0xbc2b5eee	-0.010459645
83	0x3b3f3454	0.0029175477
84	0xbc215b63	-0.009848448
85	0xbd6bc186	-0.057557605
86	0xbdf05b72	-0.11736192
87	0x3e0276b2	0.12740591
88	0x3df2044c	0.11817226
89	0x3de9f871	0.114243396
90	0x3d7d8eeb	0.061903875
91	0x3ae19566	0.0017210662
92	0x3d2ba8cd	0.041909028
93	0xbd1d673d	-0.038428534
94	0x3e003a2b	0.1252219
95	0xbbd7d0e4	-0.006586181
96	0xbce23699	-0.027613925
97	0x3b01c891	0.0019803385
98	0xbdbe39cb	-0.09288367
99	0xbc74b14f	-0.014934852
100	0xbd9dacc1	-0.07698966
101	0x3bbf201e	0.005832686
102	0x3e17436e	0.14771816
103	0x3db96bfb	0.09053799
104	0xbd412328	-0.04715267
105	0xbc3944dc	-0.011307921
106	0x3d635251	0.055498425
107	0xbdd56b1b	-0.10420819
108	0xbdc8dc5a	-0.09807654
109	0xbc49f656	-0.0123267975
110	0xbd225cec	-0.0396394
111	0x3e0a163c	0.13485044
112	0x3cf38d06	0.029730331
113	0x3dc7debf	0.09759282
114	0xbdca95a6	-0.098918244
115	0x3dd7b690	0.10532868
116	0x3dfd57be	0.12370251
117	0xbd760596	-0.06006392
118	0xbd14f0b7	-0.036362376
119	0x3df03261	0.11728359
120	0xbd976514	-0.07392326
121	0x3e14d2ac	0.1453349
122	0x3d570ed1	0.052504364
123	0x3dd0e2ff	0.10199546
124	0xbdbdff08	-0.09277159
125	0x3d1ba92f	0.038003143
126	0x3c635f86	0.013877755
127	0x3d1d0df4	0.038343385
128	0xbd939edd	-0.07208035
129	0x3d03ea34	0.032205775
130	0x3dd58ae7	0.10426884
131	0xbd57d47e	-0.052692883
132	0x3d345207	0.04402354
133	0xbd8f0db9	-0.06985039
134	0xbc115580	-0.008870482
135	0x3dfa7c29	0.12230713
136	0x3d712599	0.058873747
137	0x3d9e3f79	0.0772695
138	0xbe134279	-0.14380826
139	0xbdd55714	-0.104169995
140	0xbd171445	-0.036884565
141	0x3dc055e3	0.093913816
142	0x3d109e34	0.035307124
143	0xbbd7d1c0	-0.0065862834
144	0xbd400f11	-0.04688937
145	0xbdffa538	-0.12482685
146	0x3d7edb21	0.062220696
147	0x3da415b7	0.08011954
148	0x3d61c98f	0.055123862
149	0x3cafa4ed	0.021440947
150	0x3ce6c4be	0.028169986
151	0x3e0c443b	0.13697903
152	0xbc0a0b1c	-0.0084255
153	0xbd9275da	-0.07151385
154	0xbde9d3ef	-0.11417376
155	0x3d0fa2c8	0.03506735
156	0xbdcb0be8	-0.0991438
157	0x3d402156	0.04690679
158	0xbda58664	-0.080822736
159	0x3db7d5e2	0.08976342
160	0x3d945c63	0.07244184
161	0x3d48f0f9	0.049057934
162	0x3dd19458	0.102333724
163	0xbd4f09ec	-0.05054657
164	0x3c1ef062	0.009700866
165	0x3c85f2f9	0.01635121
166	0x3e036fb3	0.12835579
167	0x3dcacb7d	0.099020936
168	0x3e0f1037	0.13971029
169	0xbbb7636c	-0.005596569
170	0x3ddac36f	0.10681807
171	0xbdb9c57c	-0.0907087
172	0x3cf561ba	0.029953826
173	0x3c415fb3	0.011802602
174	0xbd87e816	-0.06636064
175	0xbd9e3818	-0.07725543
176	0xbd82dd8a	-0.063899115
177	0xbdf797ce	-0.12089501
178	0x3d0b590f	0.03402048
179	0xbdd283cb	-0.10279044
180	0xbc5a076f	-0.013307436
181	0xbdec9c57	-0.11553257
182	0xbc47c4ae	-0.012192888
183	0x3cbe7dca	0.02325334
184	0x3dccfab5	0.10008756
185	0xbe1a6350	-0.15076947
186	0x3dcbb05c	0.09945747
187	0x3dc33d60	0.09533191
188	0xbdce110e	-0.10061847
189	0x3d4d4d9b	0.05012284
190	0xbd860a0f	-0.06544887
191	0xbd2f65a3	-0.042821538
192	0x3d60012f	0.05468863
193	0x3da8f73f	0.082502834
194	0x3c2771ab	0.010219972
195	0x3da0a511	0.07843984
196	0x3daa624b	0.08319529
197	0x3dbc02e9	0.091802426
198	0x3da0c258	0.07849568
199	0xbce427bf	-0.027850984
200	0xbd7694e9	-0.060200606
201	0xbdc33f61	-0.09533573
202	0x3e10d519	0.1414379
203	0xbdc40cd7	-0.095727615
204	0xbb1e87bb	-0.0024189788
205	0xbde6139f	-0.11234211
206	0x3da9d234	0.08292046
207	0x3d51a97b	0.05118702
208	0xbddc8c8f	-0.10768997
209	0xbd87d970	-0.0663327
210	0xbdd3b2f5	-0.10336868
211	0xbd2eecbc	-0.042706236
212	0x3c30d171	0.010792122
213	0x3d9cd1af	0.076571815
214	0xbc304c7c	-0.010760423
215	0x3c789bd9	0.015173876
216	0x3d6a162c	0.05715005
217	0xbd549f7b	-0.051909905
218	0xbdb36769	-0.08759958
219	0x3d84200f	0.06451427
220	0xbcf6c888	-0.030124918
221	0x3e0a843d	0.13527007
222	0x3df3e9b5	0.119098105
223	0x3db8c1de	0.09021352
224	0xbd1ab8b9	-0.03777382
225	0x3dae08fb	0.08497807
226	0x3dbd3ebf	0.092404835
227	0x3dc98c0a	0.098411635
228	0x3db132e4	0.08652285
229	0x3dee8bd0	0.11647761
230	0xbd886d28	-0.06661445
231	0xbd5cec59	-0.053936336
232	0xbdcb87e1	-0.09938026
233	0x3d18918b	0.037248176
234	0xbbde00dc	-0.006775005
235	0x3dd38638	0.103283346
236	0x3d890291	0.06689943
237	0x3d1d26b5	0.038366992
238	0x3d15de7f	0.036589142
239	0x3d344b7b	0.044017296
240	0xbda47cd3	-0.08031621
241	0xbda6ce16	-0.081447765
242	0xbd7c57c7	-0.06160715
243	0x3dbbf381	0.09177304
244	0xbd7ab50f	-0.061207827
245	0x3c9e9b80	0.019361258
246	0x3db66e8a	0.089078024
247	0x3b11b618	0.002223378
248	0x3c2094a9	0.009801068
249	0x3b5cbf07	0.0033683197
250	0xbdcc71f1	-0.0998267
251	0xbe0b7700	-0.13619614
252	0x3cfd6493	0.030931747
253	0x3deb7283	0.11496451
254	0xbdaa2b2e	-0.08309017
255	0x3d20e45e	0.039280288
