src/deep_learning/artifacts/lstm_model_MSFT.pt (torch, 217167 bytes, 12 tensors)

lstm.weight_ih_l0 f4 [256, 2]
000000 82 c5 4f bd fd 88 c8 bd e8 2c a5 3d cd 19 09 bc
       -0.050725468 -0.097917534 0.08065206 -0.008367968
000010 5c 23 b1 bd f5 ca 10 bd cb 88 cc 3d be fa d6 3d
       -0.086493224 -0.035349805 0.09987029 0.10497044
000020 09 5f 2e 3e 69 43 8a 3d a2 7f 0d 3e 0f 3a 09 38
       0.1702844 0.06751139 0.1381822 3.2717417e-05
000030 71 be 1e bd ba 19 70 bd 6c a5 76 bd 3f 54 46 3d
       -0.038755838 -0.058618285 -0.060216352 0.048420187
000040 6e 88 d4 bc e6 fc a9 3d cc c2 98 bd fb e2 c3 3d
       -0.025943961 0.0830019 -0.074590296 0.095647775
000050 45 5a 0d 3e 32 aa f0 bd e8 c3 0c 3e 92 b6 8e bd
       0.13803966 -0.11751212 0.13746607 -0.06968416
000060 f6 d4 9d bd b6 82 e6 3d 4a f7 a0 3d 2f 7b ba 3c
       -0.07706635 0.112554 0.07859667 0.022763817
000070 81 c2 4f bd db 39 e2 3d 60 93 19 3e 95 01 74 3d
       -0.050722603 0.11046191 0.14997625 0.05957182
000080 a7 34 19 3e 49 63 60 bc 45 7c 14 3d 48 cd 32 3d
       0.14961492 -0.013695546 0.036251325 0.043652803
000090 34 9a 65 3d 74 8e 12 bd 67 65 f7 bc 3c 13 9b bd
       0.056055263 -0.035780385 -0.03019972 -0.07572028
0000a0 a1 ba c8 3c 5e 48 a1 3d f0 52 d1 3d 32 71 4a bc
       0.024503054 0.07875131 0.10220897 -0.012356089
0000b0 d5 7d d1 3c 42 f0 a9 bc 4c da cd 3d 91 ab bf 3d
       0.025572697 -0.020744447 0.100514024 0.093588956
0000c0 57 18 ae bd a3 f4 a4 bc b5 76 a7 bd 79 08 52 bd
       -0.08500736 -0.020136183 -0.081769384 -0.05127761
0000d0 37 26 f8 ba 69 5d 71 3d e7 7d 37 bd b2 06 b3 bd
       -0.0018932287 0.058926973 -0.044797804 -0.087415114
0000e0 ec 1b eb bc 2e 40 f6 bd 24 e8 bf 3d ba e5 0e bd
       -0.028699838 -0.1202396 0.09370449 -0.034887053
0000f0 f2 ce d8 bd b0 89 8b 3d fe db 07 3c da a1 4d 3d
       -0.10586347 0.06813371 0.008292196 0.05020318
000100 9c 8e a1 bb 8a 34 91 bd dc 75 08 3e 4a 15 da bb
       -0.0049303304 -0.07090099 0.1332621 -0.00665537
000110 47 99 6c 3c 6a 96 c1 bd 9f ce c0 3d 03 03 8d bc
       0.014440841 -0.09452517 0.0941441 -0.01721335
000120 2f b3 1e 3e 48 5f 97 3d 98 4a 9b 3d a8 4d b5 3d
       0.1549804 0.0739122 0.07582587 0.088527024
000130 f6 ed f9 3d 72 96 ed 3d 6d 75 07 bd 90 5b e5 bd
       0.122035906 0.11600961 -0.03307097 -0.11199105
000140 30 34 cf 3d 56 9d d5 bd d5 79 8b bd 1f b2 78 3d
       0.10117376 -0.104304 -0.06810347 0.060716745
000150 01 99 5e bd d1 06 7b bb 79 53 91 bd 82 d1 fb 3b
       -0.054345135 -0.0038303623 -0.07095999 0.0076848874
000160 3a 65 ac bb a0 42 58 3d 82 a4 a3 3d 02 a0 05 3e
       -0.0052610906 0.052797914 0.07990362 0.1304932
000170 7f 57 b6 bd eb 1c d1 bd 47 e3 13 bd 4c 0c b9 bb
       -0.08903407 -0.10210594 -0.03610542 -0.005647218
000180 c2 d4 07 bd c4 a5 7d bd 1e 17 08 3e b0 ea a3 3d
       -0.033161886 -0.061925665 0.13290069 0.080037475
000190 b6 76 d0 3d b4 bb 09 bc 70 fb f5 3d f8 e0 26 bd
       0.10178892 -0.008406568 0.120108485 -0.04074189
0001a0 82 94 6f 3d a4 da 80 3d e5 66 c2 3c 40 78 d5 3c
       0.058491237 0.062917024 0.023730705 0.026058316
0001b0 0c b6 8d 3d cb 07 af 3d a8 c6 1b 3e c8 19 d2 3c
       0.06919488 0.08546408 0.152125 0.02564706
0001c0 25 d1 eb 3d e3 e1 38 3d 46 28 8d 3d f6 d8 6f 3d
       0.115145005 0.045137297 0.06892447 0.05855652
0001d0 b2 32 ab 3d f1 ef b2 bb 7f e9 11 be 40 00 7f 3d
       0.08359279 -0.005460732 -0.14249228 0.062256098
0001e0 86 f0 01 3d a2 22 ee 3c 28 a6 0b bd ba 54 ab 3d
       0.03172352 0.029069249 -0.034094006 0.0836577
0001f0 c8 56 d9 3d 87 f9 f9 3d 63 8e 00 bd 55 44 a4 bd
       0.10612255 0.12205797 -0.03138579 -0.08020846
000200 69 5b 69 3a ca ea cf 3d 09 c1 f0 3d 39 1d da 3d
       0.0008901866 0.10152204 0.117555685 0.10650105
000210 1a a2 e2 bc 9b 7d 00 3d 46 1f 7d 3d d2 d3 14 3c
       -0.027665187 0.031369787 0.061797403 0.009083705
000220 9f 89 f9 3c 73 2c 08 3e 33 63 05 bd f1 6e 9f bd
       0.03046113 0.13298206 -0.032565307 -0.07784832
000230 08 00 79 3d 1e 10 fc bd c0 ce 87 3d 97 bb 32 bd
       0.060791045 -0.123077616 0.06631231 -0.04363593
000240 ef 93 bf bd db 4e 92 3d d9 12 65 3d b5 1a 31 bc
       -0.09354388 0.07143947 0.055926178 -0.01080959
000250 76 6b 75 3d 5d b4 fe bc 56 18 d4 bd 2d 3b b6 bc
       0.059916936 -0.031091863 -0.10356204 -0.022245014
000260 a7 6a d1 3d c4 2c c6 3d 24 cb 5d bd ad 0a ee bc
       0.102254204 0.09676507 -0.054148808 -0.029057825
000270 fe 6d 89 3d b4 51 f3 bd 26 e7 6b 3d 34 54 00 3e
       0.067104325 -0.11880818 0.057593487 0.12532121
000280 18 7c 29 3d 6d 39 3f bd 34 1b a5 3d b2 d4 e2 bd
       0.04137811 -0.046685625 0.08061829 -0.11075725
000290 27 f6 39 bd 73 44 1b 3d b3 5a 6b bd 46 d8 73 3d
       -0.045400765 0.037907075 -0.057459544 0.059532426
0002a0 a5 7d a5 3d 5e 9b ad 3c 33 54 00 3e df dc d4 bb
       0.080806054 0.021192249 0.1253212 -0.0064960564
0002b0 bb 84 6c 3d 2e 71 31 3c ca 2c e5 3d 14 e7 b8 3d
       0.05774377 0.010830207 0.111901835 0.0902845
0002c0 24 c9 93 3d 3c ed df 3d 03 a3 30 bc 48 cd 34 3d
       0.07216099 0.10933921 -0.0107810525 0.044141084
0002d0 67 90 08 3e 78 ef 9e 3d 26 dc 84 3d f2 ae 03 3e
       0.13336335 0.07760519 0.064873025 0.12859705
0002e0 36 2b 70 bd 48 ea 28 bd 3a 55 b3 3d 96 0a 3d bd
       -0.05863496 -0.041239053 0.0875649 -0.046152674
0002f0 e3 92 e4 3d 28 1d e2 3d 52 7d 95 bc c9 7f 8e 3d
       0.11160829 0.11040717 -0.018248234 0.06957967
000300 78 95 bf bb 06 bf 1b bd 19 b8 34 3e e5 f3 53 bd
       -0.0058466755 -0.03802397 0.17648353 -0.051746268
000310 1e 5d 10 3d e1 a5 fa bd b5 4c 33 bd 1a 4d 9f 3d
       0.035245053 -0.1223867 -0.043774325 0.07778378
000320 f4 06 24 3e f4 6e d2 3c 9d 6b c0 3d 8c b8 e4 3b
       0.16018277 0.025687672 0.093955256 0.0069800075
000330 13 fd 2c bd a6 e4 dc 3c 39 a0 95 3d 07 b9 f1 bd
       -0.042233538 0.026964497 0.07305951 -0.11802869
000340 6d 8b d0 bd 16 e9 a7 3d a8 ea ba 3d 66 c4 ce 3d
       -0.10182843 0.081987545 0.091267884 0.10096054
000350 a7 f3 d6 3d d9 84 65 3d ae 97 27 3e 99 e5 fd 3d
       0.10495692 0.056034897 0.16366455 0.12397308
000360 14 1b 85 bd 82 0d 60 bd f9 51 87 bd 5f a5 89 bd
       -0.06499305 -0.054700382 -0.06607432 -0.06720995
000370 4b 43 98 bd 94 f4 a3 3d 40 6d 92 3d bd ed bc bc
       -0.0743471 0.08005634 0.07149744 -0.023062581
000380 97 f0 05 3d 3c a4 e7 bd 7e 6d 9b bd 16 4f f5 bd
       0.032700147 -0.11310622 -0.07589243 -0.11977975
000390 77 f6 f5 bc 8d 4d f5 3d d6 2a 94 bd ce 23 4a 3c
       -0.03002475 0.11977682 -0.07234733 0.012337638
0003a0 3c 31 01 bc f6 6a 97 3d 96 b6 a0 bc e7 93 c4 bd
       -0.007885274 0.07393448 -0.019618314 -0.09598523
0003b0 69 1f 91 bd 8c 45 85 3d e5 1c a2 3d 1c 82 c0 bd
       -0.07086069 0.06507406 0.079156674 -0.093998164
0003c0 aa 0c 17 bd 18 5a 09 3e 11 d6 31 3e 98 51 6c 3c
       -0.03687731 0.13413274 0.17366816 0.01442375
0003d0 03 c1 bc bc a0 a3 5e bc 96 52 8a bd 47 3d 12 3e
       -0.023041254 -0.013588816 -0.06754033 0.14281188
0003e0 28 46 61 bd 89 36 96 bc b5 c9 6b 3d bb da 43 bc
       -0.054998547 -0.018336551 0.05756541 -0.011954005
0003f0 72 a5 d1 3d 45 e6 0a 3d cc 80 ca 3c 5a 10 e3 bd
       0.10236634 0.03391101 0.024719618 -0.11087103

lstm.weight_hh_l0 f4 [256, 64]
000000 db fb 6e bd 11 75 d0 3d f6 1b e9 bd cc ce e4 bd
       -0.058345657 0.10178579 -0.11382286 -0.11172256
000010 54 e7 9f bd ab b4 8a 3d 37 43 ec bd ff 0c f9 3c
       -0.07807794 0.06772741 -0.11536258 0.030401705
000020 55 7a ed bd 5b 4e cd 3d d9 14 92 bd c8 c3 a8 bd
       -0.115955986 0.10024711 -0.071328826 -0.08240467
000030 67 cc e6 3c b3 89 d1 bd 13 f6 07 bd bd ad 84 3d
       0.028173639 -0.10231342 -0.03319366 0.064784504
000040 9f 19 39 3d fa 5c b8 3d bb f7 fd 3d bc c3 a6 3d
       0.04519045 0.09002109 0.124007665 0.08142802
000050 86 09 e0 bd 95 c4 b2 bd 34 43 12 bc d7 7a c0 bd
       -0.109393165 -0.08728901 -0.008927155 -0.0939843
000060 a2 94 bf 3d 12 34 35 bd 4f 27 b8 bd 5c e1 2d 3d
       0.09354521 -0.04423911 -0.089918725 0.042451248
000070 71 a7 01 be 4a ba 36 3c d4 7e c3 bd 14 25 6f bd
       -0.1266153 0.011152813 -0.09545675 -0.05838497
000080 93 dc 34 3d 2b 1a 0d bc 73 2a cb 3d 14 8d 84 3d
       0.04415567 -0.008612196 0.09920206 0.06472221
000090 3d a6 99 3d 33 aa 9c 3d 62 48 f0 3d 24 d0 0b bc
       0.075024106 0.076496504 0.11732556 -0.008533511
0000a0 2c 80 ce 3d 59 f5 d4 3d de 00 89 bd ac 5d 00 be
       0.100830406 0.10398359 -0.066896185 -0.12535733
0000b0 d5 77 0d bb 88 02 6c 3b 2c 70 ec ba a1 68 49 bd
       -0.0021586318 0.003601225 -0.0018038801 -0.049172048
0000c0 17 a9 e5 bd 3c 6c ca bd b6 92 b3 bd 1b a2 ea bc
       -0.11213892 -0.09883925 -0.08768217 -0.028641751
0000d0 ba f1 22 bd 13 86 76 3c ee c3 c6 bd 1b 85 9e bd
       -0.03978131 0.015046614 -0.09705339 -0.077402316
0000e0 ed 7f b3 bd b7 ab b6 bc 58 1e f9 bc 55 de 23 be
       -0.08764634 -0.022298677 -0.030409977 -0.16002782
0000f0 86 27 bc 3d 9f 52 85 3c 69 25 dc 3c 79 79 59 bd
       0.09187226 0.016274748 0.026873307 -0.05309436
000100 fe 23 d1 3d 3e 3d b8 bd 20 ff 5f bc d2 7a 50 bb
       0.10211943 -0.08996056 -0.013671666 -0.0031811488
000110 d0 23 3a 3d d1 19 87 bd 67 f7 f1 bc f8 84 62 bc
       0.04544431 -0.06596721 -0.029536916 -0.0138256475
000120 2a b6 c7 3d 49 76 ab bd fa 91 6a bd e6 ee c8 3d
       0.09751542 -0.083721705 -0.05726812 0.09811191
000130 a6 36 8b bd 60 fa aa 3c 75 61 f9 bc 5f 4e c4 bd
       -0.06797533 0.020871341 -0.030441979 -0.095852606
000140 63 f3 8c 3c cf a3 34 bd a8 a9 7a 3d 71 70 6d 3d
       0.0172059 -0.044101533 0.061196953 0.05796856
000150 67 03 ec bd 08 1b 95 3d 64 80 ca bd 41 1e ab bd
       -0.115240864 0.072805464 -0.0988777 -0.0835538
000160 22 09 d9 3d 15 2f 34 bd 49 ce d0 3d 43 9c f3 3a
       0.10597445 -0.043990213 0.10195596 0.0018585998
000170 7e c2 5e 3d f3 0f 54 bc bb 3e 36 3a d4 4b c4 3d
       0.0543847 -0.012943256 0.00069520966 0.095847756
000180 ac 1d 01 be 06 e1 e9 3d ca 14 e7 bc 79 e9 df bc
       -0.12608975 0.11419873 -0.028208155 -0.027333008
000190 37 8d 34 3d eb fd 06 be 98 75 d5 bd a5 12 41 ba
       0.044079985 -0.131828 -0.1042282 -0.0007365144
0001a0 ae f7 e4 3d 0c 56 ce 3c 0d c8 63 bb 02 e0 0a bd
       0.11180054 0.025187515 -0.003475669 -0.033905037
0001b0 48 7e b5 bd ad 02 65 bd 49 6b ec 3c c0 ca eb bb
       -0.08861977 -0.055910755 0.028859751 -0.0071958005
0001c0 44 50 fc bc 97 bf ca bd 32 cf 8e 3d d9 8f 04 3a
       -0.030799992 -0.09899824 0.06973113 0.00050568354
0001d0 fa 9d 56 bc 2d 1d 98 bd 9d 35 9a bd fc 10 f3 bd
       -0.013099188 -0.0742744 -0.07529757 -0.11868474
0001e0 2c 8c 00 bd 95 1d 2a bb 08 a6 07 be 66 66 a3 3c
       -0.03138368 -0.0025957574 -0.1324693 0.019946288
0001f0 02 70 b8 bd a7 11 19 bd ab e9 c0 bd 29 c5 e9 bd
       -0.09005739 -0.03737035 -0.09419569 -0.114145584
000200 48 1d bc 3d 22 5c 5f 3d 77 82 9e bd d6 88 18 bd
       0.091852725 0.054531224 -0.07739728 -0.037239872
000210 ab 0e a0 bc 17 9b ce bd 0f c2 91 bd 5b 94 90 3d
       -0.019538244 -0.10088175 -0.07117092 0.070595466
000220 98 b4 04 bc ef b4 89 bd f4 14 54 3d 5a 23 c7 bd
       -0.0080996975 -0.067239635 0.051777795 -0.0972354
000230 f8 05 a5 bd fc 1f 02 be 5c a9 17 3d 46 29 09 3c
       -0.08057779 -0.12707514 0.037026748 0.008371657
000240 a1 2b 0d 3e 4f 4a 2d 3d cd 54 9b 3d e0 00 ab bc
       0.13786174 0.042307194 0.07584534 -0.02087444
000250 2a df 94 3c 84 e6 bf bd 9b 43 36 3d 81 39 6a 3c
       0.01817282 -0.09370139 0.044498067 0.014295937
000260 6e 86 48 3d 6d 3f 1c 3c d1 5e 1d bb ab b8 02 3e
       0.048956327 0.009536606 -0.0024012814 0.12765758
000270 ee fd 16 bd ca c1 bc 3d fd d4 f2 3b a8 f1 2c bd
       -0.03686326 0.0921665 0.007410644 -0.04222265
000280 e9 bd 44 bc 96 89 98 3d a5 8e f6 3d 25 cf df bd
       -0.012008169 0.074481174 0.12038926 -0.109281816
000290 0b a7 30 3c 35 76 2e bd 7e 7a 71 3d e0 88 08 3e
       0.010782014 -0.0425932 0.05895471 0.13333464
0002a0 bd 97 f7 bc 61 cd e0 3d 7a 85 e1 bb 74 7e 5f 3a
       -0.030223722 0.10976673 -0.0068823667 0.0008525618
0002b0 f4 64 06 3b 56 fa e9 bd 59 d3 db 3d 52 8a fc bd
       0.002050695 -0.11424701 0.10733671 -0.1233107
0002c0 8b df 92 bd 26 ae c8 bd eb be cc 3d 33 20 96 3c
       -0.07171544 -0.09798841 0.09997352 0.0183259
0002d0 13 1c be bd 2d 99 57 3b 62 d1 a2 3b 5e bc aa 3d
       -0.092826985 0.0032897696 0.004968808 0.083367094
0002e0 74 f7 2c bd f7 ec 05 3e 05 94 bf bc 0a 4c a1 bc
       -0.042228177 0.13078676 -0.02338601 -0.019689579
0002f0 4c a1 ac bc 1f 3f d2 bd 33 02 2b bd d8 5c 90 3c
       -0.021073006 -0.10265946 -0.041750144 0.017622396
000300 70 74 6e 3d f4 9b 1a bd 8b 05 a7 bd 57 7d 4e 3d
       0.058216512 -0.037746385 -0.08155354 0.050412502
000310 cd 37 60 bd 39 c8 d3 bd f3 a0 96 bc 53 96 35 3d
       -0.054740716 -0.10340924 -0.018387293 0.044332813
000320 6f bd e7 3d 04 fe ed 3d fb 38 85 3b 88 19 c0 3d
       0.113154285 0.11620715 0.0040656305 0.0937987
000330 be 44 7e 3c fe 15 94 bd ab 2d b1 b9 77 f9 d3 bd
       0.015519319 -0.07230757 -0.00033794096 -0.10350316
000340 ab 7d 77 bd 9f 01 b8 3b 96 ff d6 3b 1d c0 05 3d
       -0.06042258 0.0056154276 0.00656123 0.032653917
000350 8f e6 cc 3c 97 90 4d bb 5f dc af bc 59 8c 90 3d
       0.025012283 -0.00313667 -0.021467386 0.07058019
000360 67 18 cf 3d d5 4f d9 3c 5e ff b5 bd 86 16 a0 bd
       0.10112076 0.026527325 -0.08886598 -0.07816796
000370 e8 9a 8c 3d 61 bf 8c bc 13 59 bf 3b df 57 b1 3d
       0.068654835 -0.0171811 0.005839476 0.08659338
000380 d8 e7 5e bc c4 5e 14 3e 2d b4 ed 3d 1d 2d 59 3c
       -0.013605081 0.14489275 0.116066314 0.013255385
000390 72 cb 8c 3d 0c 97 02 be c9 a2 ad 3d ef 25 84 bd
       0.068747416 -0.12752932 0.084783144 -0.06452548
0003a0 d4 9a 23 bb 6e 23 79 3d b3 cf a0 bc 6c 5d 2f bd
       -0.002496411 0.060824804 -0.019630289 -0.042813703
0003b0 b8 c4 3a 3d 17 ec 0a 3e 84 39 cf bd b5 1c c2 3d
       0.045597762 0.13566624 -0.10118392 0.09478132
0003c0 3f a5 b4 bd 23 94 f3 bd cc 64 cd 3d ea 8b 35 be
       -0.08820581 -0.11893489 0.10028991 -0.17729154
0003d0 e0 26 a3 3c c9 31 e8 3b 7c 8c 87 bd 32 91 8d 3d
       0.019915998 0.007086013 -0.06618592 0.069124594
0003e0 a9 34 97 3d 5f 76 0a 3e 20 7e 1f 3d 27 d7 c0 3c
       0.07383091 0.13521717 0.03893864 0.023540093
0003f0 bc 84 e7 bd 88 8c eb bd 3a c7 93 bd 35 ae 04 3d
       -0.11304614 -0.115014136 -0.07215734 0.0323927

lstm.bias_ih_l0 f4 [256]
000000 92 78 73 bc aa b0 5e 3c 87 92 d9 3d 1b 2b cf bd
       -0.014860289 0.013591925 0.10623651 -0.101156436
000010 4b b2 ac 3d 78 6c 43 3d 7d 41 04 bc bd 9d ca 3c
       0.08432444 0.047710866 -0.008072254 0.024733419
000020 a5 d6 27 bb 65 70 df 3d a0 20 d7 3d ef 3f 46 bd
       -0.0025610116 0.109101094 0.105042696 -0.048400816
000030 76 da ae 3b 1e 45 aa 3d ec 32 8e 3c 3d 91 e2 bd
       0.005336101 0.08313964 0.017358266 -0.11062858
000040 28 fb ba 3d eb 57 86 3d 42 7c a2 bd 48 fb ff 3d
       0.091299355 0.06559738 -0.079338565 0.124991
000050 70 5e 0e bd ee 1f aa bd da 26 ac bd 87 15 d5 3c
       -0.03475803 -0.08306871 -0.08405848 0.026011242
000060 5f 83 cc 3d 1d 6f 09 3d 06 02 a6 3d d8 73 11 bc
       0.099859945 0.03355323 0.08105855 -0.008877717
000070 25 91 29 3d 4e d7 c1 bd 51 cf 0e 3d 71 fc a9 3d
       0.041398186 -0.09464894 0.03486568 0.083001025
000080 07 ff ed 3d 12 54 0e 3e e2 32 12 3d 5e 10 84 bd
       0.11620908 0.13899258 0.035693057 -0.06448434
000090 16 57 12 3e 8c 47 eb 3c 26 6b 26 3d 06 80 10 bd
       0.14291033 0.02872064 0.04062953 -0.035278343
0000a0 8c 01 a2 3d 13 75 b6 3c 0a 77 91 3d 80 28 ad 3c
       0.07910451 0.022272622 0.07102783 0.021137476
0000b0 ea 6e d2 bc 87 e3 79 bd 1b fe 04 3e 25 50 4d 3d
       -0.025687654 -0.061008003 0.12987559 0.05012526
0000c0 68 3d 21 bd 0a d9 d3 3d b1 66 89 3d db 13 fa 3d
       -0.039365202 0.10344131 0.0670904 0.122108184
0000d0 81 ff 95 bd a9 81 91 bd 54 c1 01 3e db b2 94 3d
       -0.07324124 -0.07104809 0.12671405 0.072606765
0000e0 1d 57 31 bc 6d 07 8d bd 89 9e b7 bd 2d 40 a9 3d
       -0.010823992 -0.06886182 -0.08965785 0.08264194
0000f0 51 f1 d6 3b 84 c3 06 be 90 fe 01 3e 02 21 9e bd
       0.006559529 -0.13160521 0.12694764 -0.077211395
000100 63 34 86 bd 1c 3d 14 3d 38 02 b5 3d eb 64 c8 3d
       -0.06552961 0.03619109 0.08838314 0.097848736
000110 da 7a 58 3d 5b 06 81 3d ed 8d 23 bb 52 3e 81 bd
       0.052851535 0.0630004 -0.002495642 -0.06310715
000120 96 19 d6 3c ed bb 15 bd f3 6a 2c 3d 41 6b 00 3c
       0.026135247 -0.036556173 0.042094182 0.007838071
000130 66 57 ae 3d dc ef 7f 3d db 41 ea bc 70 bb bf 3d
       0.08512764 0.062484607 -0.028595855 0.09361923
000140 76 04 ca bd cf 42 b7 3d db d6 e4 bc c5 37 26 3b
       -0.09864132 0.089482896 -0.027934482 0.002536283
000150 70 5c 40 bd e7 0d f7 bd 7c 9a b6 bd 05 77 b4 3d
       -0.046963155 -0.120631985 -0.08916184 0.08811764
000160 cc 63 c0 3d 48 ca 26 3d 16 93 0a 3e f7 6d 80 3d
       0.09394035 0.040720254 0.13532671 0.06270974
000170 aa 0c 72 3d 11 52 fe 3c f0 6c c0 3d 45 0e 96 bd
       0.05909411 0.031044992 0.09395778 -0.073269404
000180 37 f0 bb bd 03 2a 73 3c a2 3d 15 3d e3 25 7e 3d
       -0.09176677 0.014841559 0.03643573 0.06204785
000190 19 37 8e bd 7b d1 1d 3e c6 ca 84 3d 25 c4 1b bd
       -0.06944103 0.15411942 0.064839885 -0.038028855
0001a0 bc af 52 bc 54 87 aa bd 32 e6 94 3d 37 eb 92 3d
       -0.012859281 -0.08326593 0.07270469 0.0717377
0001b0 ab bc 83 3d 97 8f db 3c d4 ca 12 3d 4b 13 1e 3d
       0.0643247 0.026801867 0.035837963 0.038592618
0001c0 97 68 56 3c c7 b1 e2 b9 8e 5c d0 3d ae ae f8 3d
       0.01308646 -0.00043238534 0.101739034 0.121426925
0001d0 9b 91 7b bd aa c2 dd bd cf 79 9e 3d c3 da 35 3d
       -0.061418157 -0.10828145 0.07738077 0.04439808
0001e0 ea 46 5e 3b 71 d8 4b bd 06 b7 da 3d 14 4b 0c 3e
       0.003391678 -0.04976696 0.1067944 0.13700515
0001f0 21 78 2d bd d3 e1 2f bb 1f a2 16 3e a7 37 c3 3d
       -0.042350892 -0.0026837483 0.14710282 0.09532099
000200 77 40 03 be fd 7f f4 3c 32 e5 f3 3d ba 4b cf bc
       -0.1281756 0.029846186 0.1190895 -0.025304664
000210 19 e4 98 bc e3 05 58 bd 4d 44 f6 3c 90 13 67 bd
       -0.018663453 -0.05273999 0.030061865 -0.05641514
000220 3a 08 11 bd 6d 9b b1 3c e3 eb ce bd 78 75 37 bd
       -0.035408236 0.021680558 -0.101035856 -0.04478976
000230 72 aa c1 bd 3a 11 96 3d c6 1a 1a bd 34 8a d5 3a
       -0.09456338 0.073275045 -0.03762319 0.0016291798
000240 d8 43 ba 3d bf b3 b2 3c 22 71 d5 bd cf a8 ac bd
       0.090949714 0.021814225 -0.10421969 -0.08430635
000250 71 fa a9 bd bf b8 67 bd b6 4d ad 3c cf b5 ab bd
       -0.08299721 -0.056572672 0.02115522 -0.083842866
000260 6c 14 6d bd a0 e3 8e bd 1b 44 02 3e 9f db fc 3d
       -0.057880804 -0.0697701 0.12721293 0.12346577
000270 56 3d 1e 3d a8 08 ce 3d cc b9 a4 bd 1d 20 c9 3d
       0.038632713 0.10060245 -0.080432504 0.09820578
000280 e0 67 fa 3d 3a ac d6 bd 0d 5f 88 3c 43 2e db bd
       0.12226844 -0.10482068 0.016646886 -0.10702183
000290 70 bd ff bc a1 cd cb 3d ce 30 71 bd d0 8d fc 3c
       -0.03121826 0.0995133 -0.058884434 0.03082934
0002a0 a5 75 fe bc 9c 89 03 be a9 a9 c5 3b 6e b9 58 3d
       -0.031061957 -0.12845463 0.006032188 0.052911215
0002b0 72 19 d9 bd ff ef da 3d 21 51 8d 3b c3 d1 8a bd
       -0.106005564 0.10690307 0.00431265 -0.0677829
0002c0 97 fe cc 3b 33 85 94 bd 02 98 dc bc 27 90 34 3d
       0.0062559354 -0.07251968 -0.026927952 0.044082787
0002d0 2e 48 40 3c e4 b7 ce bc 1f 70 44 3d ed cc 75 bd
       0.011735959 -0.02523417 0.04795849 -0.060009886
0002e0 dd 71 72 bb 82 eb 48 bd 8a 2c 04 bd e6 9c f7 bc
       -0.0036994137 -0.049052723 -0.03226904 -0.030226182
0002f0 f2 76 a1 bd 42 c6 b7 bd 32 a3 fd bd 85 f3 01 3e
       -0.07884015 -0.089733616 -0.12384643 0.12690552
000300 80 96 b0 3d 2c 5c 0d bd 30 2a ae bd 9d 28 d0 3d
       0.086224556 -0.03451173 -0.085041404 0.10163996
000310 f7 ea b7 3c cd 85 1b 3e 8d 65 55 3d b0 a2 eb 3d
       0.022450907 0.1518776 0.0520988 0.115056396
000320 25 59 4a bd 8a d3 a8 bd 43 a0 51 3b 1c 3e a3 3d
       -0.04940142 -0.08243473 0.0031986393 0.07970831
000330 46 e8 01 3e ad 48 11 3e fa a7 83 bd 5b 7b be bc
       0.12686262 0.1418788 -0.06428523 -0.02325218
000340 e9 0d cb bd a7 36 a7 3c b1 d8 46 3d f2 58 1a 3d
       -0.099147625 0.020411802 0.048546497 0.03768248
000350 a0 f9 95 3d be b0 c9 bd 1b a1 a6 3c 5b fe 2e 3d
       0.07323003 -0.09848164 0.020340493 0.04272304
000360 3b 96 e4 3d a1 a7 4c 3d e4 eb 46 3b f0 4c 3f bc
       0.11161467 0.04996455 0.0030353004 -0.011676058
000370 69 ae ef bc ed 49 c3 3b c6 47 11 bd 98 b0 9e bc
       -0.02925797 0.0059597404 -0.03546884 -0.019371316
000380 65 29 33 bd 4b 24 4a bd 42 54 be 3d b5 0a b8 bc
       -0.04374065 -0.049351018 0.09293415 -0.022466043
000390 28 ff 6c bd 03 a5 1c 3e 88 c1 27 bd 79 b6 2b bd
       -0.057860523 0.15297322 -0.04095605 -0.041922066
0003a0 0f 9a 16 bc 95 c2 0e bd d5 c8 00 bd 74 2e a7 3d
       -0.009192004 -0.034853537 -0.03144153 0.08163157
0003b0 56 66 b6 bd 65 f7 e0 3d 65 3c 88 3d f6 2d b1 bd
       -0.08906238 0.10984687 0.06652144 -0.086513445
0003c0 ca c5 3d bb d8 4b 9b 3d 31 75 83 3d be 20 e3 3d
       -0.0028957003 0.075828254 0.06418837 0.110902295
0003d0 7b 6a a9 3c 64 86 6f 3d f9 f2 dc bc 41 11 83 3d
       0.020680657 0.058477774 -0.026971327 0.06399775
0003e0 d0 46 0f 3e df 93 e7 3c 3a 65 aa bd 7e fb 13 3d
       0.13991857 0.028268753 -0.08320089 0.036128514
0003f0 d3 99 96 bd 1f a9 80 3d b4 09 ce 3d 46 ef 98 3b
       -0.073535584 0.06282257 0.100604445 0.0046671955

lstm.bias_hh_l0 f4 [256]
000000 05 7b 00 3e 1d a7 fd 3d df a3 d8 3a 82 12 c6 3c
       0.12546928 0.1238539 0.001652833 0.024178747
000010 ba 81 5d 3d f9 7f 49 bd 68 1f 4f 3d 1d e5 b8 3c
       0.054078795 -0.04919431 0.05056706 0.022570187
000020 a0 35 df 3d 91 cf ea bd dc de fb 3d d3 1e 9a ba
       0.108989 -0.114653714 0.122983664 -0.0011758454
000030 30 0a 51 bd 6f 89 f8 3d ad 6d 92 3d 10 9e a1 3b
       -0.051035106 0.121355884 0.07149825 0.0049321726
000040 fe 40 f1 3d 8d 67 87 bd 36 82 cc 3d e0 a3 1d 3d
       0.117799744 -0.066115476 0.09985773 0.03848636
000050 62 37 bf bd b9 e4 e8 bd 0a b7 9a 3d 26 35 40 3d
       -0.09336735 -0.113717504 0.07554443 0.046925686
000060 f8 df 65 3d 2b a9 e3 3c 9a 9e c8 3b f5 32 b4 3d
       0.056121796 0.027790627 0.0061224224 0.08798782
000070 5a 83 a8 bd 1c a7 c3 bd cc 61 88 bd 4e b0 34 bb
       -0.08228178 -0.09553358 -0.06659278 -0.0027570906
000080 b2 22 ab 3d f5 31 40 3e 58 83 b8 3c 5e 65 a3 3d
       0.08356227 0.18769057 0.022523567 0.07978319
000090 5e 79 b9 3d a2 f0 b4 3d 18 ff 7f 3d aa 70 31 bd
       0.09056352 0.088349596 0.062499136 -0.043320335
0000a0 f6 15 0c bd ba 62 4d 3d e1 f7 04 3e 4b a8 9c bd
       -0.03420063 0.05014298 0.12985183 -0.07649287
0000b0 42 12 ab bd 19 3f 36 3d 7c b7 7b bc 0d d8 c3 3d
       -0.08353092 0.04449377 -0.01536357 0.09562693
0000c0 56 b5 a4 bd 6e 7c c1 3d bb 63 a6 3c 7b 69 ae 3d
       -0.080423996 0.09447561 0.020311227 0.085162126
0000d0 40 19 30 bd 79 a7 91 3d c6 f4 97 3d 4f dd d8 3d
       -0.04299283 0.07112021 0.07419734 0.10589086
0000e0 4f 5d 6a bd fd e9 d9 3c d6 4a 35 bd d7 b2 19 3e
       -0.057217892 0.026600832 -0.044260822 0.15009628
0000f0 4a 8f ed bd 76 f7 c7 3d 62 f7 2e 3d 86 b2 a7 bd
       -0.11599596 0.09763996 0.04271639 -0.081883475
000100 79 f4 ef 3c 8b cf 90 bd e9 cc 74 bd e7 e9 f2 3b
       0.029291378 -0.07070836 -0.05976573 0.0074131372
000110 16 28 05 3e b2 9c d4 3c e9 0c b9 3d 26 07 d5 bd
       0.13003573 0.025953624 0.090356655 -0.10401754
000120 6a 70 8f bd 52 11 07 3b 36 0f c1 bd da b5 f7 bd
       -0.07003863 0.002060969 -0.094267294 -0.12095232
000130 6f 27 16 bb a3 a7 62 3d 42 1a 85 bc 53 37 01 3e
       -0.0022911688 0.055335652 -0.016247872 0.12618761
000140 62 62 07 bd 5f 6e b0 bd 90 38 2a 3d d6 5d 96 bd
       -0.03305281 -0.086148016 0.04155785 -0.073421165
000150 13 c8 98 bd 1e 06 bc 3b 44 5d b2 bd 63 47 75 3c
       -0.07460036 0.005738034 -0.08709195 0.014970633
000160 54 93 06 3e 2c a8 e9 bd cc 52 97 bb bc f9 62 bd
       0.13142139 -0.11409029 -0.0046180245 -0.055413947
000170 4f bf 13 bd ce d3 23 3d 87 2e b4 3c 19 4c bb 3d
       -0.036071118 0.039996915 0.021994842 0.09145374
000180 5d eb 8f bd 3f ea 2d 3e 42 e4 bd bc 9e b6 79 bc
       -0.07027314 0.16983889 -0.02318013 -0.015241293
000190 10 2b 86 3d 0b 04 95 3d de 4f c3 3d 0f 4c 2d 3d
       0.06551182 0.07276162 0.09536718 0.042308863
0001a0 ca 56 d0 3d 9a 4d d3 3d 8c 87 3c bd d4 6c 88 3d
       0.10172804 0.10317536 -0.046027705 0.06661382
0001b0 af 9e 70 3d 7e 9c 03 3e 2a f0 f2 3d 5d 9d 65 bd
       0.058745082 0.12852666 0.11862214 -0.056058276
0001c0 78 17 b5 3d 26 65 ed bd 94 81 9f bd 11 41 a2 3d
       0.08842367 -0.11591558 -0.07788387 0.07922567
0001d0 40 5f 0c 3d 76 4d b6 3d 83 f1 9a 3d 01 b0 d4 3d
       0.034270525 0.08901493 0.07565596 0.103851326
0001e0 ec 64 9b 3c ad fd 54 bc 38 51 60 3d 54 c4 19 3e
       0.018969022 -0.012999934 0.054764956 0.150163
0001f0 df 26 cf bd f8 55 c1 3d 85 6b 8f bd 1d 8a 10 3e
       -0.10114836 0.09440225 -0.070029296 0.14115186
000200 2e 1e 04 be a4 08 3f bd a6 d5 ef 3d dd 88 dd bc
       -0.12902138 -0.0466391 0.11710672 -0.0270428
000210 85 46 bc 3d 9b d7 af bd b2 22 cd bd 42 02 a2 bd
       0.09193138 -0.08586045 -0.10016383 -0.07910587
000220 2d ed a9 3c 55 91 c2 3d 61 12 04 be 66 a3 97 bc
       0.020742977 0.09500376 -0.12897636 -0.018510532
000230 da 8f dc bd 55 11 74 3c fe 95 88 bd cf d6 d0 bd
       -0.10769625 0.01489671 -0.06669234 -0.101972215
000240 e8 4f a0 bd 86 8a 10 be c0 e6 94 3d a3 09 93 3d
       -0.07827741 -0.14115342 0.072705746 0.071795724
000250 33 dc 8b 3d 5e 7f e2 3a cc e5 88 3d 2b 80 77 3d
       0.06829109 0.001728039 0.06684455 0.060424965
000260 68 5c 94 bd c9 6e 7c bd 03 1d e7 3d 45 88 8e bc
       -0.072441876 -0.06162909 0.112848304 -0.017398963
000270 f3 7c ae bd b8 2f e0 bb 4e 31 ab bd ac 23 38 3c
       -0.08519926 -0.006841626 -0.083590135 0.011238974
000280 bc 0c 78 bc 72 85 ea 3d d0 28 2b 3d b7 18 8e bd
       -0.015139755 0.11451234 0.04178697 -0.06938308
000290 e0 c2 a0 bb ff 2d 58 bd d0 1e 8a 3d cd 63 cb 3d
       -0.0049060434 -0.05277824 0.06744158 0.09931145
0002a0 d3 0b 0f 3e 8f 6c 60 3c 72 6e 86 3d 66 4b d9 bd
       0.13969354 0.013697757 0.065640345 -0.10610084
0002b0 9c f1 b4 bd 99 e0 b5 3d ee 9b 9e bd 2b 5a 92 bd
       -0.08835146 0.08880729 -0.07744585 -0.071461044
0002c0 85 3c d9 bb 77 36 7b bd 4a 6b f6 3c 00 7a eb bc
       -0.006629529 -0.06133124 0.030080456 -0.028744698
0002d0 ed 5d c4 bd cb 1d bc 3d 1e 1c 73 bd dc 56 98 3c
       -0.095882274 0.0918537 -0.059352987 0.018596105
0002e0 b9 25 c1 3d 84 71 db 3d e3 f7 f0 3c 96 21 be 3d
       0.09431023 0.10715011 0.029415077 0.0928375
0002f0 25 f9 16 bd 7f 29 1b 3d f7 a6 6c bb 0d e6 15 bd
       -0.036858696 0.03788137 -0.003611026 -0.036596347
000300 76 5b aa 3d ee e8 a4 3d 36 a7 8e 3d 3f 8c a6 bd
       0.08318226 0.0805224 0.06965487 -0.081322186
000310 f3 75 d2 3d f6 b2 09 bd 33 1b a7 bd 01 81 8a 3d
       0.10276403 -0.033617936 -0.08159485 0.06762887
000320 95 50 57 bd 7c d2 c7 3c 69 59 a2 3d ac e3 82 3d
       -0.052567083 0.024392359 0.0792721 0.06391081
000330 b8 06 d3 3d cc 53 55 bd c8 4d cf bd cb bb 5d bc
       0.10304016 -0.052081868 -0.101222575 -0.013533543
000340 ea 51 02 3e ad 3d 51 bd c5 99 3b bd 1b 8d 9b bb
       0.1272656 -0.05108421 -0.045800943 -0.0047470457
000350 b7 3b 96 bd 3d c9 49 bc 96 ad 9a 3d 1e 68 c8 3d
       -0.073356085 -0.012316045 0.0755264 0.09785484
000360 35 e9 23 3d de 5d d8 3d b2 93 7f 3d 71 b8 84 bd
       0.040017325 0.10564779 0.062396713 -0.06480492
000370 89 06 cd bc 0e b9 83 3d 34 14 3d 3d f5 48 a6 bd
       -0.02502753 0.06431781 0.046161845 -0.08119384
000380 f1 ac 64 bd f3 55 a6 3d e2 73 d7 bd 6e 12 c3 bc
       -0.055828992 0.08121862 -0.1052015 -0.023812499
000390 40 cf 86 3d a2 b3 07 bd 6c 91 54 3d c3 93 bf 3d
       0.065824986 -0.033130296 0.051896498 0.09354355
0003a0 77 58 19 bd 3a aa b8 bc f8 9f bd bc d8 16 76 bb
       -0.037437882 -0.022542108 -0.023147568 -0.0037550237
0003b0 e5 67 e8 3d 7b 4a b4 3c 3e bd de 3d 08 6c 3f bc
       0.11347941 0.022008171 0.10875939 -0.0116834715
0003c0 75 9a c5 3c 94 6e b4 bd e9 03 ad bd 74 a0 94 ba
       0.024121502 -0.088101536 -0.084480114 -0.0011339323
0003d0 a3 66 b2 3c 9d 5f 98 3d 0d 75 56 bd 8c d7 5f 3c
       0.021777457 0.07440112 -0.052357722 0.01366223
0003e0 1f 6b 71 bc d5 d2 9c bd 9a 98 bb bc 78 bb a9 3d
       -0.014735012 -0.076574005 -0.022899915 0.0828771
0003f0 09 2b b2 3b a7 8b ec bd 3e b9 e8 3d 32 e4 f0 3d
       0.005437259 -0.11550074 0.11363457 0.11762275

lstm.weight_ih_l1 f4 [256, 64]
000000 2d 49 f1 3c 1c e0 90 bc 76 28 76 3b e1 da 28 3d
       0.029453838 -0.017684989 0.0037560738 0.041224364
000010 60 47 da 3d 1e 74 cb bd 0a d3 2a 3d 5b 0c c8 3d
       0.10658145 -0.09934257 0.04170517 0.097679816
000020 d6 61 4a bc 49 0f 89 3c fa 71 ab 3d ed 86 6d bd
       -0.0123524275 0.016730921 0.08371349 -0.057990003
000030 db bc 5e bd a1 a4 9d bc b5 1e 88 3c c2 f2 82 bb
       -0.054379325 -0.01924354 0.016616205 -0.003996224
000040 7b 91 7d 3d 8d b9 c0 3b 72 e4 43 3d 9d a9 fd 3d
       0.06190632 0.0058814944 0.047825284 0.12385867
000050 0f 24 8a bd c1 d5 22 bc a4 81 fc bc cb 9f db 3d
       -0.06745159 -0.009938658 -0.030823536 0.107238375
000060 a9 a6 e7 3d 10 9d 53 3d 1c 4a 99 bd 30 70 d4 3d
       0.11311085 0.05166346 -0.07484838 0.103729606
000070 d2 59 5f bd 3c 27 09 3d d1 d2 bc 3d bd 46 c2 bd
       -0.05452902 0.033484682 0.092198975 -0.094861485
000080 38 9c 47 3d e5 4a 0f 3e 2d 20 01 bd 98 45 e9 3d
       0.048732966 0.13993414 -0.031524826 0.11390227
000090 4f a0 18 bc 15 e0 41 3c 60 60 fc bd 88 a3 0a 3d
       -0.009315564 0.0118332105 -0.123230696 0.03384736
0000a0 81 9c 9c bd c9 65 a1 bd 29 36 53 bc 09 9d ce bd
       -0.07647038 -0.07880742 -0.012891331 -0.10088546
0000b0 6c a7 50 bd ca 69 0e be a7 ac 5d 3d 1c ad 32 3d
       -0.050940916 -0.13907543 0.054119732 0.04362212
0000c0 b8 02 63 bd ee b5 94 3d 63 04 91 3d a4 6c ea bc
       -0.055422515 0.07261263 0.07080915 -0.028616257
0000d0 d1 60 da 3d ce 84 02 be 63 a9 c7 3d 70 2b 62 bd
       0.106629975 -0.12745973 0.09749105 -0.055217206
0000e0 46 7e d2 3c fd 6b a7 bb 5c b8 7b bc e1 16 92 bd
       0.025694977 -0.0051093088 -0.015363779 -0.0713327
0000f0 b9 5f a2 bd 1f c8 ff 3d a2 25 ff 3d f0 c2 42 3b
       -0.07928414 0.12489342 0.1245835 0.0029718243
000100 31 b6 fe bd 52 8d 96 bc 2b 2d d7 bd a4 56 c8 3d
       -0.12437094 -0.018377934 -0.10506662 0.097821504
000110 71 ff 27 be b2 69 0c be 09 67 68 3d bf f9 26 bd
       -0.16406037 -0.13712195 0.056738887 -0.04076552
000120 78 ee 2b 3d e9 5f 00 3e ce 70 e1 bd d5 4d 91 3d
       0.04197547 0.12536587 -0.11007844 0.070949234
000130 53 62 97 bd d9 c2 f8 3c 61 47 e9 bd 5a a9 ba 3b
       -0.07391801 0.030366348 -0.113905676 0.005696458
000140 e1 80 a9 3d 26 47 dc 3c 9c ef 2a 3d 96 16 d7 bd
       0.08276535 0.026889395 0.041732416 -0.10502355
000150 1b 06 bf 3d e0 4b d5 bd e8 ce 05 bd 76 1b 70 bc
       0.093273364 -0.10414863 -0.032668024 -0.014654985
000160 45 9f 12 bd 9c f0 3b bd 98 b4 89 bd 95 a3 9e 3d
       -0.035796423 -0.04588376 -0.06723899 0.077460445
000170 c7 1c fd bd 2b c1 27 bd db c7 b2 bb 47 b9 9e bc
       -0.123590045 -0.040955704 -0.0054559535 -0.019375456
000180 b4 b0 09 bd 19 b4 72 bb ab c3 18 bd 03 54 05 be
       -0.033615783 -0.0037033616 -0.03729598 -0.13020329
000190 63 14 95 3c c7 37 b5 3d c5 12 a2 bd 30 5d 90 bd
       0.018198198 0.08848529 -0.07913736 -0.07049024
0001a0 83 68 35 3c e5 64 85 3d 65 0a e8 3c b4 79 7f 3d
       0.011072281 0.06513385 0.028325269 0.062371925
0001b0 aa c4 2a bd fc 70 99 bd 9f 33 d7 bd fd bd 3a bd
       -0.04169146 -0.07492253 -0.10507893 -0.045591343
0001c0 88 44 e6 bd 66 57 b3 3d e6 17 49 bd 9d 9b eb bc
       -0.1124354 0.08756904 -0.049095057 -0.028760726
0001d0 d8 08 ea bd e6 46 8e 3d 8d 30 40 3b 6c c7 25 3d
       -0.11427468 0.069471166 0.0029325814 0.040473387
0001e0 59 b9 91 bd 45 03 7a 3d 70 08 1e be 93 eb 19 bd
       -0.071154304 0.061038274 -0.15432906 -0.037578177
0001f0 34 c5 82 bd 4c f7 42 bd 92 bb 09 be fd a8 e1 3d
       -0.0638527 -0.047599122 -0.13450459 0.1101856
000200 3b 86 5a bd 64 99 e2 bd f8 85 cb bb 30 85 4a bc
       -0.05335067 -0.11064413 -0.0062110387 -0.012360856
000210 75 fd 20 bd 2d bf dd 3c a8 c9 d3 bd c3 09 8c bd
       -0.039304215 0.027068699 -0.10341197 -0.068377994
000220 29 78 05 bd 13 93 85 3d 78 9a ad 3d a5 58 eb 3d
       -0.032585297 0.06522193 0.08476728 0.11491517
000230 62 17 97 bd 5f 4f 02 be df 6a 6f 3d 2a 5c f0 bc
       -0.07377507 -0.1272559 0.05845153 -0.029340822
000240 44 da 0a 3e 63 b6 cc bd 5d 7f 82 bd 72 ec 0b 3d
       0.13559824 -0.09995725 -0.06371949 0.03416104
000250 37 17 fc bd 67 c4 2c bd b9 a5 0f bd 7f b4 61 bc
       -0.123091154 -0.04217949 -0.035070155 -0.013775944
000260 fc b7 50 3d 04 db 21 bc 5b 12 e9 3c 6d e0 07 bd
       0.05095671 -0.009878878 0.028451135 -0.033173013
000270 00 c0 90 bd e3 ac 6a 3c 63 52 e7 3d 46 f0 b2 3d
       -0.07067871 0.014323446 0.11295011 0.08737235
000280 71 13 c0 bd 54 7a be 3d b7 31 c5 bd f6 86 87 bc
       -0.09378708 0.09300676 -0.09628623 -0.016543847
000290 15 63 09 be 8c e6 a2 3d ed 02 08 be eb 90 f8 3d
       -0.13416703 0.079541296 -0.13282366 0.12137016
0002a0 5d c9 29 bd 2a 35 97 bd 64 50 e6 3d b2 ae 2a 3d
       -0.0414518 -0.07383187 0.11245802 0.04167051
0002b0 9e b2 b5 3c 32 b0 4d bd 55 cd 80 bc e2 81 bc 3c
       0.022179898 -0.05021686 -0.01572291 0.023011152
0002c0 f6 73 01 bd 86 24 00 be 5d 37 d7 3c 4d 8f 13 be
       -0.03160473 -0.12513933 0.026271516 -0.14410134
0002d0 59 0e d1 bd ff 69 a5 bd 8e 8b 11 3d ce 23 fc bc
       -0.10207815 -0.08076858 0.03553348 -0.030778792
0002e0 ed 57 b8 bc c3 f8 19 bd bd 7f 3a bd fb 1d 93 3c
       -0.022502864 -0.037590753 -0.045531977 0.017958632
0002f0 16 1f dd 3b 64 ec ee 3d 8c 0a 92 3c 9f 6a 34 bd
       0.0067480905 0.11666182 0.017827295 -0.044046994
000300 31 d0 78 3b 8f 79 22 3d 29 19 53 bd 3e 5e 72 3d
       0.0037965889 0.03966671 -0.051537666 0.059171908
000310 a8 3e f4 bd 33 ae 14 3d 46 54 de bd af 1e b0 bb
       -0.11926013 0.03629894 -0.10855918 -0.0053747515
000320 0f 0f 60 3d bd 74 ca 3d e9 48 fd 3d 39 07 19 bd
       0.05470186 0.09885547 0.12367422 -0.037360404
000330 c5 df 9b 3b d1 df a3 3c e5 05 40 bd b1 03 e6 bd
       0.0047569 0.020004185 -0.04688062 -0.11231173
000340 d9 46 11 3d da 2e a9 3d 12 fd ab 3d cc 42 07 3d
       0.035467956 0.08260889 0.08397879 0.033022687
000350 e7 aa c6 3d 0f 93 35 bd d5 d7 41 3c 91 5a 80 bd
       0.09700566 -0.0443297 0.0118312435 -0.06267274
000360 fc ac c1 bd 28 c4 e0 3c 59 48 cf bc c6 54 bb bd
       -0.09456822 0.027437285 -0.025303053 -0.091470286
000370 7a 7e d7 3d ee 6b 07 3d ae 85 42 bd 7b 21 84 3d
       0.1052217 0.033061914 -0.047490768 0.064516984
000380 a3 9c cd bd d8 16 13 3e c0 15 73 bd 24 e9 86 bc
       -0.10039642 0.14364183 -0.059346914 -0.016468592
000390 a6 4d f6 bd bc 0c ff 3c f8 27 13 3c 72 5b 92 3d
       -0.12026529 0.031134002 0.008981697 0.07146348
0003a0 d1 62 d1 bd f7 d5 56 3c 97 10 88 3d 45 18 da bd
       -0.10223926 0.013112537 0.06643789 -0.1064916
0003b0 b5 c2 e5 3d 47 e0 72 3d 0b 9e 99 3c ce 26 86 3d
       0.11218778 0.05929592 0.018752119 0.0655037
0003c0 61 40 8a 3a d8 49 bf bd 83 84 9a bd 84 69 62 3c
       0.0010547751 -0.093402565 -0.07544806 0.013819102
0003d0 b9 52 3e 3d 6e a3 62 3d 30 68 e0 3c 0b 92 bc 3d
       0.04646561 0.05533164 0.02739343 0.09207543
0003e0 e4 a7 12 3c 49 55 b7 3d 34 0f fe bd 36 56 a4 bd
       0.008951161 0.08951814 -0.124052435 -0.08024256
0003f0 33 13 a7 3d 50 da b6 3c bc c2 a1 3c 95 e6 35 3c
       0.08157959 0.022320896 0.019746177 0.011102338

lstm.weight_hh_l1 f4 [256, 64]
000000 bd 9a 83 bb 7d 53 80 bd 41 7d a1 bc 82 3a 8c bd
       -0.004016249 -0.06265924 -0.019713046 -0.06847097
000010 11 7f 5a bd 6d 55 8f bd 9f f7 c6 3d f8 54 c6 bc
       -0.053343836 -0.069987155 0.09715199 -0.024210438
000020 14 c3 bc 3b 18 d6 9a ba 59 93 81 3d 3d f5 0c 3c
       0.00576056 -0.0011813072 0.063269325 0.008603391
000030 1f ff d2 bd a7 38 9b 3d d6 0c d0 bd 8c 1a ae bd
       -0.10302567 0.07579165 -0.10158698 -0.08501157
000040 bc 62 15 bd b1 a5 b5 3d 8e 38 f9 3a 3f 05 e4 bd
       -0.036471114 0.08869494 0.0019014047 -0.11133813
000050 b4 4a bc 3c 7d b2 0c bd a1 ba 97 bd 9d 46 9c 3c
       0.02298484 -0.034349907 -0.074086435 0.01907664
000060 2b 51 d8 bc 58 12 e7 bd 25 78 7e 3d 17 4e 6e bd
       -0.026405891 -0.11282796 0.062126298 -0.05817994
000070 dc 3e c8 bd 29 d9 47 3b 0e ba a3 bd be 03 1c 3c
       -0.097776145 0.0030494428 -0.079944715 0.009522377
000080 fa 36 66 bd d2 34 b4 3b 66 93 8e bc 6e 9d 00 be
       -0.056204773 0.0054994607 -0.01740427 -0.12560055
000090 f7 0c d6 bd d8 92 5d 3d 12 c2 7b 3d 57 77 78 bd
       -0.104516916 0.05409512 0.061464377 -0.060660686
0000a0 c1 48 92 3d a3 72 19 3c fc 61 3c 3d 12 8c 20 3d
       0.07142783 0.00936571 0.045991883 0.03919608
0000b0 90 e0 1d 3d 83 86 92 3d 13 62 bd bd 37 5d c2 3d
       0.038544238 0.07154562 -0.09247222 0.094904356
0000c0 96 2e e2 3d 31 1e a3 3d f6 08 aa bd 3c a9 51 3d
       0.11044042 0.07964743 -0.083024904 0.051186785
0000d0 22 b5 04 be 57 84 e8 3c 26 4d 68 3d d9 0e b8 bd
       -0.12959722 0.028383417 0.0567142 -0.08987207
0000e0 eb 46 f6 bd a3 d5 8a bc 27 cb eb bd 66 32 ab 3d
       -0.12025245 -0.016947573 -0.115133576 0.08359222
0000f0 77 77 a4 3d fa d4 fc bd bb 47 ce bd f2 18 af 3d
       0.080305986 -0.123453096 -0.10072275 0.0854968
000100 3c c1 c5 bc b2 f8 77 bd 08 8b 07 3e b4 d5 ba ba
       -0.024139993 -0.06053991 0.1323663 -0.0014254362
000110 5c 18 85 3d f0 bf b4 bd e7 31 43 bc a0 60 f2 3d
       0.06498787 -0.08825672 -0.011913753 0.11834836
000120 50 f8 76 3d cb 2c f4 bb 67 71 27 3c 14 4f 8a 3c
       0.060295403 -0.007451629 0.010219908 0.01688341
000130 9a 1e ae bd 3e 59 10 3e 38 e4 91 3d ad 34 d1 bd
       -0.085019305 0.14096543 0.071236074 -0.10215125
000140 e1 eb 73 bd 19 3e 08 3d 95 40 ab bd c7 44 61 bd
       -0.059551124 0.033262346 -0.083619274 -0.05499723
000150 72 84 05 be 58 02 ba bd c4 8d 3e 3d f6 d7 06 be
       -0.13038805 -0.09082478 0.046521917 -0.1316832
000160 e3 a8 06 3e 31 8f df 3d 3d 9e a9 bd 20 55 c4 3d
       0.13150363 0.109159835 -0.08282135 0.09586549
000170 d6 b7 9a 3b e8 9b d3 bb 70 8b b7 bc d8 00 16 3e
       0.004721622 -0.0064577945 -0.022405356 0.1464876
000180 a1 71 ad 3d 09 76 a9 bd de ff 21 3c ea dc c3 bd
       0.084689386 -0.082744665 0.009887664 -0.095636204
000190 9b 4f 99 bc f7 89 96 3d 74 79 13 3d d9 5d a7 3d
       -0.018714717 0.073505335 0.0360045 0.08172197
0001a0 d4 3a 10 3c 8d 15 f5 3d 06 a0 85 bd 0e 58 9f bd
       0.008803088 0.11967001 -0.06524663 -0.07780467
0001b0 2c f7 23 3d 46 22 b7 bd ab 42 2a 3d b3 a7 a4 bd
       0.040030643 -0.08942084 0.041567486 -0.080397986
0001c0 ae bf 6d 3d db 69 a5 bd e5 67 eb 3d eb 80 b8 3c
       0.058044128 -0.08076831 0.11494426 0.02252241
0001d0 8b 59 72 3d 2e 53 95 3d df bd fa bd cb 77 67 3c
       0.059167426 0.07291256 -0.12243246 0.014127682
0001e0 23 bd b8 bd 01 ef 55 bd 7f bc a9 bd 50 12 a3 bd
       -0.0902045 -0.052229885 -0.08287906 -0.07962477
0001f0 36 b0 69 bd 99 32 b4 bc b1 ce 1c 3d a0 24 d8 bd
       -0.057052813 -0.021996783 0.038283054 -0.10553861
000200 6a 9b d0 bd 48 06 e1 bd 7f 3f 35 3d 8c a8 99 3d
       -0.10185893 -0.10987526 0.044250008 0.07502851
000210 4d 6f 62 3d e4 96 7b bc 0e cd df bd de 05 85 3d
       0.055281926 -0.015355799 -0.10927783 0.0649526
000220 61 86 6f 3d 1c 21 1d 3b f6 b2 3a bd d0 61 1b bd
       0.058477763 0.0023976034 -0.045580827 -0.03793508
000230 e5 4c e5 3c 01 f7 db bc 50 c6 aa bd 58 5a 2f 3d
       0.027990768 -0.02685118 -0.08338606 0.042810768
000240 ab bb f4 bd e8 b5 c5 3d 15 da e8 bd 5c ca 68 3d
       -0.11949857 0.096538365 -0.11369721 0.05683361
000250 14 0c e0 3c f3 8a 64 bd 82 e6 f7 3c 3f a6 9d bd
       0.02734951 -0.055796575 0.030261282 -0.076977246
000260 8d e0 c9 3a 54 ea bc 3d ca 91 9d 3d 1a 98 ec bb
       0.0015402004 0.09224382 0.07693823 -0.0072202804
000270 15 9b 97 bd 74 4a ad 3d bf ad d8 3c 74 fa b8 3d
       -0.074026264 0.084614664 0.026450036 0.09032145
000280 39 df 7a bd 30 66 cb 3d 40 62 17 bc e9 5f e1 bd
       -0.061248038 0.099316 -0.009239733 -0.110046215
000290 f6 0d 23 bd 0d f2 12 3d 9d 4a d3 bd 8a 44 e3 3c
       -0.039808236 0.03587537 -0.10316966 0.027742643
0002a0 be dc 30 bd 05 15 26 3c 42 2a ab 3d d7 b6 95 3d
       -0.043179266 0.010136847 0.083576694 0.073102646
0002b0 01 66 41 3c 4d 64 57 3d 02 e8 a1 bd b9 4c 5e bd
       0.011804105 0.05258589 -0.0790558 -0.054272387
0002c0 76 a3 d1 bc d1 41 ab bb 0c 0f d4 3d 69 40 c5 3c
       -0.02559064 -0.005226352 0.103544325 0.024078565
0002d0 7d 1c cf 3d 22 12 f6 3d f8 6f 0e bd 31 e5 e2 bd
       0.101128556 0.12015177 -0.03477475 -0.11078871
0002e0 57 57 0c 3e 33 42 02 3d 68 e3 02 3e ef 1a 80 3d
       0.13705193 0.031801414 0.12782061 0.06255137
0002f0 6e 78 45 3a da 7b 81 bd d6 bd ed bd 63 b8 ad bc
       0.0007532899 -0.06322451 -0.11608474 -0.021206087
000300 0c 14 d9 bd 5e 12 b8 bd ad 43 b2 bd 6a 39 15 bd
       -0.10599527 -0.08987878 -0.087043144 -0.036431707
000310 71 d0 9a 3c 73 90 0c bb d6 80 c2 bd 05 be c3 3b
       0.01889822 -0.0021448403 -0.0949723 0.00597358
000320 26 0a c4 bd 57 f8 81 3b f6 eb ab 3c af c2 cd bd
       -0.09572248 0.003966372 0.020986538 -0.100468986
000330 ec 74 84 bd 57 af e9 bc 5e 0a af 3d ea f4 c6 3d
       -0.064676136 -0.028525991 0.08546899 0.097146824
000340 42 41 fc bd ae 7d cb 3b 73 21 87 3d 28 08 78 bd
       -0.123171344 0.0062100505 0.06598177 -0.060554653
000350 c7 20 91 3d 72 4b dc bd 3a d8 41 3d 93 e4 de 3c
       0.0708633 -0.107565776 0.04732535 0.027208602
000360 4b 1e f2 3d 6c 3f d4 3d e6 7a e9 bd 19 f9 d3 3d
       0.11822184 0.10363659 -0.11400394 0.10350246
000370 4c 3c 62 bc 3a 67 5c bd d3 94 70 bd 70 06 d9 bd
       -0.013808321 -0.053809382 -0.05873568 -0.10596931
000380 36 3b d8 3d 93 23 99 bd 36 d3 dd 3d 33 83 f5 3c
       0.105581686 -0.07477488 0.10831301 0.029969787
000390 a7 0d a5 bd 16 3b c1 bd de 18 59 bd cd dd 13 bd
       -0.080592446 -0.09435098 -0.05300223 -0.036100198
0003a0 56 28 bc bd ea 93 ed bc 7b f7 1d 3c d3 5c 8e 3d
       -0.09187381 -0.029001195 0.0096415235 0.069512986
0003b0 2e b1 ba 3d 3b 6d ae 3d 40 97 2a 3d cd 0c 15 bb
       0.091158256 0.08516928 0.04164815 -0.0022743226
0003c0 bf 5d 87 3d 6a 80 54 bd 7b 37 18 3c 1a b8 fb 3c
       0.066096775 -0.051880278 0.009290571 0.030727435
0003d0 e0 ff c2 bd 13 84 ad 3d ac a0 b8 bc f7 a8 c7 bd
       -0.095214605 0.08472457 -0.022537552 -0.09749024
0003e0 a1 d8 c2 3d b4 57 12 bd 47 b3 02 3e d0 1d b0 bd
       0.09513975 -0.03572817 0.12763701 -0.08599436
0003f0 d2 42 84 bd b9 72 e5 3c ee 11 dd 3c 02 29 2e 3d
       -0.064580575 0.028008806 0.026986089 0.042519577

lstm.bias_ih_l1 f4 [256]
000000 6d d1 e5 bd 30 81 db 3d a9 06 2c bd 00 43 e5 3d
       -0.112215854 0.10718 -0.04199854 0.1119442
000010 9e a7 a5 bd 4c 4d e2 bd e3 95 2d 3d e3 89 73 3d
       -0.08088611 -0.110498995 0.04237927 0.05945767
000020 8b 33 42 bd 7e 6f c7 3d c6 6d d8 bd 6f 00 a0 3d
       -0.047412436 0.09738062 -0.105678126 0.07812583
000030 80 a3 c8 3d 29 f2 31 bd 38 de ed bd 15 c7 d2 3c
       0.0979681 -0.043443833 -0.116146505 0.025729695
000040 a0 46 bd 3c d8 2a f9 bb a9 8f 63 3d 05 8e 92 bd
       0.023104966 -0.0076039843 0.055556927 -0.07155994
000050 f3 85 be bd ca cf 97 3d b2 05 65 bc 11 8c f3 3d
       -0.093028925 0.074126795 -0.013978409 0.1189195
000060 ec 31 fb bd 0b aa 74 3d 4c e9 0e 3d 7d 3d 16 3c
       -0.12265381 0.059732478 0.034890458 0.009169933
000070 94 c4 b6 3c b8 75 8f 3d ce ea 93 bc b5 7d f1 bd
       0.022310533 0.07004875 -0.0180563 -0.11791555
000080 a1 3c 9d bc c5 7d 82 3d e1 a7 ab bd 76 36 85 bd
       -0.01919395 0.06371645 -0.0838163 -0.06504528
000090 dc 1c ba bd b2 fa 4f bd 63 82 03 3e 1c 76 bb 3c
       -0.09087536 -0.05077619 0.12842707 0.022883467
0000a0 45 a3 70 bd ff e6 e2 bc 54 35 f5 3d ed 86 19 3d
       -0.058749456 -0.027698038 0.11973062 0.03748219
0000b0 ab ee d4 3d 5e e3 73 bd 44 46 fe 3d bb 1d c6 bd
       0.10397085 -0.059543006 0.12415746 -0.096736394
0000c0 8e 02 e3 bd 6a 28 f6 3c b7 43 01 3e b2 45 28 3d
       -0.11084472 0.030048568 0.12623487 0.04108209
0000d0 9d 30 05 3d c9 15 8f bd 99 6a 03 be 5c ab 13 be
       0.032517064 -0.06986577 -0.12833633 -0.14420837
0000e0 a8 4f d1 3d 58 b9 45 bd b1 fb 97 bd dd 48 e4 bd
       0.10220271 -0.04827246 -0.07421053 -0.1114671
0000f0 e9 6b 6b bd 16 32 18 bd 5d 0c f2 bd 3f 76 7d bd
       -0.057475958 -0.03715714 -0.11818764 -0.061880346
000100 3b b1 06 be 56 ec b0 bd 7a 9b cb bd 78 62 27 bd
       -0.13153546 -0.086388275 -0.09941764 -0.04086539
000110 91 63 b9 bd b0 0f bd bd 8d c7 66 bc c0 59 75 bd
       -0.09052194 -0.09231508 -0.014085663 -0.059900045
000120 23 96 e4 bd 8e a7 ab 3d b0 db a1 3d c6 3a 99 bd
       -0.11161449 0.08381568 0.0790323 -0.07481913
000130 d4 22 bb bb ad 02 cd 3d dc d4 ae 3d c9 36 e1 bd
       -0.005710939 0.10010276 0.085366935 -0.109967776
000140 27 73 9b 3d b6 0b 5b bb 48 d4 60 bd 63 eb 22 3c
       0.07590323 -0.0033423728 -0.054889947 0.009943816
000150 d3 49 d2 3d 17 40 93 3d c2 f9 eb 3d 15 f0 f2 3d
       0.10267987 0.071899585 0.11522247 0.11862198
000160 8a fb c6 bc 76 ce b2 bd 18 38 e2 bc 83 05 95 bd
       -0.024289865 -0.087307855 -0.027614638 -0.07276442
000170 ae 1b d8 bd 45 c4 5b bc 89 92 9e 3d ec 95 c3 bd
       -0.105521545 -0.0134134935 0.07742793 -0.0955008
000180 60 35 a0 3d c4 34 ac 3b 3e be 44 3d 34 14 47 3d
       0.078226805 0.0052553136 0.04803299 0.04860325
000190 69 37 db bd ec 8b 2e bd 41 47 85 bd 80 33 f5 3d
       -0.10703928 -0.04261391 -0.06507731 0.119727135
0001a0 b7 de 7e 3c 30 07 de bd 64 2a ac 3d d1 f8 23 3d
       0.015556029 -0.10841215 0.08406523 0.04003221
0001b0 c9 5d 4b 3d 6e 26 8a bd c9 c3 47 bd 23 dd 87 3d
       0.049649987 -0.06745611 -0.0487707 0.06633975
0001c0 19 d5 95 bd 44 14 a3 bd a7 84 b8 3c 26 1d ca 3d
       -0.07316036 -0.0796285 0.022524191 0.09868841
0001d0 fd 2d 89 bd 10 b8 92 3d a4 47 53 bc ea 8a 85 bd
       -0.06698225 0.071640134 -0.012895498 -0.065206364
0001e0 de 0d 32 bb de ce 6d bd af 83 79 bd a4 8b 11 bd
       -0.002716891 -0.058058612 -0.0609166 -0.035533562
0001f0 df 73 8f 3d 03 cf 39 3d 3b 84 ee 3d ad 65 0c 3c
       0.070045225 0.045363437 0.11646315 0.008569163
000200 58 52 45 3c 13 c7 f1 bd 74 97 7f 3d 22 01 2e 3d
       0.012043558 -0.118055485 0.062400296 0.04248155
000210 6a 40 83 3d 32 ad f2 3c b4 2f f4 3d ea 39 b8 3d
       0.064087704 0.029623602 0.11923161 0.08995421
000220 31 f9 31 3c 60 3a da 3d 94 78 a0 bd 8b 48 ff bb
       0.0108626345 0.106556654 -0.078354985 -0.00779063
000230 7c 9d 80 3d a7 6e 3f 3c 95 2a d4 3d 97 1c d5 bd
       0.06280038 0.011684096 0.103596844 -0.10405844
000240 e1 42 b9 bc 02 36 fa 3b c0 74 8f bd c5 a7 74 bd
       -0.022614898 0.0076358328 -0.0700469 -0.05973031
000250 9c 56 a0 bd 4c 77 83 bd 8a 63 c0 3d 2c 8c c2 bd
       -0.078290194 -0.064192384 0.093939856 -0.09499392
000260 ae 37 31 3d 6f a4 ef 3d 26 2a c2 3d 0e 54 37 3d
       0.04326599 0.11701285 0.094806954 0.044757895
000270 32 4e 98 bd 21 63 c8 bd 04 43 98 3d 5e 27 9c 3d
       -0.074367896 -0.09784532 0.07434657 0.07624696
000280 43 e9 b2 bc a1 6d 16 bd 26 a9 9f 3d 1d 9c c0 3d
       -0.021839743 -0.036725644 0.077959344 0.09404776
000290 01 8d 50 3d 16 ce fb 3c bb a7 93 3d 86 84 8e 3d
       0.05091572 0.030737918 0.072097264 0.069588706
0002a0 04 66 11 bd 90 7d 96 bd 0d 4a eb bd 19 be b4 3d
       -0.03549768 -0.07348168 -0.114887334 0.08825321
0002b0 99 63 59 bd 23 65 62 bd db 7d 5a 3d fe 1e 5e bd
       -0.0530735 -0.055272233 0.05334268 -0.054228775
0002c0 da 35 e2 bd 42 4b e5 3d ee 63 f4 bb 66 c0 5f bd
       -0.110454276 0.11195995 -0.0074582016 -0.054626845
0002d0 b0 a3 4e bc 77 ea 11 3e b6 2c 81 bd 29 d1 93 3c
       -0.012612268 0.14249597 -0.06307356 0.018044071
0002e0 3e 4f 9a 3c b1 eb f9 3d d0 8d 8d 3d 37 c1 aa bc
       0.018836614 0.12203158 0.06911814 -0.020844085
0002f0 23 88 98 bd 40 85 42 bd f4 b9 89 bd f8 cd c8 3d
       -0.07447841 -0.04749036 -0.06724921 0.098049104
000300 b1 ff a4 3d 2a 95 5f 3d 05 46 b1 3d c4 88 5f bd
       0.08056582 0.054585613 0.08655933 -0.05457379
000310 02 97 a4 bd 88 75 07 be a6 75 cd bb 62 f5 d1 bd
       -0.08036615 -0.13228428 -0.0062701283 -0.10251881
000320 3c 2c f2 3d 38 ad 87 39 a4 cf e1 bd f0 7d a8 bd
       0.11824843 0.00025878265 -0.110259324 -0.08227146
000330 d6 b2 01 be 95 c5 e6 bd 73 3d e1 bd 4e 89 52 bd
       -0.12665877 -0.112681545 -0.10998049 -0.051400475
000340 0b df b2 bd 30 55 56 3d 91 4e 44 bd 73 d2 a9 bd
       -0.08733948 0.052327335 -0.04792649 -0.08292093
000350 31 7e ad 3d 3b d3 01 be c3 a0 ab bd 0b 7c 8e bd
       0.08471335 -0.12678234 -0.08380272 -0.06957253
000360 e9 a7 9f 3c b7 53 d9 3d 46 5e f9 bc 9b 1a ee 3d
       0.019489245 0.106116705 -0.03044046 0.11626168
000370 e1 89 e0 3c 97 55 6a 3c b7 b4 25 3d 75 ad 68 bd
       0.027409496 0.014302633 0.040455546 -0.056806047
000380 d9 b6 8b bd df 64 17 bc 6d 74 a4 3d f6 52 83 bd
       -0.06821985 -0.009240358 0.08030019 -0.06412308
000390 f1 d2 98 b9 ed fe 6d bd 53 cc d4 3c 46 2c d0 bc
       -0.00029148863 -0.058104444 0.025976336 -0.025411736
0003a0 e2 89 d6 bc 20 af d1 bd 48 0c e3 3d 02 86 20 3d
       -0.026188795 -0.102384806 0.11086327 0.0391903
0003b0 a0 2b 48 3d 91 2d d2 3c 52 e0 99 bd c0 ec 5e bd
       0.04886973 0.025656493 -0.07513489 -0.054425
0003c0 67 4b 6f 3a d8 72 07 bb 84 b5 23 3d 75 19 9a 3d
       0.0009128362 -0.0020667817 0.03996803 0.07524387
0003d0 9a 18 98 bd b1 6e cc 3d ce f4 a6 3d c8 9f da bd
       -0.074265674 0.0998205 0.081521615 -0.10675007
0003e0 a7 6f 8e 3c d1 e9 cb bb 36 70 9c bd dd 64 ee bd
       0.017387224 -0.0062229414 -0.0763859 -0.11640332
0003f0 d6 a3 a3 3d 77 58 d9 3c 29 d1 aa bb 20 b1 af 3d
       0.079902336 0.026531441 -0.005212922 0.08578706
