src/deep_learning/artifacts/lstm_model_META.pt (torch, 217167 bytes, 12 tensors)

lstm.weight_ih_l0 f4 [256, 2]
000000 42 af 97 3d 10 ae dc bd 4c a5 fd 3d b1 7f 19 bc
       0.07406475 -0.10775387 0.123850435 -0.009368823
000010 77 6e c0 3d 62 ee d8 bd 1a 42 09 3c 0a 7b c1 bd
       0.093960695 -0.10592343 0.008377576 -0.09447296
000020 13 44 a6 bd ec 2c d3 bd 33 4b b7 bd 9e bb e3 3c
       -0.08118453 -0.103113025 -0.0894989 0.027799424
000030 b2 da bd 3d 0a 1c d9 3d 41 2a 9f 3d c5 aa 0b bc
       0.092702284 0.10601051 0.07771731 -0.008524601
000040 15 94 ee 3d 02 2b cf bd 0c 4a e8 bb 5b 71 ca bd
       0.11649338 -0.10115625 -0.007088905 -0.09884902
000050 2a c7 e0 3b c9 fd 21 3d 4b af 4e bd 04 57 c4 3d
       0.0068596797 0.03954867 -0.05046014 0.095869094
000060 9f f5 01 3d c4 30 e2 bd 7d df 03 3e d6 bc e8 bc
       0.031728383 -0.110444576 0.12878223 -0.028410356
000070 58 8f 9a 3d 13 bc 64 bd 10 f3 4e bd c2 e2 8e bd
       0.07546872 -0.055843424 -0.05052477 -0.06976844
000080 04 fd e9 3d e2 f9 e9 3c 3f af fa 3b f7 31 f2 bd
       0.11425212 0.028561536 0.0076502855 -0.11825936
000090 eb 96 73 bd 79 5a d3 3c 0e 63 29 3d ac 37 a2 3c
       -0.0594701 0.025799977 0.04135423 0.019801937
0000a0 5e 4e 75 bd 6f 41 95 3d d5 81 a6 bd c7 e2 44 3d
       -0.05988919 0.07287871 -0.08130232 0.048067834
0000b0 f5 85 9b 3d 0f 78 53 bd 2a 85 22 3e 3a f7 da 3c
       0.0759391 -0.05162817 0.1587111 0.026729215
0000c0 34 08 c1 3d 32 07 d1 bd d0 fa 2a 3e 34 8b c6 bc
       0.09425393 -0.102064505 0.1669724 -0.0242363
0000d0 40 1b 5f 3d ef 47 84 bd 3e a4 2a bd b8 f7 53 3c
       0.054469347 -0.06459033 -0.04166054 0.012937479
0000e0 27 43 9a 3c b2 47 64 3d 86 55 fb bc 6e a5 e6 bc
       0.018830849 0.055732436 -0.03068043 -0.028155055
0000f0 01 28 d1 3d 43 78 b1 3d 7d 31 69 3c 87 6a 8a 3d
       0.10212708 0.08665516 0.01423299 0.067586
000100 dc 52 e5 3d 5e 1f d6 bc c8 fc fd 3d a4 f3 02 be
       0.11197445 -0.026138004 0.1240173 -0.12788254
000110 a5 2a b3 bd bf 9f 68 3c 39 63 77 bd 83 48 27 3d
       -0.08748368 0.014198243 -0.06039736 0.040840637
000120 e5 19 2f 3c 19 fc e2 bd 38 3f 0e 3e 21 82 bd bd
       0.010687326 -0.1108324 0.13891304 -0.09253336
000130 83 a0 1e bd e5 6c ed 3c 5b ad 05 bd 98 23 94 39
       -0.038727295 0.028982589 -0.032636028 0.0002825528
000140 61 fa 91 bd c9 49 fa 3d 46 31 31 bd d0 99 a2 3d
       -0.07127834 0.12221105 -0.04325988 0.07939494
000150 c1 67 80 3d f2 e0 17 be 93 d2 cf 3a b4 df c7 bd
       0.062697895 -0.14831904 0.0015855603 -0.09759465
000160 01 23 fe bc 20 cb eb 3d da aa 8c 3d 7c be d4 bd
       -0.03102255 0.115133524 0.06868525 -0.103878945
000170 6d 3c 03 3e ef ec 88 bc 89 5b cd 3d ad 7a 0b 3d
       0.1281602 -0.016714541 0.100272246 0.03405254
000180 37 68 ff 3c 90 69 65 bd d8 d3 ae bd 7a f4 a9 bd
       0.031177623 -0.056008875 -0.085365 -0.08298583
000190 49 5b de 3d ac ee 07 be 2a 54 14 bd 80 78 89 3d
       0.10857255 -0.1327464 -0.036213078 0.06712437
0001a0 77 fd 97 3d 5e 78 9a bd 41 bf b4 bd 7f 0f 58 3d
       0.074213915 -0.075424895 -0.08825541 0.052749153
0001b0 45 a0 d8 3d 85 5b a9 3d 44 db f8 bc 41 92 81 3d
       0.10577444 0.08269409 -0.030377991 0.06326724
0001c0 21 ee 04 3e 36 5f fe bc 14 1f b7 bd 32 52 01 bd
       0.12981464 -0.03105126 -0.089414746 -0.03157253
0001d0 6f b4 1f bd de 9b ab bd 5b 03 ce 3d f8 9f d6 bc
       -0.038990434 -0.08379339 0.10059234 -0.026199326
0001e0 54 39 0e 3e 76 6f dc bd 5e c6 79 3d d9 8c 1d bd
       0.13889056 -0.10763447 0.060980193 -0.0384644
0001f0 a4 a0 87 3d 01 d9 ac 3d 47 44 07 3e 68 d2 58 bd
       0.06622437 0.08439828 0.1320964 -0.052935034
000200 87 22 a1 3d a5 6e b4 bd 10 16 9d bc f6 ab 95 3d
       0.07867914 -0.08810166 -0.01917556 0.073081896
000210 55 83 16 3d 2b 85 65 bb 47 07 06 3e 40 1c 92 3c
       0.03674634 -0.0035022001 0.13088714 0.017835736
000220 58 56 13 3e 40 3c 00 be e9 9e 01 bd 25 a0 a5 3b
       0.14388406 -0.12522984 -0.03164569 0.005054491
000230 bf 3f 84 bd 8c 31 93 bd 13 57 1c 3e 49 6a 99 bc
       -0.06457471 -0.07187185 0.15267591 -0.018727439
000240 48 cf 6f bd 9b 0a 8b 3d 03 42 ce 3d b6 20 90 bb
       -0.05854729 0.06789132 0.100711845 -0.0043984307
000250 3c 18 6c bd eb 19 b0 3d a6 28 a2 bd 60 db 93 3d
       -0.0576403 0.085986935 -0.07917909 0.07219577
000260 6a 92 89 3c 94 4b a4 bd 6f 70 c0 3c 9d a1 bf 3d
       0.016793448 -0.08022228 0.023491113 0.09356997
000270 a9 ea 53 bd ff 5a f9 bd 3e 2b 9f 3c 52 30 39 bd
       -0.05173746 -0.12175559 0.0194298 -0.045212097
000280 63 43 ec 3c eb 3f 9b bd f3 16 37 3d a8 94 ab 3a
       0.028840726 -0.07580551 0.04469962 0.0013090568
000290 a0 d0 9e 3c 3c 1b 2c bd b4 01 ba 3d f5 5c 14 bd
       0.01938659 -0.04201816 0.09082356 -0.036221463
0002a0 1c 40 9b 3d e1 f3 ea bb 66 eb a7 3c de fb cf 3d
       0.07580587 -0.007170186 0.020497989 0.10155462
0002b0 92 83 92 3d bd 0f a1 bd a6 08 40 3d 96 93 d0 3c
       0.07154001 -0.0786433 0.046883248 0.025461
0002c0 70 5f a1 3c 84 68 51 bd b3 c7 9d 3d 9e 3b 86 3d
       0.019698828 -0.051125064 0.07704105 0.0655434
0002d0 b2 fe ad bd 67 3f c0 3d fd c1 a4 3c e7 7c 88 bc
       -0.08495845 0.09387093 0.020112032 -0.01666112
0002e0 18 bf 73 bc 50 65 d0 bd a5 b4 a6 bd 65 cb 24 3d
       -0.014877103 -0.10175574 -0.08139924 0.040233035
0002f0 a6 fc 8a 3d 7f 33 d4 3c 09 f1 cc 3d 47 dd 1e bd
       0.0678647 0.025903462 0.10006911 -0.038785245
000300 58 ba bf 3b 58 9f 4b bb f4 b5 59 bc 66 8b eb 3c
       0.0058510713 -0.0031070318 -0.01328801 0.028752994
000310 f7 1f 6f 3d ad b3 cc bd db 49 4c 3d 7a a6 c1 3a
       0.058380093 -0.09995208 0.04987512 0.0014774345
000320 ca 3e d4 3d fd c2 d6 3d ab 29 a3 bd 44 aa 5d 3d
       0.103635386 0.1048641 -0.07966932 0.054117456
000330 11 1c 53 bc e0 7b d8 3d 7e 36 95 bb cc cc 4e bd
       -0.0128851095 0.10570502 -0.004553615 -0.05048828
000340 76 5e ac 3d c3 84 95 3d 9e e0 19 3e 1c e7 cc bd
       0.084164545 0.07300713 0.15027091 -0.10005018
000350 c4 0d aa 3d 0b 39 0a be ac 6a 0b 3e c8 3e 27 bc
       0.08303407 -0.13498323 0.13614911 -0.010207839
000360 52 fa 8f 3c 19 74 6e 3d 2c f6 fd 3d 70 0e a3 bd
       0.017575417 0.058216188 0.12400469 -0.07961738
000370 50 56 0d 3d 64 ea c3 3d ed cf 9f bd 38 d5 98 3d
       0.034506142 0.09566191 -0.078033306 0.07462543
000380 c4 ff 8f bd 31 97 e8 3d d1 a9 27 bc d7 8e a7 3c
       -0.07031205 0.113569625 -0.0102333585 0.020453854
000390 07 87 ab bb 56 a3 c2 3d 91 41 b0 bd 36 56 ae bd
       -0.0052346024 0.0950381 -0.08606256 -0.08512537
0003a0 af d6 85 3d 1e d5 64 bb d1 88 9d bd 5c f8 b1 bd
       0.06535088 -0.0034917067 -0.07692111 -0.08689949
0003b0 1a b8 99 3d a3 9f d4 bd 7f ca 26 3e f9 64 a1 bc
       0.07505818 -0.10382011 0.16288184 -0.019701468
0003c0 ba 6e db 3d 64 32 ee bc 1e 94 f0 3d 0d bf 05 3b
       0.10714479 -0.029076762 0.11747001 0.0020408065
0003d0 7e a5 9e bd 47 f1 c9 3b 5b 19 09 bc 89 84 fc 3c
       -0.07746409 0.0061627957 -0.008367862 0.030824916
0003e0 9f 60 67 bc 83 69 4b bd 6f 52 42 3d cb 25 1d 3c
       -0.014122157 -0.04966117 0.047441896 0.00959153
0003f0 02 e6 14 3d 8d b3 c9 3d 87 e6 ad 3d f3 df 7e 3d
       0.036352165 0.098487 0.08491235 0.062225293

lstm.weight_hh_l0 f4 [256, 64]
000000 43 a7 0d be 3b b2 e8 bc 7a a9 c1 bc e3 da d1 3d
       -0.13833337 -0.0284053 -0.023640383 0.102468275
000010 45 73 a8 bd 08 a0 ae 3d f2 76 b4 3d ff 83 45 3d
       -0.08225111 0.08526617 0.088117495 0.048221584
000020 e1 1b 5c 3c 43 e6 d7 3c 17 fd dc bc 79 6b 71 3d
       0.013434381 0.026354915 -0.026976151 0.058940385
000030 f4 0d 88 bd 42 f6 d8 3d af f2 cb bd 7b 77 bd 3c
       -0.06643286 0.10593845 -0.099583976 0.023128262
000040 71 0a 32 3d 80 69 c7 bd 99 9a b8 bc c9 1b 07 bb
       0.04346699 -0.097369194 -0.022534655 -0.0020615926
000050 9b a3 3f bc b2 69 4f 3d 93 db 3b 3d 59 e9 4a bd
       -0.011696721 0.05063791 0.0458637 -0.049538944
000060 9f 19 47 bd 06 5f 56 bd 60 a5 dc 3d 4c 01 ff 3d
       -0.04860842 -0.052336715 0.1077373 0.12451419
000070 40 2c 6f 3d 48 56 81 3d ea 5b ca 38 d9 f7 96 bd
       0.05839181 0.06315285 9.649231e-05 -0.07371492
000080 33 ea 44 bd bf 0b 62 bd e4 1a d0 bb 7a 92 bb bc
       -0.048074912 -0.055186983 -0.006350862 -0.022896994
000090 f7 ed f4 bb 4b a2 b6 bd cb cb 9e bd 6a f2 8e bd
       -0.0074746567 -0.08917674 -0.07753714 -0.069798306
0000a0 f7 f7 0c bd de e4 c3 3c 85 f5 f9 bc 5c 87 42 bb
       -0.034416165 0.023912843 -0.03051258 -0.0029682731
0000b0 0d c5 5a bd a1 d7 07 3e 38 56 f1 3c 8e b5 d1 3d
       -0.05341058 0.1326585 0.029460058 0.10239707
0000c0 24 18 b0 3d 92 2d b8 bc 4a 94 b0 3d aa 72 48 bb
       0.085983545 -0.022482667 0.08622034 -0.0030585923
0000d0 7d 8f 97 bc 09 72 ae bd 8e 08 67 3d 5e 09 b1 3c
       -0.018501038 -0.08517844 0.056404643 0.021610912
0000e0 52 ff a0 bd 4c a1 07 3e 03 37 cb 3c 2b 43 da 3d
       -0.078611985 0.13245124 0.024806505 0.106573425
0000f0 bf 43 e4 3d 7c 2c a2 bc af ef 89 3d 0f 18 ee bc
       0.11145734 -0.019796602 0.06735169 -0.029064206
000100 79 80 f9 3d 43 09 d1 3d 79 5e 46 bd 5c 53 92 3d
       0.12182707 0.10206845 -0.04842994 0.07144806
000110 cf 29 a8 3d 40 d5 44 3d 99 9b f1 3d 88 1c 9b 3d
       0.08211099 0.048054934 0.11797256 0.07573801
000120 60 5b b2 3d 84 a0 80 bd 0b df eb bd c4 15 87 3d
       0.08708835 -0.06280616 -0.115171514 0.06595948
000130 ad 81 b9 3d 0c c2 f8 bd 81 cf 6f 3d f4 ad 9c 3d
       0.09057937 -0.121463865 0.0585475 0.076503664
000140 44 3e b4 bd 35 cc 7e bd 55 6a 1b 3c c8 2a d9 bd
       -0.08800939 -0.062206466 0.009485801 -0.10603863
000150 a5 3b d4 bc b4 18 52 bd 24 d5 d1 3d 04 3b 32 3d
       -0.025907347 -0.05129309 0.102457315 0.043513313
000160 fb f4 ab bd 3a 68 e3 bd 60 9b 9d 3c bf 2d ae bd
       -0.08396336 -0.11103864 0.019239128 -0.08504819
000170 f3 ce ba 3d b1 0b 5b bd a3 30 99 3d 32 cc 8b bd
       0.09121504 -0.053477947 0.0747998 -0.068260565
000180 e7 ed c8 3d 1d 93 07 bd 0c 0e 96 3d 7e 98 b6 bd
       0.09811001 -0.033099283 0.07326898 -0.08915804
000190 35 3b e5 3d df 24 b7 3d 9e 10 5b bd 6e 86 bc 3d
       0.111929335 0.089425795 -0.053482644 0.09205328
0001a0 0c 53 02 3e 5f c3 4b bd 31 c3 5f bc 75 07 1a 3c
       0.12726992 -0.049746867 -0.013657377 0.009401192
0001b0 d3 b1 5f 3d d9 4f e2 bc e2 48 0c bd 28 3d de 3c
       0.054612946 -0.027625965 -0.034249194 0.027128771
0001c0 76 fc 5a 3d 4b 31 05 3d 5a 5a ef 3c dd 02 e0 3b
       0.05346342 0.032517713 0.029217888 0.006836279
0001d0 13 b6 51 3d a2 85 e0 bd 42 c8 99 3c 47 c7 c4 bd
       0.05119903 -0.109629884 0.018772248 -0.09608322
0001e0 af 65 f8 3d 3d ed e1 3c 30 1b c7 bd ad 33 99 bd
       0.121287696 0.027578944 -0.097219825 -0.074805595
0001f0 01 8a de 3d fd 47 65 bd f9 f8 82 3c 2a 22 b8 bd
       0.10866166 -0.055976856 0.01598786 -0.08990891
000200 58 ea 85 3c c9 63 7d bd c7 ae 08 bd 6b 13 41 3b
       0.016347095 -0.06186274 -0.033369806 0.0029461037
000210 a8 79 1a ba 47 22 01 3e a4 42 2b 3c 81 7c bf 3d
       -0.0005892762 0.12610732 0.0104529 0.09349919
000220 5b e4 75 3d 96 f6 e0 bc 1e 7d 25 3d e9 6a 70 3d
       0.06003223 -0.027461331 0.040402524 0.058695707
000230 b5 6d fb bc 32 a0 4a 3d c9 ce a9 3c 46 f2 5b bc
       -0.03069196 0.04946918 0.020728486 -0.013424462
000240 01 44 d4 ba af 2d 67 3d 5b 23 89 bd 70 d4 ea bd
       -0.0016194583 0.05644005 -0.06696197 -0.114663005
000250 04 0c da bd 6c f3 3e 3d e3 ad 16 bc af 2b 3b 3d
       -0.10646823 0.046618864 -0.009196731 0.045695957
000260 3b 55 81 bd 3d 8b 29 bb 88 9a 97 bd f9 25 b8 bd
       -0.063150845 -0.0025870346 -0.07402521 -0.08991618
000270 23 de e6 bd 9d a0 03 be d1 c2 78 3d 25 b1 ce bd
       -0.11272838 -0.12854238 0.060732666 -0.100923814
000280 e6 93 79 3c 1c d4 b8 3b 02 eb a7 3d cc 9f f0 bd
       0.015233016 0.00564052 0.08199121 -0.11749229
000290 1b 89 5f bd b3 34 eb 3d 1b 7b fb 3d e1 d3 08 3e
       -0.054574113 0.11484661 0.1227934 0.13362075
0002a0 b8 f8 cd 3d f9 50 e8 3d 4e 0b f4 3d 62 1b 09 3d
       0.10057205 0.11343569 0.11916219 0.03347338
0002b0 2f 52 25 3d 0a d9 11 3e b1 9a 89 3a b9 cd 71 3d
       0.04036158 0.1424295 0.0010498372 0.059034083
0002c0 6b ce 83 3d d1 de 94 3d 40 62 b5 3d 03 e0 55 3c
       0.064358555 0.07269061 0.0885663 0.013053897
0002d0 d0 27 e7 3c ee b2 48 bd 73 31 8a 3d b4 55 73 3d
       0.028217226 -0.048998766 0.06747713 0.059407905
0002e0 6b fb 0d bb 53 84 33 3d c9 72 f0 bd 5a ad ff 3d
       -0.002166475 0.043827366 -0.117406435 0.12484236
0002f0 9d 6e ab 3d d1 82 3c 3c e2 a6 a4 bd 05 69 4f bd
       0.08370707 0.011505798 -0.08039643 -0.050637264
000300 19 52 57 bb 0b 3f 0c 3d c7 dc b3 bd dd 5e 31 bd
       -0.003285533 0.03423981 -0.08782344 -0.04330336
000310 30 11 be bd 5c 0b 0c 3d 7d 0f 82 3c 88 fd 94 3d
       -0.09280622 0.03419052 0.015876526 0.0727492
000320 ed 01 e0 bd 31 61 82 bd 32 46 9b bc e8 2d d6 3d
       -0.10937867 -0.06366194 -0.01895437 0.10457975
000330 d0 d5 e8 3d c1 a2 b4 3d 76 12 92 3d 4d f4 80 bd
       0.113689065 0.08820105 0.071324274 -0.06296597
000340 a6 97 01 3d be ae 0d be dc 53 6d 3d ca 67 a1 3d
       0.031638764 -0.1383619 0.057941303 0.07881124
000350 d1 52 b3 bd e1 1b 94 bb 9f 4a b4 bd a1 5e fd bc
       -0.0875603 -0.004519925 -0.08803295 -0.030928912
000360 ac df 18 be f2 42 3b 3b ad ca f9 bd 8a e4 45 bd
       -0.14929074 0.0028573838 -0.121968605 -0.048313655
000370 14 2e da 3d d8 e8 2a be 15 4f 0d 3e 0e 40 99 3d
       0.1065332 -0.16690385 0.13799699 0.074829206
000380 66 2c f5 bd 04 d9 52 bc f5 d9 09 3d ee 7c 03 bd
       -0.11971359 -0.012869123 0.033655126 -0.032101564
000390 29 9f 77 3d a6 62 82 3c 0f 8f ac 3d 2f d4 9d 3d
       0.06045452 0.01591618 0.08425724 0.077064864
0003a0 a9 8e ad bd 0d f1 2a bd 3c 9e ac 3d a3 ea d3 3d
       -0.08474476 -0.04173379 0.08428618 0.10347488
0003b0 cf 63 b7 bc 01 c9 01 bd 9e f4 37 3b 19 01 99 3c
       -0.02238646 -0.031685833 0.0028069387 0.018677281
0003c0 cb 90 ab bc ae e1 dd 3d 51 2f 8f bc d3 7e fd 3c
       -0.020943066 0.108340606 -0.017478617 0.030944264
0003d0 13 4f f8 bc 4b 51 e2 bc 00 95 c8 bd d4 f2 8e bd
       -0.030311143 -0.027626654 -0.097940445 -0.069799095
0003e0 d0 c5 49 bd 62 fa e3 bc 17 0a b2 bb 0c fe c0 bd
       -0.049260914 -0.027829353 -0.0054333317 -0.094234556
0003f0 a0 41 d3 3d 48 90 c3 bd ae 1e 72 bc fb b0 0b 3c
       0.10315251 -0.09549004 -0.014777822 0.008526082

lstm.bias_ih_l0 f4 [256]
000000 af 89 82 bc a8 54 87 3d 87 19 53 bd 8a 52 fd 3d
       -0.015934793 0.06607944 -0.051538017 0.12369259
000010 10 26 bc 3d 96 c4 05 3d b1 0e 0d 3d 6c 3e 56 bd
       0.09186947 0.032658182 0.03443784 -0.052305624
000020 7d 70 4d bd 44 46 08 3e ae 76 cb bd 2d 34 35 bd
       -0.050156105 0.13308054 -0.09934746 -0.04423921
000030 5a ed 3b 3c e9 f2 ed 3d db 66 e9 3d 66 44 b4 bd
       0.011470163 0.11618597 0.11396571 -0.088021085
000040 98 91 1e 3c 49 23 06 3d 34 ab 18 bb 19 36 af bd
       0.009678267 0.032748494 -0.0023295404 -0.0855524
000050 07 58 79 3c ff 10 5b 3d 91 4d 46 3d 3e 85 43 bd
       0.015218741 0.053483006 0.048413817 -0.04773449
000060 69 0b 5b bc 74 2a 92 3d 53 3d 66 3d 04 76 82 bc
       -0.01336942 0.071370035 0.056210827 -0.015925415
000070 38 87 17 3c b0 19 f0 bc bd 9c 59 3d d8 ba a6 3c
       0.009248547 -0.029309124 0.053127993 0.020352766
000080 d6 6b 48 bd e5 9f 12 bd eb e4 42 bd 7c 17 60 3d
       -0.048930965 -0.03579702 -0.047581594 0.054709896
000090 44 cb 05 3e 8f 80 e8 3d 8c 4c ae 3d 76 4f 19 bd
       0.13065821 0.113526456 0.08510694 -0.037429295
0000a0 b6 34 c5 3b d2 29 3b bd e3 d5 db 3d 7b f2 a6 3d
       0.0060182465 -0.04569418 0.10734155 0.08151718
0000b0 69 e9 b8 3d 90 74 99 bc 02 d1 e9 bc cd c1 31 bd
       0.090288945 -0.01873234 -0.028542046 -0.043397713
0000c0 30 11 db bd cb eb 07 3e b4 7f 05 3e d7 a0 9e 3d
       -0.10696638 0.13273542 0.13036996 0.077455215
0000d0 38 7c d3 bd 87 94 ad 3d 7c cf 32 3d 79 d1 c3 bd
       -0.10326427 0.08475595 0.043654904 -0.09561438
0000e0 e3 74 b7 bc 03 a5 03 3e 71 e5 12 bb a9 0c 6c bd
       -0.022394603 0.12855916 -0.002241459 -0.05762926
0000f0 01 50 a4 3c d7 8a 4f 3e ec 14 42 3d d8 c6 a4 3c
       0.02005768 0.20267807 0.047383234 0.020114347
000100 5a ad d5 bd c1 a5 e9 3d 7b 61 73 bd c2 ce e7 3c
       -0.10433455 0.11408568 -0.059419136 0.028296832
000110 a2 ae 5e 3d e5 84 06 3e f4 ca fc 3d c6 aa e4 3c
       0.05436576 0.13136633 0.12343398 0.027913462
000120 ab 9e a2 bd b4 11 64 bb ee cb 5a bd 01 8c 9d 3d
       -0.0794042 -0.003480059 -0.05341714 0.07692719
000130 b7 0a 9a bc 3a 40 71 3d b1 6c bf bd 58 cd ad 3d
       -0.018803937 0.05889914 -0.09346903 0.08486432
000140 ff 48 34 3d ae 3b 76 3d 2d 04 3d 3d d3 7d 5f bd
       0.044014927 0.06011551 0.04614656 -0.054563355
000150 ab 34 50 bd 04 73 6e bd 30 2f 8d bc ae cb 8d 3d
       -0.050831478 -0.058215156 -0.017234415 0.069236144
000160 42 dc 17 3d e0 90 ed 3d ad 6e be bd ad 00 b3 3d
       0.03707529 0.11599898 -0.092984535 0.08740363
000170 6b ab 09 3d 94 34 c7 3d d9 80 81 3d 1b 7d 14 3d
       0.033610743 0.09726825 0.06323404 0.036252122
000180 aa 41 e1 3d 8a d9 97 3d 51 5f ce 3c 7d 56 01 bd
       0.109988526 0.07414539 0.025191935 -0.031576622
000190 fe 94 fe 3d 98 a8 8f 3d bc df 7f 3d a6 ec c6 bc
       0.12430762 0.070145786 0.06246923 -0.024282765
0001a0 4e 47 94 3d e7 ce e4 3c 52 9c 06 3d 07 6f 8a 3d
       0.07240163 0.02793069 0.032863922 0.06759458
0001b0 75 50 c2 bc 21 dc 27 bd ce bc b0 bc 56 b8 bd bc
       -0.023720006 -0.040981416 -0.021574404 -0.023159187
0001c0 fe 2d 9b bd 60 6f 34 bb 98 59 42 bc aa 20 f0 bd
       -0.07577132 -0.0027532205 -0.011862181 -0.1172498
0001d0 e0 17 ae bd f8 42 c6 bd 0b 94 01 bc 87 64 b9 bd
       -0.085006475 -0.09680742 -0.007908831 -0.09052377
0001e0 91 56 9a 3c ab 67 72 3d 4e d2 be 3b ad 1e b8 bd
       0.018840106 0.059180897 0.00582341 -0.08990226
0001f0 1b e8 08 3e 29 5d b1 bc 2a dd 11 bd 5a 9f 08 3e
       0.13369791 -0.021650868 -0.03561131 0.13342038
000200 ba de 34 3d 98 96 fc 3d f0 01 9e bd 94 5d e4 bd
       0.04415772 0.12333411 -0.07715213 -0.11150661
000210 c2 cd 08 bd 26 9e ad bb cb c4 ea bd ce f2 8f bd
       -0.03339935 -0.005298394 -0.114633165 -0.07028733
000220 be a4 01 be d0 f1 be 3d 06 a1 25 3c 2e 62 0a 3e
       -0.126605 0.09323466 0.010109192 0.13514015
000230 63 8e 8c 3d 33 ba ae bd a0 50 75 bd 14 6a 58 3c
       0.068630956 -0.085316084 -0.059891343 0.013208885
000240 cc e9 e6 bc 33 71 06 bd 50 eb 58 bc 47 af 77 bc
       -0.028187655 -0.0328228 -0.013239697 -0.015117473
000250 8c 27 47 3d 88 a5 1c 3d d5 bf 69 3d 5b 56 b2 bd
       0.0486217 0.0382438 0.05706771 -0.08707877
000260 ce 8f 47 3d 17 3d fb bd f5 9d 15 3e 2b 12 9f bd
       0.048721127 -0.12267511 0.14611037 -0.07767137
000270 bc ed 06 be 79 c1 d2 bd 6e 3d dc 3d 06 49 b5 bd
       -0.13176626 -0.10290808 0.10753904 -0.08851819
000280 c2 21 bb bd fc ba 59 3d 83 72 0d 3e 02 96 14 3d
       -0.09137298 0.053156838 0.13813214 0.03627587
000290 46 bd 06 3e 9c 3e 1d 3d 54 0a ee 3d f0 d7 7b 3d
       0.1315814 0.038389787 0.11623064 0.06148523
0002a0 0b 91 62 bd 7a ea 6d bc 7c c5 bc 3d 7b 94 3f 3d
       -0.055314105 -0.014521236 0.09217355 0.04677246
0002b0 63 58 c7 bd 63 57 a8 3d e4 b1 b7 3c 96 3f f5 bd
       -0.09733655 0.08219793 0.022423692 -0.11975019
0002c0 25 5d 36 3d cc 4e 88 3b 54 d9 b2 3d 2d 37 c9 3d
       0.044522423 0.004159784 0.08732858 0.09824977
0002d0 6e 55 99 bd b0 e2 fa bd 6f 87 b9 3c 0c 91 ff bd
       -0.074869975 -0.122502685 0.022647588 -0.12478837
0002e0 2d b3 98 3c d7 df 71 3b 0c 0c 0e be d1 41 a8 3d
       0.018640125 0.00369071 -0.13871783 0.082156785
0002f0 65 0f 7f bd 29 5b 9d 3d e7 e9 9c 3d 78 cf 4f bd
       -0.06227054 0.07683403 0.07661801 -0.050734967
000300 7c fb 18 bd ec f3 f3 3d d0 c9 56 3d 35 49 8b bd
       -0.03734921 0.11911759 0.052438557 -0.068010725
000310 92 01 0c 3d 6c 7b cc bd 08 0b 49 3d cb 79 60 3d
       0.034181185 -0.09984478 0.049082786 0.05480365
000320 66 52 5f bd bb 8c 11 3e 88 a9 be 3b 08 49 98 bd
       -0.05452194 0.1421384 0.0058185495 -0.074358046
000330 ad 82 55 bd 14 b8 b1 3d d0 22 9c 3d de 8f 16 3d
       -0.052126575 0.08677688 0.076238275 0.036758296
000340 a0 1c 9a 3d 16 e8 83 bd 11 48 d4 3a 1c 5e c4 3d
       0.07524991 -0.06440751 0.0016195794 0.095882624
000350 4b 0c f7 3d f8 16 94 bd 0f 1a f1 bc 98 ed 26 bd
       0.120628916 -0.072309434 -0.029431371 -0.04075393
000360 89 d3 ca bd f6 31 cb ba a4 b6 05 3d 6c 64 e2 bc
       -0.099036284 -0.001550256 0.032644883 -0.027635776
000370 83 f1 cd bb cb 4b bb bd e2 5d 02 3e 6b 4a cc 3d
       -0.006284894 -0.09145316 0.12731126 0.099751316
000380 0f 35 0a 3e 3d e2 0d 3d 33 be 37 bd 32 ab 55 3d
       0.13496803 0.034639586 -0.044859122 0.052165218
000390 ee 59 77 3d 3d ce e4 3d f7 e0 16 3c 02 79 89 bd
       0.060388498 0.11172149 0.009208909 -0.067125335
0003a0 9d 72 80 bc 09 60 30 3d 87 e3 d5 3d 53 1c 8e bc
       -0.015679652 0.043060336 0.10443788 -0.01734749
0003b0 dc b8 33 3d b4 a0 15 3d 35 d4 69 bb 93 db ca bd
       0.043877468 0.03653021 -0.0035679464 -0.09905162
0003c0 4f b4 69 3c 88 4a e8 3c 35 97 69 3d 4a 7c 19 bd
       0.01426418 0.028355852 0.057028968 -0.037472047
0003d0 ca 91 29 3d 22 26 92 bd 6a 9f a7 3d 92 e9 c0 3d
       0.0413988 -0.071361795 0.08184703 0.0941955
0003e0 a9 96 51 3b 32 eb b4 3d 10 60 07 3c 12 ca 97 3c
       0.003198067 0.088339224 0.008262649 0.018528972
0003f0 6f 22 ab bd 0c a0 02 3e 1c 38 bb 3c da 7a 6f bd
       -0.08356177 0.12756366 0.022853903 -0.05846677

lstm.bias_hh_l0 f4 [256]
000000 4f 56 0a 3e 00 ce ea 3d 12 36 cf 3d 5f b6 7e 3d
       0.13509487 0.11465073 0.10117735 0.06218564
000010 14 0a c9 3d f2 8b c1 3d 83 84 87 3d a5 41 72 3c
       0.098163754 0.094505206 0.066170715 0.014786159
000020 4b b3 1a 3d 8d 62 04 3e 84 51 7e 3d 59 f4 f0 3d
       0.037768643 0.12928219 0.062089458 0.117653556
000030 b0 89 c2 bd d5 9c a8 3d 6d 22 a4 bd 9a be f9 3c
       -0.09498918 0.08233038 -0.08014379 0.030486394
000040 c8 85 c9 3c 1d f2 03 3d 25 9d be 3d 1b f9 de 3d
       0.024599925 0.03221332 0.09307317 0.10887357
000050 0c 9e 58 bd a5 1b 07 3d 34 5a a4 3d f7 f1 a7 bd
       -0.0528851 0.03298535 0.080250174 -0.08200448
000060 a5 6a 6b 3c 90 42 0a 3e ed 9c 4a bb 88 f6 b7 bd
       0.014368688 0.13501954 -0.003091629 -0.08982569
000070 36 58 90 3d e1 96 cf 3c 70 43 f1 3d fb da 99 3d
       0.07048075 0.0253405 0.11780441 0.0751247
000080 6e c3 96 3c 7e 47 11 3d 49 4d 27 3d e3 b8 c9 3d
       0.018403735 0.03546857 0.04084519 0.098497175
000090 9e ae f4 3d e5 4b a6 bd 34 4e 92 bd 2f 8c 34 bc
       0.11947368 -0.081199445 -0.07143822 -0.0110197505
0000a0 17 e1 0b bd 49 93 fc bb b2 8b 31 bd c9 57 7b 39
       -0.03415021 -0.0077079874 -0.043346114 0.00023969928
0000b0 4b e5 39 bd 8a da 0d bd 70 b1 b5 3d 2e d0 c1 bd
       -0.045384686 -0.034632243 0.08871734 -0.09463535
0000c0 94 8c d3 3d 21 7f f4 3c 51 02 c4 bd f5 44 9a 3b
       0.103295475 0.029845776 -0.09570754 0.0047079273
0000d0 eb 42 0b 3e 42 f4 59 3d b8 11 94 bd 03 4f a9 3b
       0.13599746 0.053211458 -0.07229942 0.0051668896
0000e0 c6 1b b3 3d a8 70 ea 3c f8 21 02 bc a7 e7 0b bd
       0.08745532 0.028618172 -0.007942669 -0.034156468
0000f0 e2 b1 38 bd 78 e4 81 3d 61 2a b0 3d dd a6 9b 3b
       -0.045091517 0.06342405 0.08601833 0.0047501163
000100 f4 d5 fc bc 7d ad d3 3c c8 31 2a 3c a8 3a 66 bd
       -0.03086374 0.025839562 0.010387845 -0.056208283
000110 72 52 a8 bd 4e d3 2c 3d 54 d0 c3 bb 22 9e 2e 3c
       -0.0821885 0.042193703 -0.0059757624 0.010657819
000120 dd 42 9d 3d c6 00 cf bd 27 ca aa 3d 1d 24 ec 3d
       0.07678769 -0.101075694 0.08339339 0.115303256
000130 23 34 b7 3d 1e 86 5e 3c 4f 94 a1 bd fe d4 c7 3d
       0.08945491 0.013581781 -0.07889616 0.09757422
000140 95 42 1e bd d7 8c e2 bd 89 e4 19 3d e0 58 80 bd
       -0.038637716 -0.11062019 0.037571464 -0.062669516
000150 da 4f ca 3d 28 4e b6 bd 89 c5 be 3d ee 93 b9 3d
       0.09878512 -0.08901626 0.093150206 0.090614185
000160 b3 c6 6a 3d 01 9d e9 3c 27 70 98 3d aa 6a 4b bd
       0.0573184 0.028517248 0.07443266 -0.04966227
000170 38 ca 62 3c 94 3d a6 3d 2f 50 4c bd a6 52 d9 bc
       0.013842158 0.08117214 -0.049881157 -0.026528668
000180 52 0c 84 3d 98 00 6b 3d a5 15 f8 3c cf 0b 67 3d
       0.064476624 0.057373613 0.030283758 0.056407746
000190 4b 13 de 3d 79 b7 f2 bd 22 67 3e 3c b9 7b af bd
       0.108435236 -0.11851401 0.0116212685 -0.0856852
0001a0 c6 b9 d3 3d c3 a3 0b 3e 75 d6 4e 3d a5 d7 b3 3d
       0.10338168 0.13636689 0.05049749 0.08781365
0001b0 79 d7 ac 3c c6 8f a5 3d e5 f5 2b bd fe ab b2 bd
       0.02109884 0.08084063 -0.04198255 -0.08724211
0001c0 24 53 c5 bc 47 66 b0 bd e7 a0 87 bd cd a8 77 bc
       -0.024087496 -0.08613258 -0.066224866 -0.015115929
0001d0 b2 3d 2b 3c 32 6f ce 3d 09 6d ee 3c 92 7b 99 3d
       0.010451721 0.100798026 0.029104726 0.07494272
0001e0 8c 23 c8 bd 5f 63 bd 3d 9f e7 e1 3d 05 8b c9 3d
       -0.09772405 0.09247469 0.11030506 0.09840969
0001f0 6b 7e 02 3e cd 51 bf 3c 22 8c 45 bd 49 38 4f bc
       0.12743537 0.023354435 -0.048229344 -0.012647697
000200 13 16 10 be 6b 26 48 bd fc d6 7c 3d 7d 7c 00 bd
       -0.1407092 -0.048864763 0.061728463 -0.03136872
000210 49 5d 36 bd 88 08 95 3d af 6d b6 bd a4 9d d3 bd
       -0.044522557 0.07277018 -0.08907639 -0.10332802
000220 54 eb aa bd a7 f2 12 be cf 9e f9 bd 1f 8e 87 3d
       -0.083456665 -0.14350377 -0.121884935 0.06618904
000230 26 c8 77 3d fb 6e d6 bd ba 16 95 3d 7e ed 58 3d
       0.06049361 -0.104703866 0.072797254 0.052960865
000240 0f 95 f4 bd 42 6a ca 3c 6b f0 05 be e5 63 ce bd
       -0.11942493 0.02470887 -0.13079993 -0.10077647
000250 f2 4a 7f bd a7 51 01 3e 75 4f 2a 3d 4b c6 e3 3c
       -0.062327333 0.12628804 0.041579682 0.027804514
000260 86 f4 47 bd ff 78 ef 3c 8c ec e7 3c b1 e1 69 bc
       -0.04881718 0.0292325 0.028311037 -0.014275
000270 17 aa 10 be 2f f4 6b 3d 77 98 0c 3e b2 8e 31 bd
       -0.14127384 0.05760592 0.13730036 -0.043348975
000280 74 3d 1f bd 70 f1 0f 3e 0d 6a c9 bd 6f 50 c5 bc
       -0.038876966 0.14056945 -0.09834681 -0.024086205
000290 fd de 89 bd ff 6b a6 bb 20 54 13 3d e6 6b 21 3c
       -0.06731985 -0.005078792 0.0359689 0.009852385
0002a0 13 9c 73 bd 92 b3 f5 bc d2 91 d4 3d e1 1b 1d bc
       -0.059475016 -0.029992852 0.103793755 -0.009589166
0002b0 c6 b2 22 3d 0d ad 33 bc 0c bc fb 3d 32 3d aa b8
       0.039721273 -0.0109665515 0.122917265 -8.11763e-05
0002c0 3f 3e 09 be 52 09 8b 3d 55 14 02 3e 23 1f 81 3d
       -0.13402651 0.06788887 0.12703069 0.06304767
0002d0 31 ae 1f 3d 74 b4 5b 3c a6 9b 63 bd 44 0e b7 3c
       0.03898448 0.013409723 -0.05556836 0.02234567
0002e0 d5 6f 84 3c 0c 01 b5 3d 16 8b a0 bd 07 59 e2 bc
       0.016166607 0.0883809 -0.078390285 -0.027630342
0002f0 32 af 0f 3e 9a 2f 85 bd a3 da d8 3d fc de dd 3d
       0.14031675 -0.0650322 0.10588577 0.108335465
000300 0d 46 af bd da db b4 bd 03 5f ef bc 87 a8 73 3d
       -0.08558283 -0.08830996 -0.02922011 0.059486892
000310 f6 57 ca 3d a0 d6 cc 3d b7 f7 df 3c 93 80 cb 3c
       0.098800585 0.10001874 0.0273398 0.024841582
000320 66 ce 5a bd 37 36 e1 3d b8 56 6a 3d 98 fa 20 3d
       -0.053419493 0.10996669 0.057211608 0.039301485
000330 d7 94 01 bc 73 e7 51 bd 04 68 12 3e 77 96 74 3d
       -0.007909021 -0.051246118 0.14297491 0.059713807
000340 79 5f bb 3d a6 ee bc bd 89 21 db 3d b3 b0 86 3d
       0.09149069 -0.09225206 0.10699756 0.065766715
000350 fe cf bd 3d 2e 68 5a 3d e0 ef 9b bd 85 f3 0b bd
       0.09268187 0.05332201 -0.07614112 -0.034167785
000360 65 b5 42 bd 84 65 85 bc 23 cc 21 3c 73 a4 83 3d
       -0.047536273 -0.016283758 0.00987533 0.064278506
000370 d3 ae f6 3d ed fa 1a 3e a7 01 e7 3d e1 c5 93 3d
       0.12045064 0.15134783 0.11279612 0.07215477
000380 92 17 d0 3d 5f 97 fa ba 85 86 ab bd 72 39 54 3d
       0.10160746 -0.0019118598 -0.08375267 0.051812597
000390 7a e2 a5 bd d9 11 a3 3c 82 44 58 3d f2 6f 89 bd
       -0.080998376 0.019905971 0.05279971 -0.06710805
0003a0 be 80 87 bd 71 ea 76 3d 97 a7 ca bd cc 52 9d bc
       -0.066163525 0.060282174 -0.098952465 -0.01920452
0003b0 83 fe b9 3d 9c bd 83 bd af c8 94 bd 0a e9 50 bb
       0.090817474 -0.064326495 -0.0726484 -0.0031877183
0003c0 d8 5a 54 3d a7 bc f8 bc 25 b9 cc 3d 06 29 ac bb
       0.051844448 -0.030363394 0.09996251 -0.005253914
0003d0 a8 fd 00 3d 8d de cc 3c b6 f0 cd bd 24 30 14 3c
       0.031491905 0.025008464 -0.100556776 0.009044681
0003e0 72 66 ec 3d 3a 46 c0 bd 58 ac e2 3d 4d e4 b2 3d
       0.115429774 -0.09388395 0.11068028 0.08734951
0003f0 e3 2b 60 3d ad d8 21 bd 37 92 31 3c 03 a6 57 bc
       0.054729354 -0.03951328 0.010838083 -0.013162139

lstm.weight_ih_l1 f4 [256, 64]
000000 3b 63 79 ba cb c0 c0 3d 8d 93 e0 bb 29 6d eb bd
       -0.00095133827 0.09411772 -0.006853527 -0.1149543
000010 3a 7f ef 3c 2b 85 a0 bd b3 6a d8 bb 13 05 01 3e
       0.029235471 -0.078379 -0.0066045164 0.12599592
000020 f5 c6 fe bb 9a 6c a5 3d f4 5a 8d bb 27 ec 60 bc
       -0.0077751824 0.08077355 -0.004313821 -0.013728178
000030 51 45 cc bc dc 17 d9 3d 62 4c 5a bc 79 26 b2 3d
       -0.024935396 0.10600254 -0.013323875 0.08698744
000040 1d 4b 80 bd f8 58 8f bd 02 52 de 3d ac be 3e bd
       -0.06264327 -0.06999391 0.108554855 -0.046568558
000050 4c 8d ec 3d 27 c3 95 bc ab 69 c8 bd d8 a5 68 3d
       0.11550388 -0.018281532 -0.097857796 0.056798786
000060 33 f6 24 3c 54 91 24 3d 16 e1 87 bd 2e ec 1c bc
       0.010068464 0.04017766 -0.066347286 -0.009577794
000070 1e c5 3a 3d 9f a2 a1 3d 22 a5 67 3d ce 19 e6 bd
       0.04559814 0.07892346 0.056553967 -0.112353906
000080 b5 9b 48 3c 99 4f d6 3d 4b 9e 97 3d 58 db 51 3d
       0.012244155 0.10464401 0.07403239 0.051234573
000090 90 37 36 3c 9c a1 56 3d e1 40 01 3d 76 d5 e6 bc
       0.011121646 0.052400216 0.031556014 -0.028177958
0000a0 b5 a7 d5 bc d1 08 e3 3d ab 3d ba bd dd ae 3d 3d
       -0.026080946 0.11085666 -0.090937935 0.04630934
0000b0 80 02 18 bd fc 82 4a 3c fd 89 c9 bd f8 fe 69 3d
       -0.03711176 0.012360331 -0.09840772 0.057127923
0000c0 5d 01 24 bd 20 e2 34 3d 90 89 75 3c 66 4c b7 bd
       -0.040040363 0.044160962 0.014986411 -0.08950119
0000d0 84 c2 93 bd 7c cc 7d 3c c6 e4 78 3d 7d 5c d5 3d
       -0.07214835 0.015490647 0.06076505 0.10418031
0000e0 4e be 01 be 11 28 07 3d 77 bb 69 bd cc 9a 0c bc
       -0.12670252 0.032997195 -0.057063546 -0.008581828
0000f0 65 63 99 3d c6 f4 37 3c 3a 18 c8 3d fb d5 e1 3d
       0.07489661 0.011227792 0.09770246 0.11027142
000100 ca 3f aa bd 1d 23 8e bd 06 b6 ed 3c 61 37 05 be
       -0.08312948 -0.06940291 0.02901746 -0.13009407
000110 24 b6 79 bc d7 ab 3f bc 9c 13 c3 3d de b5 42 3b
       -0.01524118 -0.011698685 0.095252246 0.0029710452
000120 90 12 72 bc 6f 6f eb bd 5d 86 94 bc bb d9 1a bd
       -0.014774933 -0.11495864 -0.018130476 -0.0378053
000130 bb 70 85 bd 35 9d c8 bd 74 c3 f9 3b 69 a7 52 bd
       -0.06515642 -0.0979561 0.007622177 -0.051429186
000140 9b 8c 3d 3c ca 81 06 be 89 85 0b bd af b0 bf bd
       0.0115691675 -0.13135448 -0.034062896 -0.093598716
000150 1b 55 1a bd 4f d8 54 bb 81 01 b6 bb 1b 9b ed 3b
       -0.03767882 -0.0032477563 -0.0055543785 0.007251156
000160 60 0b 02 be a9 58 7e 3d d3 49 92 bd 87 12 04 3e
       -0.12699652 0.06209627 -0.07142987 0.12897693
000170 ef c7 16 bd 51 2a 3e bc 28 3f f3 3d 15 8a 65 bd
       -0.036811765 -0.011606769 0.118772805 -0.05603989
000180 13 b8 a1 3c 01 82 29 3d 53 24 04 3e 35 6b 0a be
       0.019741094 0.041383747 0.12904482 -0.13517459
000190 f1 64 f3 3d bd 35 95 3d ee bb 8a bd 98 b5 bc bc
       0.118844874 0.072856404 -0.06774126 -0.02303581
0001a0 8e bb 0d be 98 f5 99 bd 1e 1f 6c bd bf 62 ef 3d
       -0.13841078 -0.075175464 -0.057646863 0.11688756
0001b0 5c e5 28 3d 65 14 f4 3d 7c fe 33 3d 07 77 e0 bd
       0.04123436 0.119179524 0.043943867 -0.10960203
0001c0 4d 20 c6 3d 19 1d c4 3d 79 10 34 bb d4 0a 78 bc
       0.0967413 0.095758624 -0.0027475639 -0.0151393
0001d0 ec 01 3e bc f1 0f 3e bd c6 98 8e bd b9 97 9c 3b
       -0.011597138 -0.04640192 -0.06962733 0.004778829
0001e0 1c fe c7 bc 27 e4 ba 3c 7a 87 00 3c 7a 46 fe bc
       -0.024413161 0.02281387 0.0078448 -0.031039465
0001f0 3d e4 e4 3d f9 8d 99 bd c3 68 cf bb 74 70 08 3e
       0.111763455 -0.07497782 -0.0063296272 0.13324147
000200 f8 c1 6b bd d5 d1 b6 3d b8 68 7f 3d 88 10 1a be
       -0.05755803 0.08926741 0.062355727 -0.15045369
000210 58 a3 cc bd e8 4a f1 3d a7 12 9a bd 40 74 1a 3d
       -0.09992093 0.11781865 -0.07523089 0.03770852
000220 43 cc a5 bc af f8 5a bd 0d fc 0d 3d b3 f8 92 bb
       -0.020239001 -0.05345982 0.034664202 -0.0044852137
000230 cc fd 57 bd 0e ba 0b be 96 82 ee 3c 6a e6 db bb
       -0.052732274 -0.13645193 0.029115003 -0.006710817
000240 b0 b6 43 3b b8 cd 07 bc f6 ae 1d ba 1d 88 fa bd
       0.002986353 -0.008288793 -0.0006015146 -0.12232993
000250 ce 90 9b bd 0c 5c 25 3d 87 e3 dd 3c b0 ba af bd
       -0.07595979 0.040370986 0.027086033 -0.0858053
000260 7a 2c 8b 3c 29 c7 d9 bd af 21 82 3d 7e c8 e4 bd
       0.016988982 -0.1063369 0.06354081 -0.11171053
000270 ac 21 7c bc dc 32 01 be 73 c2 23 bd 9b 6e db 3c
       -0.015388887 -0.12617058 -0.039980363 0.02678614
000280 95 22 98 bc e9 28 18 3e 87 66 5e bd 9d 19 b4 3c
       -0.018571177 0.14859356 -0.054296996 0.02198487
000290 4b 0b 26 bc 7b 05 09 be 52 51 c1 3d dd 91 c2 bd
       -0.010134528 -0.13380997 0.09439339 -0.095004775
0002a0 89 40 b9 3d a9 d8 f0 3d 9f 13 1e 3d 43 81 02 3e
       0.09045512 0.11760075 0.03859293 0.12744622
0002b0 e4 a5 67 3d a4 25 dc bc 65 36 dc 3d 68 e7 62 bd
       0.05655469 -0.026873417 0.107525624 -0.055396467
0002c0 ab c6 8a bd 55 98 b0 bd f5 27 8e 3d 2a 62 1a 3e
       -0.06776174 -0.08622805 0.06941215 0.15076509
0002d0 97 aa 61 3d 30 4c 87 3b 0a 7f bc bd 0d 69 ac bb
       0.055094328 0.0041289553 -0.09203918 -0.0052615465
0002e0 a5 a2 bc bc 36 14 0d 3d 50 92 b6 bd fb 2a ba 3c
       -0.023026774 0.034443103 -0.08914626 0.022725573
0002f0 9f c5 65 bc 71 6e a3 3d 9f e4 40 bd 21 68 38 3c
       -0.014024167 0.079800494 -0.04709303 0.011255295
000300 f7 be ac 3b d4 6a ed 3d 0c 9f be bc e1 66 81 bc
       0.005271788 0.115926415 -0.023269199 -0.015796127
000310 b4 50 ff bc 3b c5 a3 3d ef 03 cf 3d 6f 1a 01 be
       -0.031166412 0.07996603 0.10108172 -0.1260774
000320 85 70 89 3d 11 5a 48 bc d9 95 e0 3b 93 74 97 3b
       0.067109145 -0.012228505 0.0068538007 0.004622051
000330 b9 4f c7 3b e6 dc 78 bd cf cd 82 bd 7a 60 43 3d
       0.0060825017 -0.06075754 -0.06386911 0.04769943
000340 85 1a ef 3d 98 b1 c9 bd 84 21 6f bd cf 22 36 bd
       0.1167498 -0.098483264 -0.058381572 -0.04446679
000350 b7 71 ed 3d 29 ca 66 bd 21 ee 78 bc 29 1e 53 3d
       0.11593955 -0.05634514 -0.015193493 0.051542435
000360 5b 6f 18 bd 6f e9 a7 3d ba f9 ca 3d a5 72 86 3d
       -0.03721557 0.08198821 0.09910913 0.065648355
000370 02 b5 be 3c 4a f5 e6 bd 76 24 8d 3d 75 db 24 bd
       0.02327967 -0.11277254 0.0689172 -0.040248353
000380 9a 94 d6 bd 69 06 dd bd e4 93 c9 3d 70 c6 ca 3d
       -0.10477562 -0.10792238 0.09842661 0.0990113
000390 5c b0 1e bd 39 d4 fe bd c3 66 ee bd 39 4a d1 bd
       -0.03874241 -0.12442822 -0.11640694 -0.10219235
0003a0 6a 77 08 3d af 7c 54 bd f2 05 d6 3d a9 27 8a bd
       0.033317007 -0.05187672 0.10450353 -0.06745846
0003b0 a9 e6 16 bd ce ed ea 3c e4 58 e9 bd 27 d9 b3 3c
       -0.03684107 0.028677847 -0.11393908 0.021954132
0003c0 1a b4 3e bc 51 81 d9 bd 15 b4 de 3c 74 d1 e2 bd
       -0.011639619 -0.10620368 0.02718548 -0.11075106
0003d0 4f 7f ca 3d 5a 40 b3 3d 99 ad de 3b ae b8 57 3d
       0.098875634 0.087525085 0.006795597 0.05266636
0003e0 0d 08 fb 3d 71 5e 94 3d fa cc 97 3c 01 94 ab bd
       0.12257395 0.07244576 0.018530358 -0.08377839
0003f0 ef 8e ae bd f6 9d 23 be e0 39 d4 3c 16 f9 54 bd
       -0.08523356 -0.15978226 0.025906503 -0.05199536

lstm.weight_hh_l1 f4 [256, 64]
000000 8c 7f a7 3d a8 3c 59 3d 89 74 cd bd 3f a6 e2 3d
       0.081786245 0.053036362 -0.10031993 0.11066865
000010 af 71 80 3c 45 12 6f 3d 17 b1 67 bd 3b d1 bb 3d
       0.015679209 0.058367033 -0.05656537 0.09170767
000020 45 fe f2 3d 63 17 62 bd 81 4e 06 be 91 95 38 3c
       0.11864904 -0.055198085 -0.13115884 0.011266128
000030 33 2d 1f bd c3 a8 92 bd 25 ed a8 bd c4 b2 e6 bd
       -0.038861465 -0.07161095 -0.08248357 -0.112645656
000040 9f 2e d2 3d 83 d4 1e bd 0d 04 0c bd 4c e1 eb bd
       0.102627985 -0.038776886 -0.03418355 -0.11517581
000050 8f 8d dd 3d 1f 13 15 bd 3c 80 9d 3d 6c 8f 24 bd
       0.10818016 -0.03639519 0.076904744 -0.04017584
000060 0f 27 13 bd 62 a7 21 3d 1f 72 8d bd 95 f3 52 bd
       -0.03592592 0.03946627 -0.069065325 -0.05150183
000070 19 17 bb 3d a3 37 98 bd b2 7e 8d bd 1c 24 31 3d
       0.09135265 -0.07432487 -0.06908931 0.043247327
000080 8d 84 98 3d bd 66 25 3c cf 0d d6 3d 39 d1 0c 3d
       0.07447157 0.0100952955 0.104518525 0.034379218
000090 64 8b 28 3d 26 4c f8 3d 77 d2 5e bd b3 11 af 3d
       0.04114856 0.12123899 -0.054399934 0.08548298
0000a0 16 6d b1 bd d7 40 b9 bd 94 b0 e6 3d 83 85 89 bd
       -0.086633846 -0.0904557 0.11264148 -0.067149185
0000b0 24 45 c6 3c 13 e4 82 3d cc 59 77 3d 76 6c 75 3d
       0.02420289 0.06391158 0.06038837 0.05991789
0000c0 2c 06 9f 3d cc de e3 3d 33 aa eb bd 52 2b 94 3d
       0.07764849 0.111264795 -0.11507072 0.07234825
0000d0 c7 6d 52 bd 53 a7 65 bd d5 6c bd 3d c0 f7 93 3d
       -0.051374223 -0.056067776 0.09249274 0.07224989
0000e0 c7 1e 9c 3d 70 ac 8d 3c ab 1a 17 3e b6 92 29 3b
       0.07623058 0.017294139 0.14756267 0.00258748
0000f0 5f 2d c0 3d 55 8a cf bd 2c af 00 bd 7b 51 d1 3c
       0.09383654 -0.101338066 -0.031417057 0.025551548
000100 d0 6e 93 3c 20 ce c2 bd 65 70 af 3d 98 3e 0a bd
       0.017997175 -0.095119715 0.085663594 -0.0337511
000110 5d 23 1a 3d 15 b9 fa 3d c1 74 ba 3d 7c 41 a0 3d
       0.03763138 0.12242333 0.091043 0.0782499
000120 77 6a a7 bd 44 ab 3c bd f8 41 18 3e f6 fa b5 bd
       -0.081746034 -0.04606177 0.14868915 -0.088857576
000130 69 81 b4 bc 9d 00 7c bb 33 2e b6 3d 4d 16 e6 3c
       -0.022034364 -0.0038452514 0.088955306 0.028086806
000140 1b 39 35 3c 95 cd 85 bd 40 03 cc bc 01 0f 0a 3d
       0.011060978 -0.06533352 -0.024903893 0.033705715
000150 c1 d3 c0 bd a8 7b 7f 3a 6b 59 1a bd 71 73 5c 3d
       -0.09415389 0.0009745904 -0.037682932 0.05382103
000160 31 e0 bd 3d 44 21 3e 3c e1 68 41 3d a3 19 07 be
       0.09271277 0.011604611 0.04721916 -0.13193373
000170 01 4e a4 3d cc 98 2f bd 93 0d 8f 3d cd 59 4e 3a
       0.080226906 -0.042870328 0.06985011 0.0007871658
000180 f1 4c 43 3c 42 1c 98 bd 00 56 43 3d b9 00 06 3e
       0.0119202 -0.07427265 0.047689438 0.13086213
000190 c2 c6 67 3d 73 2e 0d be e5 04 e8 bd c2 78 17 bd
       0.056586035 -0.1378725 -0.113290586 -0.036980398
0001a0 a9 ca 83 3d 0c c8 a1 bd e6 32 e0 bc 72 96 97 bd
       0.06435139 -0.07899484 -0.02736802 -0.07401742
0001b0 a3 79 cb 3d 9c ee a7 3d ca 1d 58 bd a1 63 a7 3d
       0.0993531 0.08199808 -0.052762784 0.081732996
0001c0 3d 04 8e 3d 8b 30 56 3d 88 00 83 bd 2e 00 63 bd
       0.06934402 0.052292388 -0.06396586 -0.055420093
0001d0 af 45 0a bc 63 a9 55 3c 80 2c 75 3d 6c 73 63 bd
       -0.008439465 0.013040873 0.05985689 -0.055529997
0001e0 72 52 a5 bc 08 84 62 3c 79 46 0c bd 71 d4 a5 bd
       -0.020180915 0.013825424 -0.034246895 -0.080971606
0001f0 5f b6 c3 bd 6f 69 72 bd d8 c4 25 bd 41 2f a3 3d
       -0.09556269 -0.05918258 -0.040470928 0.07967997
000200 25 37 54 bd 0d 14 8d 3d 03 ce 19 be c8 3c 0b be
       -0.051810402 0.0688859 -0.15019993 -0.13597405
000210 15 55 aa bd d7 60 bc 3d 45 ff 1a 3e f8 f3 9f bd
       -0.08317009 0.09198158 0.1513644 -0.07810205
000220 76 f3 02 3e 1d 34 18 bd 42 66 0f 3e 82 c5 a5 bd
       0.12788185 -0.037159074 0.14003852 -0.08094312
000230 23 0b c8 3d d4 3f 92 3c 4a f6 4a 3c a7 1f 07 3e
       0.09767749 0.017852701 0.012387821 0.13195668
000240 c0 da 32 bd 42 30 6c 3c de 07 19 bb 2a 16 19 bd
       -0.043665648 0.014415802 -0.0023350636 -0.037374653
000250 c0 e8 c3 3c 65 9c 16 3d e7 ce d1 b9 5d 47 8f 3d
       0.023914695 0.036770243 -0.0004001774 0.06996033
000260 1d b6 97 bc ec d8 41 3d 04 e0 84 bd 05 fa 41 bd
       -0.018519456 0.047326013 -0.0648804 -0.047357578
000270 4a 88 95 3d a3 71 aa 3d 0a d4 77 3d ff 37 15 be
       0.07301386 0.08322456 0.06050495 -0.14572142
000280 a4 76 8e bd 56 1d b9 3d e7 29 45 bd d6 b4 20 3c
       -0.06956223 0.090387985 -0.048135664 0.00980874
000290 35 b2 a1 3c 28 0a e3 3c f3 2c 67 bd f7 60 90 bd
       0.019738296 0.027714804 -0.05643935 -0.070497446
0002a0 c6 8b 9c 3d 8c b3 2f 3d c0 83 a5 3d db 2b d5 3d
       0.07643847 0.04289584 0.0808177 0.104087554
0002b0 f7 10 0a bd 44 0f e1 bd ce c7 9c 3d fe 72 34 bc
       -0.033707585 -0.1098924 0.07655297 -0.011013744
0002c0 01 64 1a 3d c2 f0 6b bd ca a0 53 3d 8c 4e 1c 3e
       0.037693027 -0.05760265 0.051667012 0.15264338
0002d0 bf 4b 40 bd ff 38 05 3c b6 a7 8d bb 37 94 1a 3d
       -0.046947237 0.008131265 -0.004322971 0.037739005
0002e0 da a5 af bd 05 86 8d 3b 81 06 d9 3d f8 21 e0 bd
       -0.085765556 0.004318955 0.10596944 -0.10943979
0002f0 15 95 9c 3d 68 6b 1a be 68 02 60 3c 9c cf 6d 3d
       0.07645623 -0.15080035 0.013672449 0.05805932
000300 17 b5 13 3d b3 b5 6b 3d 18 97 fe ba fb 7f b7 3c
       0.036061373 0.05754633 -0.0019423692 0.022399893
000310 55 81 9e bd 18 86 8a 3d 19 c0 c6 bd 3b 89 a3 3d
       -0.07739512 0.067638576 -0.097046085 0.07985159
000320 84 53 33 bd 2c 0f 6d 3d fd 38 eb bd 66 1e e3 bd
       -0.04378082 0.057875797 -0.11485479 -0.110897824
000330 69 61 fe 3b e9 78 8e bd ad 92 90 bd f7 af 59 bc
       0.007763077 -0.069566555 -0.07059226 -0.013286582
000340 5e 67 39 3d 8d 2f f2 bd 51 0b b5 bd a6 5c ce bd
       0.045264594 -0.11825476 -0.08840049 -0.10076265
000350 9f c2 db bc a1 00 58 bd 5a e9 b8 3d 7e f8 40 bd
       -0.026826201 -0.052734975 0.09028883 -0.04711198
000360 9e 07 d5 3d 4f 26 91 3d 66 f3 ac bd 56 39 b9 3d
       0.104018435 0.07087385 -0.08444862 0.09044139
000370 54 b1 e8 bd 2a 4b e8 bd 16 7d a1 3d b5 e6 d4 3c
       -0.11361948 -0.113424614 0.078851864 0.025988916
000380 d1 4a f3 bc c5 f3 93 3d e8 34 82 bd 4c e8 c9 3c
       -0.029698761 0.0722423 -0.06357747 0.0246469
000390 af f4 5c 3d 53 4a c3 3d 0c b5 ef bd dd 0a 1d bd
       0.053944286 0.095356606 -0.11704454 -0.03834044
0003a0 15 d6 3d bd 3a d2 37 bd d3 35 9b 3d 2d 3d ce 3d
       -0.046346743 -0.044878222 0.075786255 0.10070262
0003b0 d1 42 c2 bd 7d 9a f8 bb 80 6a 49 3d f4 a8 e1 bd
       -0.094854005 -0.007586776 0.049173832 -0.110185534
0003c0 11 5a e5 bd 00 ed 56 bd 6c 06 df bd 76 0d c8 3d
       -0.111988194 -0.052472115 -0.10889897 0.097681925
0003d0 42 d7 82 bd 52 d7 9d 3d 8a fc d5 3c e1 83 cc bd
       -0.063887134 0.07707085 0.026121397 -0.099860914
0003e0 94 65 3d bc 12 cb b6 3d 20 83 8b bd 53 97 5e 3d
       -0.011559863 0.08925451 -0.068121195 0.054343533
0003f0 a2 d7 00 3d ec 70 43 3b 2b bc d2 bd 5a 43 78 3d
       0.031455643 0.0029821945 -0.102897964 0.060611106

lstm.bias_ih_l1 f4 [256]
000000 f0 da 28 bd b4 06 91 3d 04 03 b6 3c 2d f9 bd bd
       -0.04122442 0.07081357 0.022218235 -0.09276042
000010 61 eb 65 bd d4 53 a4 bd 4d 95 83 3d 85 9b fe 3d
       -0.056132678 -0.080238014 0.06424961 0.12432007
000020 96 96 54 3d 6a 1d ab 3c f2 e2 a6 bd e5 5d 39 bd
       0.051901422 0.02088805 -0.08148755 -0.04525556
000030 9c ea 09 bd 2a d3 95 3d 23 26 9e 3d 3f d6 79 bc
       -0.033671007 0.07315667 0.07722118 -0.015248834
000040 f5 3b 93 3c 6e 38 12 3d 57 0a 86 3d 0d e9 52 bd
       0.017972926 0.035698347 0.06544941 -0.051491786
000050 3c 11 e4 3d 80 9e d4 bb 97 b9 da 3c 69 31 00 bb
       0.111361 -0.0064886212 0.026699824 -0.00195607
000060 cd 23 e0 3d d7 d3 37 bd 79 b4 05 3e 01 c7 a9 bd
       0.109443285 -0.04487976 0.13057126 -0.0828991
000070 7d aa b1 3d 5d 02 f4 3d c5 0e be 3d 69 08 a9 bd
       0.08675096 0.11914513 0.09280161 -0.08253557
000080 dd 44 c3 3d d5 72 b2 bd b8 6c cb 3d 22 c3 bb bc
       0.09534619 -0.08713309 0.09932846 -0.022920195
000090 a4 3b 11 3d a3 56 ab 3d 3b 6b 0b bd 44 6d b3 bd
       0.03545727 0.08366134 -0.03403781 -0.08761075
0000a0 01 08 d7 bd 63 02 ff bc 2f 09 c8 bd 3d cb 87 bd
       -0.104995735 -0.031129068 -0.09767377 -0.066305615
0000b0 33 08 2e bc 88 64 ad 3a 92 e4 0f 3e 3c f5 62 bd
       -0.010622072 0.0013228813 0.14052036 -0.055409655
0000c0 cc 44 e2 bb 36 62 bf bd c5 ee cb 3c 00 c3 c5 bd
       -0.006905174 -0.09344904 0.024894128 -0.09656334
0000d0 69 6d 29 3b 91 dc 86 bd b4 89 22 3b b9 4d 10 3e
       0.0025852567 -0.065850385 0.0024801316 0.14092149
0000e0 7b f1 be 3d e7 47 41 bd bf c4 f2 3d a1 a5 0e 3d
       0.093234025 -0.047187712 0.118539326 0.034825925
0000f0 ef c9 aa bd 9f d3 f5 bc 18 11 87 3d 9d f9 c9 bd
       -0.08339297 -0.030008135 0.06595057 -0.09862063
000100 06 99 67 3d d7 08 a2 bd 63 58 d3 3d 4a 22 92 3d
       0.05654242 -0.07911842 0.10319593 0.07135446
000110 9f 9b 2c 3d 0f 0e f1 3d 7f f3 f7 3d c4 40 1f 3d
       0.0421406 0.117702596 0.1210699 0.038880125
000120 61 54 13 be bf db 60 3d 13 01 88 3c d6 90 96 bd
       -0.14387657 0.054897066 0.016602075 -0.07351844
000130 38 f8 b7 bc 84 36 ca bd 74 d5 d1 3d 57 f5 ab 3d
       -0.022457227 -0.09873679 0.10245791 0.08396404
000140 82 cf e9 bc 08 04 9b 3d 12 70 0e 3e 3f d6 b5 bc
       -0.02854133 0.07569128 0.13909939 -0.022196887
000150 a9 c3 68 3d af 64 08 3e f2 57 08 3d 9d 6f ff 3d
       0.05682722 0.13319658 0.033286996 0.124724604
000160 a4 34 f9 3d 8c c9 2c bd 1e 27 d4 3c 17 ee b4 3d
       0.121682435 -0.042184398 0.025897559 0.088344745
000170 5f 85 a2 bd fe 63 a6 3d 21 8d c2 bc e1 a7 ad bd
       -0.07935595 0.08124541 -0.023748936 -0.08479286
000180 46 c4 c3 3d d9 33 64 bd c8 26 d2 3d 83 55 bf 3d
       0.095589206 -0.05571351 0.10261303 0.09342482
000190 cc 1d 8b 3d 8f 46 82 3a 66 d9 00 bd 3b 82 84 3d
       0.06792793 0.0009939241 -0.031457327 0.06470152
0001a0 dc 06 ab bd ab 29 cb bd 2e 96 d0 3c 62 ef b8 3c
       -0.08350918 -0.09920057 0.025462236 0.022575084
0001b0 86 ce 9f 3d 0e d7 c9 bd f0 3c fb 3d fc f1 e8 bd
       0.07803063 -0.098554716 0.12267482 -0.1137428
0001c0 6b a6 b6 bd 98 b0 85 bd 2d 3c ab bb 2c 76 c6 3d
       -0.089184605 -0.06527823 -0.0052256794 0.09690508
0001d0 d0 59 3c bd 2b 1c 9d 3d b4 0c 97 bd d5 96 81 3d
       -0.04598409 0.07671388 -0.0737547 0.06327597
0001e0 74 db 8e 3d f1 97 bd bd 5a 13 a4 bd ff 46 8d bd
       0.06975451 -0.09257496 -0.080115035 -0.06898307
0001f0 92 84 1b 3d 75 d3 44 bd e8 57 c7 bd d3 de 4d 3d
       0.037968226 -0.048053224 -0.09733564 0.05026133
000200 fb c5 28 bd e6 85 07 be 2a 19 d8 bd ba 49 03 be
       -0.041204434 -0.13234672 -0.10551675 -0.12821093
000210 54 6a 1f 3c 5b 8c b0 3c a0 ee 50 bd d6 a6 ab bd
       0.00972994 0.021551302 -0.05100882 -0.08381431
000220 5e 9f c2 3d 9c 09 88 bd d8 df 9d 3d 9e 97 0e 3e
       0.09503053 -0.06642458 0.077087104 0.13925025
000230 d4 02 2a bd 3d 75 0e 3e 3f 02 67 bd 46 e4 0c 3c
       -0.041506603 0.1391191 -0.056398626 0.0085993465
000240 c6 83 b9 3d 6b 3f df 3d ac ff 0b 3e db b8 8e bd
       0.09058337 0.10900768 0.1367175 -0.06968852
000250 ba 76 18 3d 5a cc 9b bc 31 3d 6a 3d cf 2b ee 3c
       0.0372226 -0.01901834 0.057187263 0.029073624
000260 55 ee e0 bb 14 bd 17 3e 30 c8 df 3d 44 40 2f bd
       -0.006864349 0.14818221 0.109268546 -0.042785898
000270 f7 92 9e bd 00 00 92 bb 63 69 ea 3b 66 5e 8c bd
       -0.07742875 -0.0044555664 0.0071536764 -0.068539426
000280 a7 2e bc bc 77 e4 a9 3d c8 ad 9b 3b 5f 40 a0 bd
       -0.022971464 0.08295529 0.004750941 -0.07824778
000290 e8 35 90 3d 8c be 58 bd 22 0a 0a be 28 12 f7 bd
       0.07041532 -0.052916095 -0.13480428 -0.1206401
0002a0 fe b0 a2 3b 8b 43 89 3c a1 2f 14 3e d2 cd 9e bd
       0.004964947 0.01675584 0.14471294 -0.07754101
0002b0 82 d5 ef 3a d7 cd cb bd 89 db 15 bd ab 1f 5e bd
       0.0018297883 -0.0995137 -0.03658632 -0.05422942
0002c0 1c b6 2b 3d 7f e0 e9 3d e7 4b 15 be a6 27 12 3e
       0.04192172 0.11419772 -0.14579736 0.14272937
0002d0 5f e1 de bd 7e 73 11 bd 70 fc 16 3e 58 6b ad 3d
       -0.1088283 -0.035510533 0.14744735 0.0846774
0002e0 d5 f7 26 3c e7 6e d5 bd 6e ce 0d bd 7d fd 3b bc
       0.010190924 -0.104215436 -0.034620695 -0.011474011
0002f0 7e 37 a8 3d 6b 56 5b bd 38 71 ee 3c 9e 11 6c 3d
       0.08213709 -0.05354921 0.029106721 0.05763399
000300 22 66 38 3d a5 06 f3 3d f4 3f d0 bd 49 b0 f4 bc
       0.045019276 0.11866502 -0.10168448 -0.029869216
000310 75 c6 32 bd 86 35 8e bd df 41 d9 3d 14 06 9f bd
       -0.043646295 -0.069438025 0.10608267 -0.07764831
000320 68 52 da bd 6f 4b 19 3d c2 60 49 bd a6 eb f5 3d
       -0.10660249 0.037425455 -0.04916454 0.12007837
000330 55 77 d1 3d 8e 86 bf bd ba 75 5b 3c b5 1b b9 3c
       0.10227839 -0.09351836 0.013394767 0.02259622
000340 2a 62 a0 3d 53 5c 0c 3e e0 e2 b1 bb aa 45 ef 3d
       0.07831223 0.13707094 -0.005428657 0.11683209
000350 53 20 fd bc 9c f9 90 bc cc e1 72 bd 27 1e a9 bc
       -0.030899202 -0.017697148 -0.059297368 -0.02064426
000360 94 6b 76 3d 5c 5c 1e 3d 9f 9e a5 bd fe 5e 99 3c
       0.06016119 0.0386623 -0.08086895 0.018722054
000370 8f 65 c6 3d f4 ee af 3d a5 69 c1 3d 1f 16 b5 bc
       0.096873395 0.085904986 0.09443978 -0.022105275
000380 81 aa 9b 3d d2 5a 42 3d 4f 60 b5 3d 78 de d9 bd
       0.076008804 0.047449894 0.0885626 -0.10638136
000390 6f 1f cb bd 68 52 86 bb 0b 68 86 bd 52 93 95 3d
       -0.09918105 -0.004099179 -0.06562813 0.0730349
0003a0 56 2c c5 3c 95 2c 01 3e 2c a0 e7 bd 7a dc 36 3d
       0.024068993 0.12614663 -0.11309847 0.044643857
0003b0 d2 46 55 3d 79 42 9e 3d a3 12 95 bd 1e d4 62 bc
       0.052069493 0.077275224 -0.07278945 -0.013844518
0003c0 1f 2b 27 bd 1b f6 01 3e 8f 65 ad bd 5d 92 96 bd
       -0.040812608 0.12691538 -0.084666364 -0.07352135
0003d0 57 d4 e7 bc 7b 17 37 3d eb b5 4d bc 17 28 99 3d
       -0.028299494 0.044700127 -0.01255558 0.0747835
0003e0 6d c9 3f bd fb c7 fa 3d 10 26 83 3d cb ab 2a 3d
       -0.046822954 0.122451745 0.06403744 0.04166774
0003f0 45 58 8f 3d ae ae c5 bb 21 fb 6a 3d cf 59 ea bd
       0.06999258 -0.0060327863 0.0573684 -0.11442911
