src/deep_learning/artifacts/lstm_model_AMZN.pt (torch, 217167 bytes, 12 tensors)

lstm.weight_ih_l0 f4 [256, 2]
0	0xbbeb80f7	-0.0071870047
1	0xbd9ad63d	-0.07560394
2	0x3dbda8ea	0.092607334
3	0x3d53c250	0.051698983
4	0x3dc39330	0.09549558
5	0x3da1dd04	0.079034835
6	0x3e4d394d	0.2004139
7	0xbd91b14f	-0.07113897
8	0x3dd1bff2	0.10241689
9	0x3d304f72	0.043044515
10	0x3e3dfeb0	0.18554187
11	0xbd48a829	-0.048988495
12	0x3de02fc8	0.109466136
13	0x3d50c72b	0.05097119
14	0x3c8b173e	0.016978856
15	0x3cc61bdf	0.024183212
16	0x3daa67a8	0.08320552
17	0xbc010723	-0.007875237
18	0x3d9f83c7	0.077888064
19	0x3df441a6	0.11926584
20	0x3da553b9	0.080726095
21	0xbce902a7	-0.028443648
22	0x3b417820	0.0029521063
23	0xbbe5937d	-0.0070061074
24	0xbc9875c4	-0.018610843
25	0xbe03ee7d	-0.12883945
26	0xbc46e8c1	-0.012140454
27	0x3e1f81d4	0.15576869
28	0xbd1a0da3	-0.03761066
29	0xbdfeec66	-0.12447433
30	0xbe25463a	-0.1614007
31	0x3dae8d8c	0.08523092
32	0x3d7ce354	0.061740234
33	0x3d86a47a	0.0657434
34	0x3e33e2c8	0.17566979
35	0x3d9ab540	0.07554102
36	0x3dfb7bed	0.12279496
37	0x3dc53f70	0.0963124
38	0xbd549a30	-0.051904857
39	0x3d5cb06f	0.053879198
40	0x3e31e5b9	0.17372788
41	0xbd721402	-0.059101112
42	0xbc9c30a4	-0.019066162
43	0xbc9d3cc0	-0.019194007
44	0x3d31abb2	0.043376632
45	0x3ddc5484	0.107583076
46	0x3dd2f48b	0.10300549
47	0x3be339dc	0.0069343876
48	0x3e38a52d	0.1803176
49	0xbd8a4b7b	-0.06752678
50	0x3e4997db	0.19686835
51	0x3dc81431	0.09769476
52	0x3e2825db	0.1642069
53	0x3dab97bd	0.08378551
54	0x3e2e27bf	0.1700735
55	0xbdf5da92	-0.120045796
56	0xbda6433c	-0.08118293
57	0xbdd60aea	-0.104513004
58	0x3da82f02	0.08212091
59	0x3e059263	0.13044123
60	0xbd975674	-0.073895365
61	0xbca63e50	-0.020293385
62	0xbbe40995	-0.00695915
63	0x3cb79000	0.022407532
64	0x3cc4b11d	0.024010235
65	0xbde0a828	-0.10969573
66	0x3e437fba	0.19091693
67	0xbdf6cfd8	-0.12051362
68	0x3e423f7e	0.18969533
69	0x3da6c8ec	0.081437916
70	0xbc9b330e	-0.018945243
71	0xbd5e7754	-0.05431302
72	0x3de0496b	0.10951503
73	0xbd84a4be	-0.064767346
74	0x3d528088	0.05139211
75	0x3d7c4748	0.061591417
76	0x3e09c424	0.13453728
77	0xbd055d21	-0.032559518
78	0xba91cd21	-0.0011123755
79	0x3e002077	0.12512384
80	0x3e2f3c64	0.17112881
81	0xbdc5ef3a	-0.096647695
82	0x3df468c4	0.11934045
83	0xbdaf39e0	-0.08555961
84	0x3da083ac	0.078376144
85	0xbdf2da97	-0.11858099
86	0xbb772c50	-0.0037715621
87	0xbdb6534d	-0.08902607
88	0xbdfff9e5	-0.124988355
89	0x3e2db0ed	0.16962023
90	0x3e302ad8	0.17203844
91	0x3d86d73c	0.065840214
92	0xbc847f51	-0.01617399
93	0xbc41b460	-0.01182279
94	0x3dc5bfd3	0.09655728
95	0xbdca639c	-0.0988228
96	0xbe55b14e	-0.20868418
97	0x3d127d78	0.035764188
98	0xbdd16f3b	-0.10226294
99	0x3dc10593	0.09424891
100	0x3e0b4f09	0.13604368
101	0xbce08663	-0.02740783
102	0xbd87fec1	-0.06640387
103	0xbb4237aa	-0.002963523
104	0x3c404eba	0.01173752
105	0x3d9709dc	0.073749274
106	0x3b8edd2a	0.004359861
107	0xbdd51ef5	-0.10406295
108	0x3e32dcf8	0.17467105
109	0xbcdb1b3e	-0.026746389
110	0x3ddaa8f6	0.10676758
111	0x3d906e4f	0.0705229
112	0x3dc75e07	0.09734731
113	0xbd13056d	-0.035893846
114	0x3e12a61a	0.14321175
115	0x3e2c8aa0	0.16849756
116	0x3e39f130	0.18158412
117	0xbdb73023	-0.08944728
118	0x3dc48f88	0.09597689
119	0x3dfe4117	0.12414759
120	0x3e51bba6	0.20481738
121	0x3e5d4760	0.21609259
122	0xbd937998	-0.072009265
123	0x3d37d156	0.044877373
124	0xbcc3088e	-0.02380779
125	0x3d75fdf0	0.060056627
126	0x3e280550	0.16408277
127	0xbd2c6dbf	-0.04209685
128	0x3e0592b6	0.13044247
129	0xbcc60e49	-0.024176734
130	0x3c3d3cd6	0.011550149
131	0x3d8fad35	0.070154585
132	0x3e23e813	0.16006498
133	0x3e2a8358	0.16651666
134	0xbd025db1	-0.031827632
135	0xbcd5ca4a	-0.026097436
136	0x3e0d11f8	0.13776386
137	0xbd840ad2	-0.06447376
138	0xbd1635fb	-0.036672574
139	0x3beb41ee	0.0071794903
140	0x3db7d07c	0.08975312
141	0x3cce982e	0.02521905
142	0x3d658d56	0.05604299
143	0xbd8360a8	-0.0641492
144	0x3d773b55	0.060359318
145	0xbdab4540	-0.08362818
146	0x3dd2145e	0.10257791
147	0xbb5567e3	-0.0032563142
148	0x3e1c1fe0	0.15246534
149	0x3dac4004	0.084106475
150	0xbc0bf975	-0.008543362
151	0x3d728664	0.059210196
152	0x3e1b45e7	0.15163384
153	0x3cf0382e	0.029323664
154	0xbd9f0c8d	-0.07766066
155	0x3d633965	0.055474658
156	0x3cc98f47	0.024604453
157	0x3d825d0d	0.06365404
158	0xbd460e82	-0.04835368
159	0x3ab04849	0.0013449277
160	0x3e251834	0.16122514
161	0xbda446fe	-0.08021353
162	0x3c6a768d	0.014310491
163	0x3daa01dd	0.08301137
164	0x3d2f7113	0.042832445
165	0xbcac8b03	-0.02106238
166	0xbc78362a	-0.0151496325
167	0xbb843d2d	-0.004035613
168	0xbb84050e	-0.004028923
169	0x3d3e990b	0.046532672
170	0x3d14fe96	0.036375605
171	0x3d159150	0.036515534
172	0xbd39cbbe	-0.04536032
173	0x3cfa7c1a	0.030576754
174	0xbd0a08a4	-0.033699647
175	0xbcfab898	-0.0306056
176	0x3d070eb2	0.032973
177	0xbdfe3ccf	-0.12413942
178	0x3e1ce7cb	0.15322797
179	0xbd9fbda2	-0.077998415
180	0x3e2d250c	0.16908664
181	0x3d966e77	0.07345288
182	0x3db92635	0.090404905
183	0xbd841f4d	-0.06451283
184	0x3badb186	0.0053007035
185	0xbd3bb66c	-0.045828268
186	0xbde238f0	-0.11046016
187	0x3e16e893	0.14737158
188	0x3c88b097	0.016685767
189	0xbd7afd3a	-0.061276652
190	0x3dea08b0	0.11427438
191	0xbd3ef00c	-0.046615645
192	0xbc88198b	-0.016613742
193	0x3caa6fe0	0.0208053
194	0xbd1639a7	-0.036676075
195	0x3da4449c	0.08020899
196	0x3d64a60d	0.05582242
197	0xbd98e4dc	-0.074655265
198	0xbd4f93d4	-0.05067809
199	0xbd383887	-0.044975784
200	0x3cb9ce4a	0.022681374
201	0xbd48642d	-0.04892366
202	0xbc1b652e	-0.009484572
203	0x3de79587	0.11307817
204	0x3d89bb6a	0.067251995
205	0xbde92603	-0.11384203
206	0x3e500118	0.20312917
207	0x3c9bd1cf	0.019020943
208	0x3e51129b	0.20417254
209	0xbdc714bf	-0.09720754
210	0x3e310a83	0.17289166
211	0x3d25e780	0.04050398
212	0xbc13c72c	-0.009019654
213	0xbd91bd8b	-0.071162306
214	0x3dfb2ef4	0.12264815
215	0x3d9c5b80	0.0763464
216	0xbe4dc934	-0.20096284
217	0x3c5daf79	0.0135306055
218	0x3d97e9e8	0.07417661
219	0x3de72831	0.11286963
220	0xbde70993	-0.11281123
221	0x3d1f1506	0.03883841
222	0x3d8e6ea0	0.06954694
223	0xbd95aca5	-0.0730832
224	0xbe0b3f16	-0.13598284
225	0x3e1e2f1f	0.15447663
226	0xbdfa20f5	-0.12213317
227	0xbdd404a0	-0.10352445
228	0x3debf1fe	0.11520766
229	0xbd2f5e06	-0.042814277
230	0xbd3e373a	-0.046439387
231	0x3dc8b1bd	0.09799526
232	0xbd4c8ea1	-0.04994071
233	0x3e103258	0.14081705
234	0x3e37267d	0.17885776
235	0xbde480c6	-0.11157374
236	0xbc928333	-0.017884826
237	0x3d8872d0	0.06662524
238	0xbc9df40c	-0.01928141
239	0x3cbe0f9a	0.023200799
240	0x3e514ccf	0.20439456
241	0xbda119d6	-0.07866256
242	0x3dc63c3c	0.096794575
243	0x3da9bfb5	0.08288518
244	0x3c17d497	0.009266994
245	0xbd484416	-0.048893057
246	0x3dc3fe5d	0.0957
247	0x3ddde1bb	0.1083407
248	0x3e137300	0.14399338
249	0x3beaca84	0.007165255
250	0x3dc75035	0.09732095
251	0xbd4a743b	-0.049427252
252	0x3e35ef0d	0.17766972
253	0x3cdbabc6	0.026815306
254	0xbc9605e9	-0.018313365
255	0xbd7a4a40	-0.061105967

lstm.weight_hh_l0 f4 [256, 64]
0	0x3db0174e	0.08598195
1	0x3c636e64	0.0138813
2	0x3df2dac5	0.11858133
3	0xbdcc5fe7	-0.099792294
4	0x3ade8bcb	0.0016978917
5	0x3dbebdcd	0.093135454
6	0x3da753fd	0.08170316
7	0x3d369601	0.04457665
8	0xbcb078fc	-0.021542065
9	0xbe01658c	-0.12636393
10	0xbd30b9be	-0.043145888
11	0xbcbddbb6	-0.023176055
12	0xbdea3f2d	-0.11437831
13	0x3e08f0e0	0.13373137
14	0xbd0617fc	-0.032737717
15	0xbd8b7802	-0.06809999
16	0xbdd26fe2	-0.10275246
17	0x3da430d8	0.08017129
18	0x3deae75d	0.1146991
19	0xbd9d0def	-0.07668673
20	0xbd2ba0c2	-0.041901357
21	0x3de7bb85	0.113150634
22	0xbd4c5b1c	-0.049891576
23	0xbded43e8	-0.11585218
24	0xbd792025	-0.06082167
25	0x3d53af0a	0.051680602
26	0x3dfc10c2	0.12307884
27	0xbc168c85	-0.009188776
28	0xbca1484e	-0.019687798
29	0xbdda6c43	-0.106651805
30	0x3da1eacf	0.07906114
31	0xbd3e2917	-0.046425905
32	0x3cd2c1a2	0.025727097
33	0x3dbdc657	0.09266346
34	0x3b3d44b5	0.0028880064
35	0xbd735e0a	-0.059415855
36	0xbda28362	-0.079352155
37	0x3d3c3874	0.045952275
38	0x3d5c201d	0.053741563
39	0x3ccf147d	0.025278324
40	0x3c9089dc	0.017643861
41	0x3e0ba8ac	0.13638562
42	0xbdf42f05	-0.11923031
43	0xbd35e6f8	-0.044409722
44	0x3dff34f6	0.12461273
45	0x3d0204b5	0.03174277
46	0x3d728e9b	0.05921803
47	0x3dd07f21	0.10180498
48	0xbdfe56d3	-0.12418904
49	0xbe0bbd88	-0.13646519
50	0xbdb888f3	-0.09010496
51	0xbcec0773	-0.028812146
52	0xbd77d6da	-0.060507633
53	0xbdfd0291	-0.12354005
54	0xbd7646f6	-0.060126267
55	0x3de7398c	0.11290273
56	0xbcad5f42	-0.021163587
57	0xbc8f3610	-0.017481834
58	0x3d1896ff	0.037253376
59	0x3d7df7f1	0.062004033
60	0xbbac1338	-0.0052513145
61	0xbdf8aacc	-0.12141952
62	0xbdf4fdd5	-0.11962477
63	0x3dc76d68	0.097376645
64	0xbd678c39	-0.05653021
65	0xbdd25e24	-0.10271862
66	0x3da18612	0.078869
67	0x3d1e4256	0.03863748
68	0xbd7c5453	-0.061603855
69	0x3d6499f8	0.0558109
70	0x3e03e452	0.12880066
71	0x3dc0fe95	0.09423558
72	0xbdc6e567	-0.09711724
73	0x3d85e9ed	0.065387584
74	0x3d15ea6a	0.036600508
75	0xbd808156	-0.06274669
76	0x3d701bf5	0.058620412
77	0x3d605be3	0.05477513
78	0xbda018b3	-0.07817211
79	0xbe1c533c	-0.15266126
80	0xbcd4b92b	-0.025967201
81	0x3d140ec3	0.03614689
82	0x3c84effe	0.016227718
83	0xbc83e938	-0.016102418
84	0x3e025f30	0.12731624
85	0xbd6aeef0	-0.057356775
86	0xbdb11e46	-0.08648352
87	0x3dc0ad3a	0.0940804
88	0x3d798944	0.060921922
89	0x3d5a4e40	0.05329728
90	0xbd116cee	-0.035504274
91	0xbcd8e3f4	-0.026475884
92	0x3cf85c01	0.030317308
93	0xbde29690	-0.11063874
94	0xbdaba792	-0.08381571
95	0x3dbe951e	0.093057856
96	0xbcbb58e3	-0.022869533
97	0xbbcff0f0	-0.0063458607
98	0x3da9d493	0.082924984
99	0x3c0adbca	0.008475253
100	0x3d31a398	0.043368906
101	0xbdc64421	-0.09680963
102	0xbdc87c1e	-0.097892985
103	0x3abd1ed2	0.0014428741
104	0x3d80b577	0.06284612
105	0x3dbd9f63	0.09258916
106	0xbd3f307d	-0.0466771
107	0xbdc7ba39	-0.09752316
108	0x3d18457a	0.037175633
109	0x3d2d49ba	0.04230664
110	0x3d953a04	0.07286456
111	0xbd3c6808	-0.04599765
112	0xbda7ed5a	-0.08199568
113	0xbe08bd94	-0.13353568
114	0xbd34668c	-0.04404311
115	0xbdc5fbbd	-0.09667156
116	0xbc3523bd	-0.011055884
117	0xbe06ac92	-0.13151768
118	0x3e08f573	0.13374881
119	0xbc72e52a	-0.014825145
120	0xbce58514	-0.028017558
121	0x3b7dc343	0.0038721121
122	0x3d48004d	0.04882841
123	0xbdaa5fe3	-0.0831907
124	0xbd95afc5	-0.07308916
125	0xbdb1d371	-0.086829074
126	0xbe16ead0	-0.14738011
127	0x3d756220	0.059908032
128	0xbdf98158	-0.121828735
129	0x3b22f4d0	0.0024865158
130	0x3b7e5d15	0.0038812805
131	0x3da7c6d8	0.08192223
132	0xbd6bb0ae	-0.05754154
133	0x3dd3c713	0.10340705
134	0x3d24f399	0.040271375
135	0xbdd57636	-0.104229376
136	0xbd73c1a8	-0.059510857
137	0xbde71dba	-0.11284967
138	0x3d32af62	0.04362429
139	0x3dabff5a	0.08398314
140	0xbdfb5978	-0.12272924
141	0xbded3e11	-0.11584104
142	0x3d9f25d4	0.07770887
143	0x3dd742ae	0.10510765
144	0xbd4adf15	-0.049529154
145	0xbdc1d92a	-0.09465249
146	0x3d4c72a5	0.04991402
147	0x3c82d129	0.015968876
148	0x3d5e94e4	0.054341212
149	0xbe0ad1f8	-0.13556659
150	0xbcdc47e2	-0.026889745
151	0xbc2e6fbc	-0.010646757
152	0xbd98ce01	-0.07461167
153	0xbc475740	-0.012166798
154	0xbdc5aeae	-0.09652458
155	0x3db821ba	0.08990808
156	0xbd8662d7	-0.06561821
157	0xbdda6e7d	-0.10665605
158	0x3d0bca4b	0.03412847
159	0xbc49b36f	-0.012310847
160	0x3e024a06	0.1272355
161	0xbde88cce	-0.11354981
162	0x3dcc3ace	0.099721536
163	0xbd3d17e7	-0.046165373
164	0xbd9c56a4	-0.07633713
165	0xbdebe981	-0.11519147
166	0xbc0c20ec	-0.008552771
167	0x3d99405a	0.07482977
168	0x3d3d8112	0.04626567
169	0xbd5a84ae	-0.05334919
170	0x3c93447d	0.017976994
171	0x3d0581e6	0.032594584
172	0xbe90f9c6	-0.28315562
173	0xbdf49f7f	-0.11944484
174	0xbb2d92d3	-0.002648522
175	0xbdeff709	-0.1171704
176	0x3dba8562	0.09107472
177	0xbe0632c5	-0.13105305
178	0xbcac0857	-0.02100007
179	0x3dfce793	0.12348857
180	0x3deb8649	0.11500222
181	0x3c8e45cc	0.017367266
182	0xbd61ebdb	-0.05515657
183	0xbdd13300	-0.102148056
184	0x3da41187	0.080111556
185	0x3e0adb69	0.13560261
186	0x3d9e585f	0.07731699
187	0x3db79f89	0.08965976
188	0x3dc2c65d	0.09510491
189	0x3da6e0db	0.081483565
190	0xbcf14ed9	-0.029456543
191	0xbae89f18	-0.0017747609
192	0xbd83011e	-0.063966975
193	0xbd54eaae	-0.05198162
194	0xbdc6e527	-0.09711676
195	0xbb8fa602	-0.0043838033
196	0x3d68e73a	0.05686114
197	0x3e00319d	0.12518926
198	0xbd40255a	-0.04691062
199	0xbcde1526	-0.027109694
200	0xbd251c41	-0.04031015
201	0xbcef10b4	-0.02918277
202	0xbde1944f	-0.11014616
203	0x3cd54f99	0.026038932
204	0xbc25fa32	-0.010130452
205	0x39c454d8	0.00037447247
206	0x3d090fc6	0.03346231
207	0xbe10c103	-0.14136128
208	0xbd9629cc	-0.07332191
209	0xbd540c25	-0.051769394
210	0x3cded7ed	0.02720257
211	0x3d8d5427	0.069008164
212	0xbd3e6c58	-0.046490043
213	0x3d86b1c0	0.06576872
214	0x3ddcb459	0.10776586
215	0x3dd47202	0.10373308
216	0x3e00e0d2	0.12585762
217	0x3d612f6c	0.054976866
218	0xbd969e0f	-0.07354366
219	0x3e0af8e0	0.13571501
220	0x3c11117c	0.008854266
221	0x3c8b05bd	0.01697051
222	0xbd992e4a	-0.07479532
223	0xbd7df577	-0.06200167
224	0xbce469ae	-0.027882423
225	0x3d248a3f	0.040170904
226	0xbdf0e338	-0.117620885
227	0x3d8c7e2a	0.068600014
228	0xbde22bf6	-0.11043541
229	0x3d95bc77	0.073113374
230	0xbc542294	-0.012947697
231	0xbddf98df	-0.1091783
232	0xbb1fd9de	-0.0024391334
233	0x3d8a0093	0.06738391
234	0x3dc08d29	0.09401924
235	0x3d866723	0.065626405
236	0x3dc29165	0.09500388
237	0x3d8be0c8	0.06829983
238	0x3bcbefce	0.0062236553
239	0xbbac39a4	-0.0052558947
240	0x3d524c75	0.051342446
241	0xbd4b776f	-0.049674448
242	0xbd888d77	-0.06667607
243	0xbddec0f9	-0.1087665
244	0xbd94a738	-0.07258457
245	0xbde1b099	-0.110200115
246	0x3d81e841	0.06343127
247	0x3d53a2ec	0.051669046
248	0x3db76b06	0.0895596
249	0x3e0c9372	0.13728121
250	0xbda22b1b	-0.07918378
251	0xbdbb1914	-0.09135643
252	0xbdf9540e	-0.12174235
253	0x3c40033d	0.011719522
254	0x3c958392	0.018251214
255	0x3dd9c71f	0.106336825

lstm.bias_ih_l0 f4 [256]
0	0xbd837e99	-0.06420631
1	0x3e119473	0.14216785
2	0x3d626530	0.05527228
3	0xbde995bc	-0.11405513
4	0xbda4f8cd	-0.080552675
5	0xbb63a007	-0.0034732835
6	0x3dfb3c47	0.12267356
7	0x3d8ca460	0.068672895
8	0xbd8b049f	-0.06787991
9	0xbd935d63	-0.071955465
10	0x3def2ae9	0.11678106
11	0xbdfdf25e	-0.123997435
12	0x3bb2b996	0.0054542525
13	0xbda2af02	-0.07943536
14	0x3d537549	0.051625524
15	0xbd6103af	-0.054935154
16	0x3db653dc	0.08902714
17	0xbdb24c86	-0.08706002
18	0x3d6815b2	0.056661315
19	0x3d2914b4	0.04127951
20	0xbcf8c9e4	-0.030369706
21	0x3d9cacea	0.07650168
22	0x3c6c6f15	0.014430781
23	0x3dd5adcd	0.104335405
24	0x3bfc4411	0.007698544
25	0xbccccf96	-0.025001328
26	0xbd98eb88	-0.07466799
27	0x3daae07c	0.08343598
28	0xbd0c956c	-0.034322187
29	0x3d571d19	0.052517984
30	0xbd37f736	-0.044913493
31	0x3d9f5739	0.07780308
32	0xbd869d79	-0.06573004
33	0xbdbbe5b0	-0.09174669
34	0xbd6e7a9b	-0.058222394
35	0x3da4c83e	0.08046006
36	0xbd115366	-0.035479926
37	0xbce3595d	-0.027752573
38	0xbdb86098	-0.09002799
39	0x3d6e786f	0.058220323
40	0x3e0d0903	0.13772969
41	0x3d313e8f	0.04327255
42	0x3d00d7bf	0.03145575
43	0x3d1cfd59	0.03832755
44	0x3dfbf06e	0.12301718
45	0xbd54219d	-0.05178987
46	0x3a53043c	0.0008049642
47	0x3a20149a	0.00061065855
48	0xbd1dbd2c	-0.038510486
49	0xbc749138	-0.014927201
50	0x3de9e775	0.114211
51	0xbb828b2f	-0.003983877
52	0x3d2f184d	0.042747784
53	0x3ddd4c67	0.10805588
54	0x3dc2a066	0.0950325
55	0xbdaa9e22	-0.08330943
56	0x3dd4f287	0.10397821
57	0x3e01c212	0.12671688
58	0x3e11e085	0.14245804
59	0x3d5caf32	0.053878017
60	0xbcae20ff	-0.021255968
61	0x3df866c0	0.12128973
62	0xbcfb2b80	-0.03066039
63	0x3c66e48f	0.014092579
64	0x3c8af2a0	0.016961396
65	0x3dd54032	0.10412635
66	0x3d734f8d	0.059402037
67	0xbdecb809	-0.115585394
68	0x3d2596c6	0.040426992
69	0xbd006526	-0.031346463
70	0x3deba444	0.115059406
71	0x3dac33cf	0.08408319
72	0xbdd21370	-0.10257614
73	0x3d82124b	0.06351145
74	0x3da25dd6	0.07928054
75	0x3d76ae2d	0.0602247
76	0xbda0f4d2	-0.07859196
77	0xbd08751c	-0.03331481
78	0x3dc4d47d	0.096108414
79	0xbce2923d	-0.027657622
80	0xbd22cea0	-0.039747834
81	0x3cf6fe11	0.030150445
82	0x3dac63f0	0.08417499
83	0x3d7e66be	0.0621097
84	0xbd6a5dbc	-0.0572183
85	0xbe07cd16	-0.13261828
86	0x3c02a3b2	0.007973598
87	0xbbfed0d1	-0.0077763577
88	0x3d4d9f02	0.05020047
89	0xbd8fbfc9	-0.07019002
90	0xbda3058e	-0.07960044
91	0x3e0217de	0.12704417
92	0xbd149178	-0.036271542
93	0xbc9f2be1	-0.019430103
94	0xbd1f3bfc	-0.038875565
95	0x3cf7ef55	0.03026549
96	0xbbbe111e	-0.0058003804
97	0x3db85c36	0.09001963
98	0x39d87df2	0.00041292567
99	0x3dd07c5a	0.10179968
100	0x3ceba9ef	0.028767554
101	0xbd77a6ea	-0.060461916
102	0xbb0b91ba	-0.0021296577
103	0x3dd855d2	0.10563244
104	0x3de17428	0.11008483
105	0xbdf044b2	-0.117318526
106	0xbc9d4890	-0.01919964
107	0x3dcf23cc	0.101142496
108	0x3d8614b3	0.06546917
109	0x3d605b00	0.054774284
110	0x3d881b54	0.066458374
111	0x3debe7cc	0.11518821
112	0xbd58e058	-0.052948326
113	0x3dba118f	0.0908538
114	0xbca007d1	-0.019534977
115	0xbb4a5a70	-0.003087666
116	0xbdae2761	-0.08503605
117	0x3df5b7dd	0.1199796
118	0x3da5c91b	0.080949984
119	0xbdc3f015	-0.095672764
120	0xbda006e9	-0.07813818
121	0x3d95f519	0.07322139
122	0x3d0b32cb	0.033983987
123	0xbdbce9ae	-0.09224258
124	0x3c423c12	0.011855142
125	0xbbcbe514	-0.0062223766
126	0x3de24f4d	0.11050282
127	0xbcdc70d4	-0.02690927
128	0xbd401ffe	-0.04690551
129	0xbd9b1f34	-0.07574311
130	0x3c919d89	0.017775314
131	0xbd829ae1	-0.06377197
132	0x3d78ca33	0.060739707
133	0x3d5062f7	0.05087563
134	0xbd0a5c3a	-0.03377936
135	0x3cc2a4eb	0.02376028
136	0xbd5bf3f2	-0.05369944
137	0x3d1d6f24	0.03843607
138	0xbdc3a00b	-0.0955201
139	0x3d2e1678	0.042501897
140	0xbd9df771	-0.07713211
141	0xbd904bfa	-0.070457414
142	0x3d5381cd	0.05163746
143	0xbce5b1e7	-0.028038932
144	0x3c990ea2	0.018683735
145	0x3a4c1028	0.000778439
146	0xbb85de5f	-0.0040853466
147	0xbd185721	-0.037192468
148	0x3c10d61d	0.008840111
149	0x3da661e7	0.08124142
150	0x3d96a13f	0.07354974
151	0xbde449d7	-0.11146896
152	0x3de55bcd	0.1119915
153	0xbdb84795	-0.08998028
154	0x3ddf21f7	0.1089515
155	0xbbf65cd4	-0.00751839
156	0x3d5d2c00	0.05399704
157	0xbd78cbc6	-0.06074121
158	0xbdfc7382	-0.12326719
159	0xbd712fa9	-0.058883343
160	0xbcc806bf	-0.02441728
161	0x3d8225cf	0.06354868
162	0xbd3760ac	-0.044769928
163	0x3db511c4	0.08841279
164	0xbb6aa2b0	-0.0035802536
165	0xbd8d471e	-0.0689833
166	0x3dd3a8b3	0.10334911
167	0xbd67c783	-0.056586754
168	0x3e015772	0.12631014
169	0xbde87959	-0.1135127
170	0xbcdf3429	-0.027246552
171	0xbdadbc59	-0.0848319
172	0xbdb588b8	-0.08863968
173	0x3dbd7803	0.09251406
174	0xbc73c493	-0.01487841
175	0xbdebc2ad	-0.11511741
176	0xbcb209c0	-0.021733165
177	0xbde1f6dc	-0.11033413
178	0x3d37ef82	0.044906147
179	0xbda8f16e	-0.08249174
180	0x3dc523d3	0.096259736
181	0xbda57888	-0.0807963
182	0xbd9cd48f	-0.0765773
183	0x3dc96714	0.09834114
184	0x3d80b1f7	0.06283944
185	0xbd87d4ef	-0.06632411
186	0x3da33ad7	0.07970207
187	0xbc2a3d5d	-0.010390607
188	0xbd261c5d	-0.040554393
189	0xbe0c97f6	-0.13729843
190	0xbd3b930c	-0.04579453
191	0x3de356c1	0.11100531
192	0xbd932c68	-0.07186204
193	0xbc93dd41	-0.018049838
194	0x3e0a2366	0.13490066
195	0x3d10ac0e	0.035320334
196	0xbdbf7167	-0.09347802
197	0xbd0ff217	-0.035142984
198	0x3dcf4d64	0.10122183
199	0x3dbcb4fa	0.09214206
200	0xb9cd1eba	-0.0003912354
201	0xbd68b6a6	-0.056814812
202	0xbdab38d5	-0.08360449
203	0xbcd2bbe8	-0.025724366
204	0x3dd5b6ad	0.10435233
205	0x3d4e8d78	0.050427884
206	0x3db38091	0.087647565
207	0x3dd41ca3	0.103570245
208	0x3d3f45e2	0.046697505
209	0x3ac42223	0.0014963787
210	0xbbd14de3	-0.0063874586
211	0x3da3a7ba	0.07990976
212	0xba4a3292	-0.0007713224
213	0x3d6abc4d	0.057308484
214	0xbd1fb8b5	-0.03899451
215	0x3df91b44	0.12163404
216	0x3ce377a6	0.027767014
217	0x3dbc4510	0.0919286
218	0xbd8c841b	-0.068611346
219	0xbdde00d3	-0.10840001
220	0xbbdfb603	-0.0068271174
221	0xbccebbc0	-0.02523601
222	0xbd868419	-0.065681644
223	0xbdee42de	-0.11633848
224	0x3dde3c79	0.10851378
225	0xbd439780	-0.047751904
226	0x3df6e13f	0.12054681
227	0xbd90890d	-0.0705739
228	0xbe0a6ba1	-0.1351762
229	0xbcd6e7ec	-0.026233636
230	0x3d00a3a7	0.03140607
231	0x3e014b5a	0.126264
232	0x3d60208b	0.054718535
233	0x3e02dd33	0.12779693
234	0x3d1eb5fd	0.038747776
235	0xbd166c56	-0.03672441
236	0x3dcd9b42	0.10039379
237	0x39f7f841	0.00047296475
238	0x3e00326e	0.12519237
239	0x3d06445f	0.032780048
240	0x3e0967d2	0.1341851
241	0xbd9b8872	-0.07594384
242	0xbdaccb07	-0.08437162
243	0xbcd91f76	-0.02650426
244	0x3e21d95f	0.15805577
245	0x3cf7078c	0.030154966
246	0x3d3b78e2	0.04576958
247	0x3db95deb	0.090511166
248	0x3d98c4c3	0.07459404
249	0x3d9a191f	0.07524323
250	0xbcbf451a	-0.02334838
251	0xbd7117d3	-0.05886061
252	0x3e069ecf	0.13146518
253	0x3c1293e9	0.008946397
254	0xbd88a92c	-0.06672892
255	0x3ddf21df	0.10895132

lstm.bias_hh_l0 f4 [256]
0	0x3dfdb7e0	0.12388587
1	0x3dc9171c	0.09818861
2	0x3dd045e1	0.10169578
3	0x3d805d0e	0.06267749
4	0x3d439a08	0.047754318
5	0xbd66d60e	-0.056356482
6	0x3e056d9e	0.13030097
7	0x3df1b96e	0.11802946
8	0xbbbe15f7	-0.0058009583
9	0xbdb556b5	-0.08854429
10	0xbda28f6b	-0.07937511
11	0xbdd6b9d4	-0.10484663
12	0x3d6cdf29	0.05783001
13	0x3e0e4d35	0.1389664
14	0x3dd1f48c	0.10251722
15	0x3e0a346e	0.13496563
16	0xbd8335ed	-0.0640677
17	0xbde81000	-0.11331177
18	0x3d80c016	0.062866375
19	0x3e0c8cf0	0.13725638
20	0x3dc1cfb0	0.09463441
21	0x3dab6cb6	0.08370344
22	0xbdb894e9	-0.09012777
23	0x3dc11e6b	0.0942963
24	0x3e01f4d1	0.12691046
25	0xbd1dafe6	-0.038497828
26	0x3e05dcb2	0.1307247
27	0xbd1db4aa	-0.038502373
28	0xbe010bd5	-0.1260217
29	0x3e33ef86	0.1757184
30	0x3dd5c488	0.10437876
31	0xbc7bcead	-0.0153691
32	0xbdf07e02	-0.11742784
33	0x3df2ebce	0.118613824
34	0xbd5efa1f	-0.054437753
35	0x3d22c39d	0.039737333
36	0x3dc8a7d3	0.09797635
37	0xbd11fe0a	-0.03564266
38	0x3dfd7cee	0.12377344
39	0xbd852de1	-0.06502891
40	0x3c9836b7	0.018580778
41	0x3b2313fe	0.0024883742
42	0xbdea5c47	-0.11443382
43	0xbd2a5089	-0.04158071
44	0x3c77d030	0.015125319
45	0x3d608b1b	0.05482016
46	0xbd8d93e5	-0.06912974
47	0xbda90069	-0.08252031
48	0xbbf35eec	-0.007427087
49	0xba438066	-0.00074577925
50	0x3e1a9f50	0.15099835
51	0x3e275f85	0.16345032
52	0x3da089ab	0.07838758
53	0xbc9cbeac	-0.019133888
54	0x3d4b0758	0.04956755
55	0x3de1ce00	0.110256195
56	0x3cf17b6e	0.029477801
57	0xbd949bae	-0.07256256
58	0x3de7502e	0.1129459
59	0x3ddd29da	0.10798998
60	0x3db91719	0.09037609
61	0x3d9324da	0.07184763
62	0x3dca39a9	0.09874279
63	0x3de919d3	0.11381879
64	0xbb29a0c8	-0.0025883187
65	0xbdd46680	-0.10371113
66	0x3d6352a1	0.055498723
67	0x3dda5e59	0.10662527
68	0xbd9e6c73	-0.07735529
69	0x3c1bae11	0.00950195
70	0x3d82da7a	0.06389327
71	0x3b89ee58	0.004209321
72	0x3cf03a10	0.029324561
73	0x3db975f8	0.09055704
74	0x3d9a90ba	0.07547136
75	0xbd2da8c9	-0.042397294
76	0x3d99e9b2	0.07515277
77	0x3dac9b65	0.08428077
78	0xbde48573	-0.11158266
79	0x3c04dc1b	0.008109118
80	0x3d8680d0	0.06567538
81	0xbc17f827	-0.009275473
82	0x3dfde32f	0.123968475
83	0x3a9c5af6	0.0011928964
84	0xbcda5bae	-0.026655044
85	0xbd449127	-0.04798999
86	0xbc9f0496	-0.019411366
87	0x3d91610d	0.07098589
88	0x3dc9aa10	0.0984689
89	0x3ddceaa7	0.10786944
90	0x3d85fab4	0.065419585
91	0x3d8b5bfe	0.068046555
92	0xbe018aea	-0.12650648
93	0x3dd05a4d	0.101734735
94	0x3d786396	0.060641848
95	0xbdec5d48	-0.115412295
96	0xbcd5a045	-0.026077399
97	0x3dca9548	0.098917544
98	0x3d1c5f56	0.038176857
99	0xbdefa233	-0.11700859
100	0xbdd2c4c9	-0.1029144
101	0xbd5aa7ca	-0.053382672
102	0xbdce512b	-0.10074075
103	0x3e0d6f78	0.13812053
104	0xbda5f7d8	-0.08103913
105	0x3d729652	0.059225388
106	0x3c5d1faa	0.013496319
107	0xbda35858	-0.079758346
108	0xbd9b0e87	-0.0757113
109	0xbc988988	-0.018620268
110	0xbd9cd674	-0.07658091
111	0x3bdf0aa0	0.0068066865
112	0x3dfbb6b6	0.12290709
113	0x3db9d6a7	0.09074145
114	0x3d86725e	0.065647826
115	0x3ca4ba8b	0.020108482
116	0xbd269330	-0.040667713
117	0xbd9b7983	-0.07591536
118	0xbda282a1	-0.07935072
119	0xbdd50439	-0.10401196
120	0xbc4726a6	-0.012155211
121	0x3e04c9fc	0.12967676
122	0x3dd6dc6a	0.104912594
123	0xbcde9827	-0.027172161
124	0x3de4558b	0.111491285
125	0x3d89e6ee	0.067334995
126	0x3e1a3c2e	0.15062019
127	0x3db952eb	0.090490185
128	0xbdc76d33	-0.09737625
129	0x3dbc2c4c	0.091881365
130	0x3d2f8d3a	0.042859294
131	0x3dd30704	0.103040725
132	0xbd5a9f3b	-0.05337451
133	0xbd9ac3d7	-0.07556885
134	0x3ddf9c69	0.10918505
135	0x3db2d75a	0.08732481
136	0xbdfeeb74	-0.12447253
137	0xbd5d6c7c	-0.054058537
138	0xbdaad5a9	-0.08341534
139	0xbe052f95	-0.13006432
140	0xbe091fd8	-0.13391054
141	0x3dbb6316	0.091497585
142	0x3d4eb6c1	0.050467256
143	0x3d2c0fc3	0.04200722
144	0xbdb43266	-0.08798675
145	0xbdb6ef19	-0.08932323
146	0x3d89e2b3	0.067326926
147	0xbc3293c3	-0.010899487
148	0x3db7af8d	0.089690305
149	0x3d28d22b	0.041216057
150	0x3dce5931	0.10075606
151	0xbd0d77ae	-0.034537964
152	0x3dd6729a	0.10471077
153	0x3d54583a	0.051841952
154	0xbd3cbc7c	-0.04607819
155	0x3dba255c	0.09089157
156	0x3d8ffedb	0.07031032
157	0x3e0c24da	0.13685933
158	0xbde13421	-0.10996271
159	0x3de8bc66	0.11364059
160	0xbd778115	-0.060425837
161	0xbdc55bb7	-0.09636634
162	0xbdddd39e	-0.108313784
163	0x3bb95deb	0.005656948
164	0x3df1bc7d	0.118035294
165	0x3cc1d6fb	0.023662081
166	0x3d8ebb39	0.06969304
167	0x3dc05390	0.09390938
168	0x3dd6e8c2	0.10493614
169	0x3d5c7776	0.053824864
170	0xbceedff6	-0.029159527
171	0xbcfb5499	-0.030679988
172	0x3ba9e431	0.0051846732
173	0xbde229bf	-0.11043119
174	0xbd287172	-0.041123815
175	0xbdc2b771	-0.09507645
176	0x3dd23ce2	0.10265519
177	0xbb8c96f3	-0.0042904555
178	0xbd5b16a4	-0.05348839
179	0x3bdc4f52	0.006723323
180	0xbdb21b3b	-0.086966
181	0xbc96217d	-0.018326515
182	0x3dc0493c	0.09388968
183	0x3c81f50b	0.015863916
184	0x3dbe2df5	0.09286109
185	0x3dc83a0c	0.097766966
186	0xbdae93b5	-0.08524267
187	0xbd8bc4f8	-0.06824678
188	0x3de2ad2b	0.110681854
189	0xbda48ad8	-0.08034295
190	0xbdaad22f	-0.083408706
191	0x3c9a0e49	0.01880564
192	0xbd92806b	-0.071534
193	0xbbe261e3	-0.0069086417
194	0x3e220569	0.15822376
195	0xbdc5e132	-0.09662093
196	0x3d8d55cf	0.06901132
197	0x3c93c930	0.01804027
198	0x3d9f2d40	0.07772303
199	0xbdfd4c76	-0.123680994
200	0x3d5b3827	0.053520348
201	0xbd9eef08	-0.07760435
202	0x3db01f21	0.08599687
203	0xbd9090cc	-0.07058868
204	0x3de8d6d7	0.113691024
205	0x3aa584e9	0.0012628111
206	0xbdbc8bf1	-0.09206379
207	0x3e0e5c4f	0.139024
208	0xbdde7786	-0.10862641
209	0x3de8dc04	0.1137009
210	0xbc7a1582	-0.015263917
211	0xbc579777	-0.013158671
212	0xbda50471	-0.08057488
213	0x3d98b5e2	0.074565664
214	0x3dd3b5b3	0.10337391
215	0xbd5ce64f	-0.053930577
216	0x3d9a7d06	0.075433776
217	0xbb987916	-0.0046531064
218	0xbddf8793	-0.109145306
219	0x3dfeba7b	0.12437912
220	0xbd73cc76	-0.05952116
221	0x3d945a90	0.07243836
222	0xbc98f175	-0.018669823
223	0xbd952e6c	-0.07284245
224	0x3cd82ae8	0.026387647
225	0x3db13546	0.08652739
226	0x3db414e9	0.08793051
227	0x3d64d271	0.055864755
228	0x3cd694a4	0.026193924
229	0x3d475120	0.04866135
230	0xbded86d4	-0.11597982
231	0xbc543909	-0.012953051
232	0xbcda1325	-0.026620457
233	0xb962812c	-0.0002160116
234	0xbdc21cd0	-0.09478152
235	0x3ca1acb9	0.01973568
236	0x3d75811c	0.05993758
237	0x3c9972e7	0.018731548
238	0xbcff4d5c	-0.031164818
239	0xbd93a40c	-0.07209024
240	0x3dd87b2d	0.10570369
241	0xbdce9288	-0.10086542
242	0xbd0af18c	-0.033921763
243	0x3da54be7	0.08071118
244	0x3d65fe5f	0.05615079
245	0x3d227a5d	0.039667476
246	0x3dc1e4d7	0.09467476
247	0x3d7d6b04	0.061869636
248	0xbd2400c4	-0.040039793
249	0xbbd0da84	-0.0063737053
250	0x3db275d3	0.087138794
251	0x3ba30893	0.0049753874
252	0x3db81f37	0.08990329
253	0xbd5045e3	-0.0508479
254	0x3b83fbe4	0.0040278304
255	0x3dac2beb	0.08406814

lstm.weight_ih_l1 f4 [256, 64]
0	0xbcfeeac2	-0.0311178
1	0x3d243d0a	0.040097274
2	0xbd1323f8	-0.035922974
3	0xbd940567	-0.07227593
4	0xbe0ad1ae	-0.13556549
5	0x3e20b44c	0.15693778
6	0x3d35a7d4	0.044349506
7	0xbd1c32c0	-0.038134336
8	0xbc05af6d	-0.008159501
9	0x3d750332	0.0598175
10	0xbc9106e8	-0.017703488
11	0x3d4c840f	0.04993063
12	0xbe277e39	-0.16356744
13	0x3df0dc89	0.11760814
14	0x3e1dcbbd	0.15409751
15	0x3c9d8021	0.019226136
16	0x3bf8cca6	0.0075927554
17	0xbd30c9f8	-0.043161362
18	0x3ddd2643	0.107983135
19	0x3b88d14a	0.00417534
20	0xbcf12d57	-0.029440565
21	0x3c4e6e43	0.012599531
22	0xbda2d985	-0.07951645
23	0x3c2bab78	0.010477893
24	0x3d8e7c1c	0.06957266
25	0x3e2cfb30	0.16892695
26	0xbd0db75a	-0.034598686
27	0x3d4cecae	0.050030403
28	0xbd22912b	-0.039689224
29	0xbd77f66d	-0.060537744
30	0xbc2ff378	-0.0107392
31	0x3d64bbad	0.055843044
32	0x3d062625	0.03275122
33	0x3c8d7df4	0.017271973
34	0xbdb33281	-0.08749867
35	0xbe332876	-0.17495903
36	0x3c5d1004	0.013492588
37	0xbdbe3029	-0.092865296
38	0x3e14f137	0.14545141
39	0xbd70c700	-0.05878353
40	0xbd9b226f	-0.07574927
41	0xbcc0d00e	-0.023536708
42	0x3d6b72a9	0.057482395
43	0xbdca7055	-0.09884707
44	0xbc52e3a0	-0.012871653
45	0xbc91abb3	-0.017782068
46	0xbd77a064	-0.060455695
47	0x3d8f75f9	0.070049234
48	0xbdfa25e1	-0.12214256
49	0xbd7323c2	-0.059360273
50	0xbe28f01e	-0.16497847
51	0x3cb6f620	0.022334158
52	0xbe2eb5c5	-0.17061527
53	0x3d8a0ed5	0.0674111
54	0x3dbc09a2	0.09181525
55	0xbc183f5f	-0.009292453
56	0x3e31abbb	0.17350666
57	0x3e1afe17	0.1513599
58	0x3e32c289	0.17457022
59	0xbe29a3ba	-0.16566363
60	0xbbcba4d6	-0.0062147183
61	0xbc4e2379	-0.0125816995
62	0xbdb32072	-0.08746423
63	0x3d1dcbad	0.03852432
64	0x3d128853	0.03577454
65	0xbd85aafd	-0.06526754
66	0xbe151bee	-0.14561436
67	0x3dc4b539	0.09604878
68	0xbe155752	-0.14584091
69	0x3df9a90f	0.121904485
70	0x3c6e254c	0.014535259
71	0xbdc0fedd	-0.09423611
72	0x3d2832e9	0.041064177
73	0xbe20e1d7	-0.15711151
74	0xbdaf056f	-0.08545958
75	0x3da1d14f	0.079012506
76	0xbe0073a4	-0.12544113
77	0x3c95f5ef	0.018305747
78	0xbdbe5982	-0.09294416
79	0x3da340b3	0.07971325
80	0x3dc8e10d	0.0980855
81	0xbe1f8c88	-0.15580952
82	0x3e24a1d2	0.16077355
83	0xbd8c074f	-0.068373315
84	0xbc9ef17b	-0.019402256
85	0x3bc9579c	0.006144477
86	0x3c1bbbf5	0.009505262
87	0x3d83c219	0.064335056
88	0x3d123f54	0.035704926
89	0x3e13c79f	0.14431618
90	0xbdb82e6e	-0.08993231
91	0x3d5bea39	0.05369017
92	0x3cbea66f	0.023272721
93	0xbcd7bca8	-0.026335075
94	0xbdf4535d	-0.11929963
95	0xbe18ffdc	-0.14941353
96	0xbdbd6d9e	-0.092494234
97	0xbd9ff46b	-0.07810291
98	0xbe1bafc4	-0.15203768
99	0xbd7f5625	-0.062338013
100	0xbd666d9f	-0.056256887
101	0x3da8e7ea	0.08247359
102	0x3e16cca8	0.14726508
103	0x3d8810c8	0.06643826
104	0x3e01040e	0.12599203
105	0xbd526911	-0.05136973
106	0xbc368993	-0.011141199
107	0xbd882fe9	-0.06649763
108	0x3e03ce32	0.12871626
109	0x3dab76fa	0.08372302
110	0xbda3a3f9	-0.0799026
111	0xbe1dc10a	-0.1540567
112	0x3deca453	0.1155478
113	0xbdcf403a	-0.10119672
114	0x3d8899db	0.066699706
115	0xbd0db000	-0.034591675
116	0xbb233e4e	-0.0024908963
117	0xbd49a065	-0.04922523
118	0xbd0a46f2	-0.033759065
119	0x3d38e7e8	0.045143038
120	0x3de5a83e	0.1121373
121	0xbc138be0	-0.009005517
122	0x3d0b7242	0.03404451
123	0xbde84027	-0.11340361
124	0xbe01bddd	-0.12670083
125	0xbe1e3b09	-0.15452208
126	0xbca51386	-0.020150911
127	0xbcd70bc4	-0.026250727
128	0x3dc68c00	0.09694672
129	0xbcb985cf	-0.022646813
130	0xbcf638e1	-0.030056419
131	0xbd97b947	-0.07408386
132	0xbccf41b5	-0.025299886
133	0x3d5cf7a0	0.05394709
134	0xbbba4dee	-0.0056855595
135	0xbd16423f	-0.03668427
136	0x3d5b80c5	0.0535896
137	0xbd806d0c	-0.06270799
138	0x3cfb937f	0.03070998
139	0xbe033207	-0.12812053
140	0x3dded4ec	0.108804554
141	0x3b0e860c	0.0021747379
142	0x3d8efa6d	0.06981359
143	0xbe1602aa	-0.14649454
144	0xbd2f2aeb	-0.04276554
145	0xbc804b3c	-0.015660875
146	0x3b92acdd	0.0044761733
147	0x3da5c6f7	0.0809459
148	0xbc39edd8	-0.01134821
149	0x3d03ae3e	0.032148592
150	0xbdb6671e	-0.08906387
151	0xbe0e159a	-0.13875428
152	0xbc30c7ea	-0.010789851
153	0x3dd121b9	0.1021151
154	0x3c6bf736	0.014402201
155	0xbc47c19e	-0.012192158
156	0xbdbf1dc4	-0.09331849
157	0x3ca05ea7	0.019576384
158	0xbd81c2fd	-0.06336019
159	0xbca2ac6d	-0.01985761
160	0xbcde9a95	-0.02717332
161	0xbda1d9dc	-0.079028815
162	0xbdf5b453	-0.11997285
163	0xbd92b34d	-0.07163105
164	0xbdcd2862	-0.10017468
165	0xbe08b8ac	-0.13351697
166	0xbd328b0d	-0.04358964
167	0xbdf3f6e9	-0.11912329
168	0x3deeac6a	0.11653979
169	0x3e0eea0e	0.13956472
170	0x3d7e3cd8	0.062069744
171	0xbd62a3d5	-0.055332024
172	0x3d5baea6	0.053633355
173	0xbdf216af	-0.11820733
174	0x3d9a9fc9	0.07550008
175	0xbd48b12e	-0.048997097
176	0xbd8e04f3	-0.06934538
177	0x3d491a1c	0.049097165
178	0xbe1020c0	-0.14074993
179	0xbde763c4	-0.11298326
180	0x3dafebdb	0.08589908
181	0x3a26618d	0.00063469337
182	0xbd0fc2de	-0.03509795
183	0xbd907fbe	-0.07055615
184	0x3d5f465e	0.054510467
185	0x3d32fbb7	0.043697085
186	0xbda8f00e	-0.08248912
187	0x3d903004	0.07040408
188	0xbdffd796	-0.12492292
189	0x3d940c72	0.07228936
190	0xbd2c7cb2	-0.042111106
191	0xbd18ddbc	-0.037320837
192	0x3d0cc471	0.03436703
193	0x3d0c42e6	0.034243487
194	0x3dd7539f	0.10513996
195	0x3d05a701	0.03262997
196	0x3bb81e5f	0.005618855
197	0x3de7867e	0.11304949
198	0xbcff519b	-0.031166842
199	0x3dcd4dc4	0.10024598
200	0x3d92387e	0.07139681
201	0xbde0d079	-0.10977263
202	0xbd4a0f0e	-0.049330764
203	0x3d908424	0.07056454
204	0xbdd64366	-0.10462074
205	0xbc8fb2e3	-0.017541355
206	0x3d4fea09	0.050760303
207	0x3c8fa389	0.017534034
208	0x3c4ed970	0.012625083
209	0xbd2182da	-0.03943143
210	0xbc5ad77a	-0.013357038
211	0xbd972005	-0.07379154
212	0x3c8ca8f8	0.017170414
213	0xbe0343d2	-0.1281884
214	0xbc5a47c5	-0.013322775
215	0x3d9a7ee7	0.07543736
216	0xbd908c99	-0.07058067
217	0xbc0bf760	-0.0085428655
218	0x3d4a3d05	0.0493746
219	0x3da59f62	0.080870405
220	0x3df047e3	0.11732461
221	0x3cbb0135	0.022827724
222	0xbd4ec14d	-0.050477315
223	0xbc947b78	-0.01812528
224	0xbd745d6f	-0.059659418
225	0x3dfc6cdc	0.12325451
226	0x3d6e9c2d	0.05825441
227	0x3d17927f	0.037004944
228	0x3d93f505	0.07224468
229	0xbc14ce8d	-0.009082449
230	0xbded6e6c	-0.11593327
231	0x3cb552ce	0.02213421
232	0x3d913e28	0.070919335
233	0x3dc6cab6	0.09706633
234	0x3dd9e191	0.106387265
235	0xbd25ba50	-0.040460885
236	0x3c9b998f	0.01899412
237	0xbcb7f6ff	-0.022456644
238	0xbdaca0ec	-0.08429131
239	0x3b4853ce	0.003056753
240	0x3d2c1bf3	0.042018842
241	0x3c43b21d	0.011944321
242	0xbceac860	-0.02866
243	0xbdb27072	-0.087128535
244	0xbb45f408	-0.0030205268
245	0xbd45a48c	-0.048252627
246	0x3cfef09a	0.031120587
247	0x3d950ca4	0.07277802
248	0x3df15d0b	0.11785325
249	0xbdadc540	-0.08484888
250	0x3db7c662	0.089733854
251	0xbda3becc	-0.07995376
252	0xbd5d95bd	-0.05409788
253	0xbd38dd4f	-0.04513293
254	0x3a47d096	0.0007622329
255	0x3de181ce	0.110110864

lstm.weight_hh_l1 f4 [256, 64]
0	0xbda89658	-0.08231801
1	0xbd96e20f	-0.07367336
2	0x3dee7623	0.116436265
3	0x3d7bbb17	0.06145772
4	0x3ae99b6c	0.0017822809
5	0xbd26d059	-0.04072604
6	0xbd732ba4	-0.05936779
7	0x3d1afc82	0.037838466
8	0xbcb6e076	-0.022323828
9	0xbd356022	-0.044281133
10	0x3d734a52	0.05939705
11	0x3ca13850	0.019680172
12	0x3ca314ba	0.019907344
13	0x3d3ec9b2	0.04657907
14	0x3d7e8920	0.06214249
15	0x3daa7bce	0.08324395
16	0xbdbd3eb3	-0.092404746
17	0xbe18dfcf	-0.14929126
18	0x3d8d460c	0.06898126
19	0x3bd87390	0.006605573
20	0x3d82d3c8	0.0638805
21	0x3caf3861	0.021389188
22	0xbd3aea4c	-0.0456336
23	0xbe13067e	-0.14357945
24	0x3e16e3dc	0.14735359
25	0xbd7923e3	-0.06082524
26	0x3da46ced	0.080285884
27	0x3e115a42	0.14194587
28	0xbe0f7774	-0.14010412
29	0xbe25e8cf	-0.1620209
30	0x3cd037e5	0.025417278
31	0xbce1390a	-0.027493019
32	0x3e15e50e	0.14638159
33	0xbc049588	-0.008092292
34	0x3d984e3f	0.07436799
35	0x3d2c998a	0.042138614
36	0xbda55fc0	-0.080749035
37	0x3d88d15a	0.06680556
38	0x3c6a1c8c	0.014289033
39	0xbe1cc9b6	-0.15311322
40	0x3db42e29	0.08797867
41	0xbda9220d	-0.08258448
42	0xbd8a2034	-0.067444235
43	0x3d89937b	0.06717583
44	0xbdd99663	-0.10624387
45	0x3d94f8cd	0.072740175
46	0x3d1a96e1	0.037741546
47	0xbb6afef0	-0.003585752
48	0x3d0723c4	0.032993093
49	0xbcc66996	-0.02422027
50	0x3d390645	0.045171995
51	0xbd1f4a32	-0.038889118
52	0x3c731248	0.014835902
53	0x3d8f7821	0.07005335
54	0x3d225952	0.039635964
55	0x3e1614a2	0.14656308
56	0x3dc5a996	0.096514866
57	0xbd498508	-0.049199134
58	0xbe0e0693	-0.13869695
59	0xbdaad6c6	-0.08341746
60	0xbd9f4b96	-0.07778089
61	0x3c0f3358	0.008740269
62	0x3cbfffe1	0.023437442
63	0x3c82f831	0.015987488
64	0xbdd37bb5	-0.103263296
65	0xbd66c945	-0.05634429
66	0x3dba699a	0.09102173
67	0xbdb01388	-0.08597475
68	0x3d89a5c0	0.067210674
69	0x3dc1e204	0.09466937
70	0xbdb72f4f	-0.0894457
71	0x3d54e863	0.051979434
72	0xbce8b3f0	-0.028406113
73	0x3db7cf82	0.08975126
74	0xbd13825e	-0.036013
75	0x3cd0b472	0.025476668
76	0xbd4247f1	-0.04743189
77	0x3e1744f4	0.14772397
78	0xbde2eb12	-0.11079992
79	0xbd2296b5	-0.039694507
80	0x3c39f46c	0.011349779
81	0x3db60b55	0.0888888
82	0x3d46bc83	0.048519623
83	0x3d0980ec	0.033570215
84	0x3da1b786	0.078963324
85	0xbe02212c	-0.12707967
86	0x3d457f35	0.048217017
87	0xbd2636ba	-0.040579535
88	0x3e086cfd	0.13322826
89	0xbd8b3643	-0.06797459
90	0xbe0a4414	-0.13502532
91	0xbd00c3fa	-0.031436898
92	0x3d81362a	0.06309159
93	0xbd0c00a6	-0.034180306
94	0x3d90d169	0.07071192
95	0x3c241587	0.010014898
96	0xbcd8dee0	-0.026473463
97	0xbda7585d	-0.08171151
98	0xbc8ca98f	-0.017170696
99	0x3cecce57	0.028906984
100	0xbde0c868	-0.109757245
101	0x3d2d1bee	0.042262964
102	0x3e0568df	0.13028286
103	0xbdea875a	-0.114515975
104	0xbd9450c9	-0.07241971
105	0xbdc3630a	-0.095403746
106	0x3de6d2a0	0.11270642
107	0xbd3f9812	-0.046775885
108	0xbd2d9ba1	-0.042384747
109	0xbca294d6	-0.019846361
110	0xbe12d112	-0.14337566
111	0x3e06ee0f	0.1317675
112	0x3e098fe2	0.13433793
113	0xbe116f36	-0.1420258
114	0xbe047380	-0.12934685
115	0xbcb3e932	-0.021961782
116	0x3dabf320	0.08395982
117	0x3d362e8b	0.04447798
118	0x3b63abaa	0.003473977
119	0x3e18fd66	0.14940414
120	0xbdfd2a47	-0.123615794
121	0xbc361c98	-0.011115216
122	0x3b1ee0c0	0.0024242848
123	0xbd95d995	-0.07316891
124	0x3c4f457c	0.012650844
125	0xbd020ad7	-0.03174862
126	0x3d96326c	0.07333836
127	0x3d231eea	0.039824404
128	0x3d81dc2a	0.06340821
129	0xbd16241f	-0.03665554
130	0xbd581cec	-0.052761957
131	0xbd45dbba	-0.04830525
132	0x3d91e5cc	0.071239084
133	0x3d745a0e	0.059656195
134	0x3cd1a074	0.025589205
135	0x3d83f530	0.0644325
136	0x3da62bd4	0.08113828
137	0xbd241cc9	-0.040066514
138	0xbd75483b	-0.059883337
139	0x3ddaf6c4	0.10691598
140	0x3dba81f6	0.09106819
141	0x3df04167	0.117312245
142	0xbdc0325d	-0.09384606
143	0x3da83ca3	0.082146905
144	0xbcbdaeb3	-0.023154592
145	0xbc004776	-0.007829538
146	0xbd9a54ae	-0.075356826
147	0xbc866f33	-0.016410446
148	0x3d9e8363	0.07739904
149	0x3bfe3f7f	0.007759034
150	0x3dcdf95d	0.10057328
151	0xbd3f7957	-0.046746578
152	0x3d5f626d	0.054537226
153	0x3d8b5d87	0.06804948
154	0x3dd793fd	0.105262734
155	0x3d0be612	0.03415496
156	0x3d2ef467	0.04271355
157	0x3cc20607	0.023684515
158	0xbe0c13c8	-0.13679421
159	0xbd0f7e06	-0.035032295
160	0x3d596936	0.053078853
161	0x3ddbba21	0.10728861
162	0x3d8b232a	0.067938164
163	0x3c00923f	0.007847368
164	0xbdd4805a	-0.103760436
165	0xbda2d1dd	-0.079501845
166	0x3dd22997	0.10261839
167	0x3d395f12	0.04525668
168	0xbdbfdfe6	-0.09368877
169	0x3c9d20f8	0.01918076
170	0xbcafa368	-0.021440223
171	0xbd809a66	-0.06279449
172	0x3d58ee8c	0.05296187
173	0xbde9aded	-0.11410127
174	0x3d99a499	0.07502098
175	0x3dee68ac	0.11641058
176	0x3e0553b5	0.13020213
177	0x3d36f9b3	0.044671725
178	0x3d6bd8dd	0.057579864
179	0xbdacee81	-0.084439285
180	0x3da2a4df	0.07941603
181	0xbcbf486d	-0.023349965
182	0x3de3209c	0.11090204
183	0xbdbdcba2	-0.092673555
184	0xbe25ccfd	-0.16191478
185	0xbda1520a	-0.07876976
186	0x3d2dabeb	0.042400282
187	0xbdfcf719	-0.12351818
188	0xbdf99d31	-0.12188185
189	0xbd0d1ba1	-0.034450177
190	0xbd726ca5	-0.059185643
191	0xbdbd3aec	-0.09239754
192	0xbb73dd86	-0.0037210896
193	0x3e12916a	0.14313284
194	0xbd9d631e	-0.07684921
195	0x3cc03e1a	0.023467112
196	0xbd9561f5	-0.072940744
197	0xbdbaaa5d	-0.091145255
198	0xbde4e31b	-0.111761294
199	0xbc53071b	-0.012880112
200	0xbddf46ff	-0.10902213
201	0xbd88b2ae	-0.066747054
202	0xbda2b029	-0.07943756
203	0x3dcca236	0.09991877
204	0xbdc36919	-0.0954153
205	0x3da951f7	0.08267587
206	0x3d8cd9f2	0.06877507
207	0x3d961e05	0.073299445
208	0x3cb02d4b	0.021505972
209	0x3c9e721f	0.019341527
210	0x3d9d3518	0.076761425
211	0x3d136ece	0.035994343
212	0xbca7f139	-0.020500766
213	0xbcd1448f	-0.025545387
214	0x3c6b5163	0.014362666
215	0xbdf1f43f	-0.11814164
216	0xbcbb7ab9	-0.022885667
217	0xbcb98412	-0.022645984
218	0x3c6f28fb	0.014597173
219	0xbdad43a3	-0.08460166
220	0x3b91b22a	0.0044462876
221	0xbd7cca90	-0.061716616
222	0x3dc3eec8	0.09567028
223	0xbc982fb7	-0.01857744
224	0xbd04c757	-0.032416668
225	0xbcb7c8e9	-0.022434669
226	0xbc328f31	-0.010898397
227	0x3ddf8457	0.10913914
228	0xbde38ba9	-0.111106224
229	0xbbdd7499	-0.0067582843
230	0x3d165408	0.036701232
231	0x3ddc98fb	0.10771366
232	0x3bf7c1df	0.007560953
233	0xbda60bf7	-0.08107751
234	0xbd5482c1	-0.05188251
235	0xbde9242c	-0.11383852
236	0x3cd187f8	0.02557753
237	0x3d7b333c	0.061328158
238	0xbdf2dfd1	-0.11859096
239	0x3cb06653	0.021533167
240	0x3dca57a5	0.09879998
241	0xbd3a3405	-0.045459766
242	0x3dc5b78a	0.09654148
243	0xbbde0b90	-0.0067762807
244	0xbbd99357	-0.0066398787
245	0x3d21ee4d	0.039533902
246	0xbdec9e54	-0.11553636
247	0xbc890723	-0.016727036
248	0x3d50c971	0.05097336
249	0x3df3fcf7	0.119134836
250	0xbdca338d	-0.09873114
251	0x3dfa5028	0.1222232
252	0xbd89d3a2	-0.06729819
253	0xbd4259db	-0.047448974
254	0xbdc29c34	-0.0950245
255	0x3dd4f459	0.10398168

lstm.bias_ih_l1 f4 [256]
0	0xbd385051	-0.04499847
1	0xbdae38a4	-0.08506897
2	0x3e04d52a	0.1297194
3	0xbde91ede	-0.113828406
4	0x3d73bb54	0.059504822
5	0xbdcb3db3	-0.099238776
6	0x3ddf1193	0.10892024
7	0x3dd97ed5	0.106198944
8	0xbde2991f	-0.11064362
9	0xbdd9d92d	-0.10637126
10	0x3d967ac9	0.07347638
11	0x3d9b6b2b	0.075888
12	0xbda272d8	-0.07932061
13	0xbd4deff0	-0.05027765
14	0xbc68d598	-0.014211081
15	0x3d22878d	0.039680053
16	0xbdc52806	-0.096267745
17	0x3dde762b	0.108623825
18	0xbc895fa5	-0.01676924
19	0xbdbca30a	-0.09210785
20	0x3e0e2b5f	0.13883732
21	0x3cb48a6f	0.022038667
22	0xbcee06b9	-0.02905594
23	0xbcf2efbc	-0.02965533
24	0x3d099059	0.033584926
25	0x3d4c17d7	0.049827423
26	0xbca22066	-0.01979084
27	0x3da78dc8	0.081813395
28	0xbc76ebb6	-0.015070846
29	0xbda79ab2	-0.08183803
30	0x3db04f24	0.08608845
31	0x3e10590f	0.14096473
32	0x3aca640f	0.0015441197
33	0x3d961e38	0.073299825
34	0xbdc5cd22	-0.096582666
35	0x3dd8e4df	0.10590529
36	0xbd7c6a52	-0.061624832
37	0xbd489a43	-0.04897524
38	0x3cbe2636	0.02321158
39	0x3d8e58df	0.069505446
40	0xbd718683	-0.05896617
41	0x3d898ca1	0.06716276
42	0xbd9dd1b4	-0.07706013
43	0x3dad0613	0.08448424
44	0x3d153774	0.036429837
45	0xbb26b092	-0.0025434834
46	0x3cd03e1b	0.02542024
47	0x3d0fea83	0.035135757
48	0x3e1127a4	0.14175278
49	0xbd6c797e	-0.05773305
50	0xbccb5829	-0.024822311
51	0x3da5fbfc	0.08104703
52	0xbd74cc65	-0.05976524
53	0x3d4298d7	0.04750904
54	0x3de121e2	0.10992791
55	0x3de4a885	0.11164955
56	0x3d36b77d	0.04460858
57	0xbde361bc	-0.11102626
58	0x3d95793b	0.072985135
59	0xbd01242b	-0.031528633
60	0x3d388f33	0.04505844
61	0xbd074d15	-0.033032496
62	0xbcea0f89	-0.02857186
63	0xbd671426	-0.0564157
64	0x3d55c7cd	0.052192498
65	0xbdb4cf36	-0.08828585
66	0x3de4f5af	0.11179673
67	0x3d45fd54	0.048337296
68	0xbba916f3	-0.0051602065
69	0xbd1e0515	-0.038579065
70	0xbd346aa3	-0.04404701
71	0xbdc8ff58	-0.09814328
72	0xbdc98a03	-0.09840777
73	0xbdeea58b	-0.116526686
74	0x3dcb75c6	0.09934573
75	0x3cc47be4	0.023984857
76	0x3d531d29	0.05154148
77	0x3c20890c	0.0097982995
78	0x3dd7627c	0.10516831
79	0x3c23e1f7	0.010002605
80	0xbddddce8	-0.1083315
81	0x3e00322c	0.12519139
82	0x3e045fe9	0.12927212
83	0x3d724f0a	0.05915741
84	0x3dd285b9	0.10279412
85	0xbd395101	-0.045243267
86	0x3d6aabc2	0.057292707
87	0xba8cf2f8	-0.0010753563
88	0xbd90627d	-0.07050035
89	0xbc5c8426	-0.013459241
90	0x3da5df35	0.08099214
91	0x3d6a88ca	0.05725936
92	0xbd6dfded	-0.05810349
93	0xbdc51c5b	-0.09624549
94	0xbcf600ac	-0.030029617
95	0xbdc917e9	-0.098190136
96	0x3de9bead	0.11413322
97	0xbde122af	-0.109929435
98	0x3bf82ee6	0.00757395
99	0xbcd0eb6e	-0.025502887
100	0xbc186abc	-0.009302791
101	0x3ddd05ef	0.10792147
102	0x3c2955d1	0.010335402
103	0x3d8101c0	0.06299162
104	0xbbbafce2	-0.0057064155
105	0xbe0378c8	-0.12839043
106	0xbdb44787	-0.08802705
107	0x3c40713d	0.011745748
108	0x3d7bce87	0.061476257
109	0x3d837672	0.06419076
110	0x3da6b6fb	0.081403695
111	0x3d8a2b24	0.0674651
112	0x3dbab4a1	0.091164835
113	0x3daa79d2	0.08324017
114	0x3c8df7c1	0.017330052
115	0xbda1cdf3	-0.0790061
116	0x3ca7b5ab	0.020472368
117	0x3e07f32c	0.13276356
118	0x3da70c54	0.08156648
119	0x3dbdb489	0.0926295
120	0x3bd60ca5	0.006532269
121	0x3d86a62a	0.06574662
122	0xbc9db8de	-0.01925319
123	0x3c13ad5c	0.0090135
124	0x3d82de24	0.06390026
125	0xbcc86f97	-0.024467273
126	0x3e0d088d	0.13772793
127	0xbd8bdc34	-0.0682911
128	0xbb58b380	-0.0033065975
129	0x3df0e524	0.11762455
130	0x3b8b22ca	0.0042460905
131	0xbd517ea5	-0.05114617
132	0x3da8896e	0.08229338
133	0x3dd18b4b	0.10231646
134	0x3dd5a153	0.10431161
135	0x3d9bf51a	0.07615109
136	0xbd9e3545	-0.07725004
137	0x3e07fb94	0.13279563
138	0x3b824d19	0.003976476
139	0xbd6d8e46	-0.05799701
140	0xbd260a0d	-0.04053693
141	0xbbab5630	-0.00522878
142	0xbd4dcca1	-0.050243977
143	0x3b07b6fe	0.0020708437
144	0xbcc74124	-0.024323054
145	0xbdbbc2ac	-0.0916799
146	0x3db9a331	0.090643294
147	0x3de53d42	0.111933246
148	0x3cc4857f	0.023989437
149	0xbd1b34c1	-0.037892107
150	0x3e0ba266	0.13636169
151	0xbc63ac52	-0.013896065
152	0x3e0a47cc	0.13503951
153	0x3bece61e	0.0072295805
154	0xbb79c5a2	-0.0038112183
155	0x3d1e5f51	0.03866512
156	0x3d328b2b	0.043589752
157	0xbdccf8c6	-0.10008387
158	0xbda33ab6	-0.079701826
159	0x3d591bdd	0.053005088
160	0x3df2c306	0.11853604
161	0x3c9a8c0e	0.018865611
162	0xbd275f93	-0.04086263
163	0xbdc05004	-0.09390262
164	0xbd9307e9	-0.07179243
165	0x3dddf881	0.10838414
166	0xbdb8d369	-0.09024698
167	0xbcc94980	-0.02457118
168	0x3de76cee	0.113000736
169	0xbd08e7ed	-0.033424307
170	0xbcc6847e	-0.0242331
171	0x3db97124	0.09054783
172	0xbe0677e9	-0.1313168
173	0xbd8adf80	-0.067809105
174	0xbc15ef17	-0.009151242
175	0x3d60ea24	0.054910794
176	0xbcc35257	-0.023842974
177	0xbe0da5f5	-0.13832839
178	0xbdb33d5a	-0.08751936
179	0x3ca1e6e0	0.01976341
180	0xbc163ad5	-0.0091693
181	0xbcb68916	-0.022282165
182	0x3dbefea3	0.09325912
183	0xbc6a143b	-0.01428705
184	0xbcd974ed	-0.026545012
185	0xbb4ce3ef	-0.0031263789
186	0x3d0212da	0.03175626
187	0xbd943f20	-0.07238603
188	0xbcd90741	-0.026492717
189	0x3c0168aa	0.007898489
190	0x3d010416	0.031498037
191	0x3d849bd5	0.06475035
192	0x3d632722	0.05545724
193	0x3df448bd	0.11927936
194	0xbdd1c436	-0.102425024
195	0x3d90f578	0.070780694
196	0x3d1291c8	0.03578356
197	0x3d3bd223	0.0458547
198	0x3df88a21	0.12135721
199	0x3da0cd9a	0.078517154
200	0xbdef4d2f	-0.116846435
201	0xbde70370	-0.112799525
202	0xbd85939c	-0.06522295
203	0xbdf8e926	-0.121538445
204	0x3d23780a	0.0399094
205	0x3cc81297	0.024422927
206	0xbc52561d	-0.012837914
207	0x3d79276f	0.060828622
208	0xbdeac2ca	-0.11462934
209	0x3d0a4c52	0.03376419
210	0xbdb3b163	-0.08774068
211	0xbd79e1c9	-0.06100634
212	0xbda6b97e	-0.081408486
213	0xbd855ed2	-0.06512226
214	0xbd97797f	-0.073962204
215	0xbda93713	-0.08262458
216	0x3da85043	0.08218434
217	0x3de2cc31	0.11074103
218	0xbd00cb71	-0.031444017
219	0xbdab6da7	-0.08370524
220	0xbd5c0eac	-0.05372493
221	0xbdbbc1db	-0.09167834
222	0xbd9cfc3f	-0.076652996
223	0xbd55fb50	-0.052241623
224	0x3db0d5a4	0.08634499
225	0xbd67b8c2	-0.056572683
226	0x3dd4d721	0.10392595
227	0xbdfa2d4d	-0.12215672
228	0xbdb61787	-0.08891206
229	0xbc50b332	-0.012738036
230	0x3e14bd1d	0.14525266
231	0x3d0f3d11	0.034970347
232	0xbcf3f26a	-0.029778678
233	0x3dc5374a	0.09629686
234	0x3de73a6d	0.11290441
235	0x3d8a1745	0.067427196
236	0x3dccc92a	0.099993065
237	0x3d369e3d	0.0445845
238	0xbdb46195	-0.08807675
239	0xbd9049c6	-0.07045321
240	0xbda4ec90	-0.08052933
241	0x3d0b9c8e	0.03408485
242	0x3bbe7d78	0.005813297
243	0x3c6e55cf	0.014546826
244	0xbd4cebd6	-0.0500296
245	0xbd8578a9	-0.06517155
246	0xbdb6a215	-0.089176334
247	0x3d2c9f1d	0.04214393
248	0x3c06016b	0.008179049
249	0x3c6a42b2	0.014298128
250	0x3e058cb7	0.1304196
251	0x3dfbcc59	0.122948356
252	0xbb5b839e	-0.0033495198
253	0x3db9b7f1	0.09068287
254	0xbc2a98b7	-0.010412387
255	0x3d83e628	0.06440383
