src/deep_learning/artifacts/lstm_model_JPM.pt (torch, 217149 bytes, 12 tensors)

lstm.weight_ih_l0 f4 [256, 2]
0	0x3e08abf9	0.13346852
1	0x3bbab49b	0.0056977994
2	0x3da97487	0.08274179
3	0x3cb6eb1f	0.022328911
4	0x3e201ec4	0.15636736
5	0x3dce0ec4	0.1006141
6	0x3d36fdbb	0.04467557
7	0x3de96ff0	0.113983035
8	0x3c9bc3d3	0.019014275
9	0xbd8ab5cf	-0.067729585
10	0x3df61b9d	0.120169856
11	0x3dcff7df	0.101546995
12	0x3cf28996	0.029606622
13	0x3d6659b7	0.056237902
14	0x3dabe6e8	0.08393651
15	0xbd46d6ae	-0.04854458
16	0x3e151c3d	0.14561553
17	0xbe05580f	-0.13021873
18	0x3e193207	0.1496049
19	0x3e0d1d5d	0.13780732
20	0xbd87b748	-0.06626755
21	0x3dfa0567	0.12208062
22	0xbd6795ef	-0.056539472
23	0xbd8eb632	-0.06968345
24	0x3dede92a	0.11616738
25	0xbe02bc6e	-0.12767193
26	0xbcc298d1	-0.02375451
27	0x3d54fcd3	0.051998924
28	0xbd9145ff	-0.07093429
29	0xbd926c47	-0.071495585
30	0xbdbdee8a	-0.09274013
31	0xbda311e0	-0.07962394
32	0xbd5d7b88	-0.054072887
33	0xbe105b16	-0.14097247
34	0x3cb0fecf	0.021605877
35	0xbd693e1b	-0.056943994
36	0xb9afdaac	-0.00033541524
37	0x3cededac	0.029043995
38	0x3dabfae9	0.08397467
39	0xbe02e26c	-0.12781686
40	0x3cdb9d32	0.026808355
41	0x3d7d032a	0.061770596
42	0xbd6fa3c6	-0.058505796
43	0xb9d7096f	-0.00041015024
44	0x3e23b8aa	0.15988412
45	0xbe087fc6	-0.13329992
46	0x3dede404	0.11615756
47	0xbd9c35fd	-0.07627485
48	0x3cb69121	0.022286
49	0xbdb1fc47	-0.08690696
50	0x3da135f7	0.07871621
51	0xbdfb2c39	-0.12264294
52	0x3d2a8e19	0.04163942
53	0x3d88652a	0.066599205
54	0xbd4d7a8a	-0.05016569
55	0xbdcb3277	-0.09921735
56	0x3d9fd959	0.07805128
57	0xbdeddd62	-0.11614491
58	0x3da81fe7	0.0820921
59	0x3de43bc4	0.11144212
60	0x3dfabe70	0.12243354
61	0x3dec2d2f	0.115320556
62	0x3d37546b	0.04475824
63	0xbcbdb77b	-0.02315878
64	0xbd2bb2ec	-0.04191868
65	0x3c5a5786	0.013326531
66	0x3aa9f8fc	0.001296788
67	0x3d8766a6	0.066113755
68	0x3e281215	0.16413148
69	0xbdd2ef54	-0.102995545
70	0xbc83b632	-0.016078088
71	0xbddb0acf	-0.10695421
72	0x3d9392a9	0.072057076
73	0x3dbc1e86	0.091855094
74	0x3df1c8b0	0.11805856
75	0x3d99df9a	0.07513352
76	0xbcf41d89	-0.02979924
77	0x3e1dfa0d	0.15427418
78	0xbd93cd4c	-0.07216892
79	0xbdb77526	-0.08957891
80	0x3dc432b8	0.09579986
81	0x3cf37940	0.029720902
82	0x3aba562e	0.0014216357
83	0x3da104d1	0.07862247
84	0xbb58748a	-0.0033028447
85	0xbbf0adb6	-0.0073449267
86	0x3d9ce189	0.07660205
87	0xbd61e5a0	-0.055150628
88	0xbd7e9486	-0.06215336
89	0x3db5af58	0.08871335
90	0x3e23584d	0.15951653
91	0xbd484dae	-0.048902206
92	0xba4c3f9c	-0.0007791461
93	0x3d2d91e6	0.042375468
94	0x3e17427e	0.14771459
95	0x3d504509	0.050847087
96	0xbcf2f272	-0.029656623
97	0xbd5423c1	-0.05179191
98	0x3c284ebc	0.010272678
99	0xbd10e690	-0.03537613
100	0x3e05be43	0.1306086
101	0xbdd103d6	-0.1020581
102	0xbd903986	-0.07042222
103	0xbdacbe92	-0.08434786
104	0x3c062cb3	0.008189368
105	0x3d2634b3	0.0405776
106	0xbd8b5952	-0.06804146
107	0xbdb46467	-0.08808213
108	0x3e12c1d9	0.1433176
109	0xbdfc4b28	-0.123190224
110	0xbdb51234	-0.088413626
111	0xbdbaf399	-0.09128494
112	0x3d524ded	0.051343847
113	0x3d968c23	0.07350948
114	0x3cbbe2cd	0.022935295
115	0xbe1580cb	-0.14599912
116	0xbc78d703	-0.015187982
117	0x3dae99d7	0.08525436
118	0x3c98b4af	0.018640844
119	0x3d90e0a1	0.070740946
120	0x3d8287ef	0.063735835
121	0xbda2a3dd	-0.07941411
122	0x3cd8e387	0.026475681
123	0x3dcffdd0	0.10155833
124	0xbd25ade9	-0.040449057
125	0xbd0c9a2a	-0.03432671
126	0x3e1e227a	0.1544284
127	0xbe029e87	-0.12755786
128	0x3e1b249b	0.15150683
129	0xbda5c766	-0.08094673
130	0xbdd71a79	-0.10503096
131	0x3bcca9ae	0.0062458133
132	0x3d4af5f1	0.049550954
133	0xbda08331	-0.07837523
134	0x3e0088b6	0.12552151
135	0xbded7b27	-0.11595755
136	0xbc848bb9	-0.016179906
137	0x3d2bf6a2	0.041983254
138	0x3dbc2438	0.09186596
139	0x3ddc8a58	0.107685745
140	0x3e066532	0.1312454
141	0xbe01ff2e	-0.12695
142	0x3c412bdc	0.011790242
143	0xbcdbf395	-0.026849547
144	0xbdbcb438	-0.092140615
145	0xbcc09e6f	-0.023513047
146	0x3c8011d2	0.015633497
147	0x3ccf6a9f	0.025319396
148	0x3d1081a4	0.035279885
149	0xbdd1043f	-0.10205888
150	0xbd94cb91	-0.0726539
151	0xbd8db156	-0.0691859
152	0x3b7e9f92	0.0038852436
153	0x3d879f5c	0.06622192
154	0xbc97e70e	-0.018542793
155	0x3d4f31c2	0.050584562
156	0x3dc76d08	0.09737593
157	0x3de16257	0.11005085
158	0x3da9917a	0.082797006
159	0xbcf83f65	-0.030303666
160	0xbd3e5123	-0.046464097
161	0xbe0578a9	-0.1303431
162	0xbe125932	-0.14291838
163	0x3cd5dce6	0.02610631
164	0x3df5d879	0.120041795
165	0xbc8a3d87	-0.016875042
166	0x3d402ee6	0.046919726
167	0xbd61ed4b	-0.05515794
168	0x3d6045cb	0.05475406
169	0x3d981c13	0.0742723
170	0x3e19c69f	0.15017174
171	0xbca5c588	-0.020235792
172	0xbd56edd5	-0.052472908
173	0xbdd7f982	-0.10545637
174	0x3dba0275	0.090825
175	0x3db6ba65	0.08922271
176	0xbd79fbd5	-0.06103118
177	0xbe0e32ad	-0.13886519
178	0x3db91426	0.09037046
179	0xbdb510ad	-0.08841071
180	0x3bcf5191	0.006326862
181	0x3d94fd16	0.07274835
182	0x3d83dd0f	0.06438648
183	0x3dbf519a	0.09341736
184	0x3e072cf3	0.1320074
185	0xbe080a9d	-0.13285299
186	0x3e05725c	0.13031906
187	0xbdd92ca8	-0.10604221
188	0xbbbde616	-0.0057952506
189	0x3b6f4f62	0.0036515822
190	0x3d917404	0.07102206
191	0xbe064cf6	-0.13115296
192	0x3e412131	0.18860318
193	0xbd2a2958	-0.041543335
194	0x3ca97f1d	0.020690495
195	0xbd57fe20	-0.052732587
196	0x3dc988da	0.098405555
197	0xbdcd1db4	-0.10015431
198	0xbd18b1ee	-0.037279062
199	0xbd0dbfa3	-0.034606587
200	0x3daeaaf2	0.08528699
201	0x3e252553	0.1612752
202	0x3d74d27a	0.05977104
203	0x3db59db5	0.08867971
204	0xbdf1b58d	-0.11802206
205	0x3c4db39e	0.012555031
206	0xbd386da7	-0.045026448
207	0xbd23ca99	-0.039988134
208	0xbc88644d	-0.01664939
209	0xbc894503	-0.01675654
210	0x3ce3bbf7	0.02779959
211	0xbd5da596	-0.054112993
212	0x3d78eaa8	0.06077066
213	0x3d88b7bd	0.0667567
214	0xbc328965	-0.010897015
215	0xbc485175	-0.012226452
216	0xbb858292	-0.004074403
217	0x3d801f3a	0.06255956
218	0x3d0d97c8	0.034568578
219	0xbb4f2763	-0.003160917
220	0x3e1bb273	0.15204792
221	0xbd14ed36	-0.036359034
222	0x3db90b08	0.09035307
223	0xbd0bec80	-0.03416109
224	0xbc3cb9af	-0.01151888
225	0xbd0cbfc4	-0.03436257
226	0xbd107a83	-0.035273086
227	0xbd337439	-0.04381201
228	0xbd49ff18	-0.049315542
229	0x3da94d6a	0.08266719
230	0xbd9c67f7	-0.07637017
231	0x3c3ca041	0.011512817
232	0x3dd727d7	0.10505646
233	0x3dcdfc75	0.10057918
234	0x3c72578c	0.014791381
235	0xbdbfd01d	-0.09365866
236	0x3d7765b6	0.060399733
237	0xbd796ee3	-0.060896765
238	0x3db0b0b6	0.08627455
239	0xbda458fc	-0.08024785
240	0xbd5eb23a	-0.05436919
241	0xbdab99b4	-0.08378926
242	0x3deb87b2	0.11500491
243	0x3c30b45e	0.01078519
244	0x3dcd24fd	0.100168206
245	0x3d8c3acd	0.06847153
246	0x3c68d22a	0.014210263
247	0x3d9572bb	0.07297274
248	0x3cf0d09f	0.029396353
249	0x3ccc0004	0.024902351
250	0x3df4102a	0.119171456
251	0xbdafe1af	-0.085879676
252	0xbca3ee5a	-0.020011116
253	0x3ca5d809	0.020244615
254	0x3db7666f	0.089550845
255	0x3db7e20d	0.08978663

lstm.weight_hh_l0 f4 [256, 64]
0	0x3cb85b64	0.022504516
1	0x3d07b19e	0.033128373
2	0xbd6d803f	-0.057983633
3	0xbdbb887a	-0.0915689
4	0xbc250868	-0.010072805
5	0x3da2fc05	0.07958225
6	0x3dc26e7e	0.09493731
7	0xbdb36a77	-0.08760541
8	0xbdb5a712	-0.08869757
9	0x3e060fa4	0.13091904
10	0x3e024b0d	0.12723942
11	0x3cc4f84d	0.02404418
12	0xbdacee82	-0.08443929
13	0x3d9bd05d	0.076081015
14	0xbc76ccf1	-0.01506351
15	0x3e0798c8	0.13241875
16	0xbd70a6d3	-0.058752846
17	0x3d519479	0.051166985
18	0x3bc35394	0.005960891
19	0x3d7578df	0.059929725
20	0x3e06e702	0.1317406
21	0xbdd9f7fb	-0.10643002
22	0xbc09aa2f	-0.008402391
23	0x3e1d1ea8	0.15343726
24	0xbcb29832	-0.021801088
25	0xbc2764d4	-0.01021691
26	0x3df2e2e5	0.11859683
27	0xbdc41c18	-0.09575671
28	0xbd164f1b	-0.036696535
29	0x3d889177	0.0666837
30	0x3dc07faa	0.0939935
31	0xbd809e2e	-0.062801704
32	0x3d4f0e49	0.050550733
33	0x3db22e92	0.08700289
34	0x3e006505	0.12538536
35	0xbcc00c4b	-0.023443362
36	0xbdd2a3a6	-0.1028512
37	0x3d702aa9	0.058634434
38	0xbe03f313	-0.12885694
39	0xbd1ec446	-0.0387614
40	0xbe078f7c	-0.13238329
41	0x3d3061e2	0.0430621
42	0x3d99739e	0.07492755
43	0xbd8f4c67	-0.069969945
44	0xbda1faa6	-0.079091355
45	0xbe08ca7c	-0.13358492
46	0xbd872eb6	-0.06600706
47	0x3dbfa01f	0.093567125
48	0xb856439a	-5.1084535e-05
49	0xbd95c459	-0.07312841
50	0x3dfedf2c	0.124449104
51	0x3dffa120	0.12481904
52	0xbc9de6b9	-0.019275056
53	0xbda3602f	-0.0797733
54	0xbdba19c0	-0.09086943
55	0x3e0f0687	0.13967334
56	0xbe10489f	-0.14090203
57	0x3d44c70d	0.048041392
58	0xbc747137	-0.014919571
59	0x3dfb8cd2	0.12282719
60	0xbbde797c	-0.0067893844
61	0x3e02747d	0.12739749
62	0xbc4ec1e6	-0.012619471
63	0x3b9a2e44	0.0047052223
64	0xbe17d7c0	-0.14828396
65	0x3df23989	0.1182738
66	0x3d924963	0.07142904
67	0xbd4f98cd	-0.05068283
68	0xbc9d3d03	-0.019194132
69	0x3da857f3	0.082199
70	0xbe07c982	-0.13260463
71	0xbe13b3b9	-0.14424028
72	0x3ddf4145	0.10901121
73	0xbd4fa69a	-0.050695993
74	0xbdaf9913	-0.085741185
75	0xbd346cb2	-0.044048972
76	0x3d655348	0.055987626
77	0xbced0ff8	-0.028938279
78	0x3e248771	0.16067292
79	0xbcb4af72	-0.022056315
80	0x3d3ee36a	0.046603598
81	0x3d88d9c1	0.06682158
82	0x3d082e84	0.033247486
83	0xbddf96b1	-0.10917414
84	0xbe13df29	-0.14440598
85	0xbe10cfee	-0.14141819
86	0xbd1d7f2b	-0.038451355
87	0xbdf18fdd	-0.11795018
88	0xbe0502bd	-0.12989326
89	0x3dd802fe	0.10547446
90	0xbdcb019a	-0.09912415
91	0x3d74b800	0.05974579
92	0x3d87f2be	0.06638096
93	0x3bb62303	0.005558373
94	0xbb513333	-0.0031921386
95	0x3d9bf9fe	0.076160416
96	0xbcc6efa2	-0.024284188
97	0x3d965a78	0.07341474
98	0xbdd0c319	-0.10193462
99	0xbdc95f16	-0.09832589
100	0xbd319e9b	-0.04336415
101	0x3d597277	0.053087678
102	0x3dd04bc1	0.10170699
103	0xbd4cdb25	-0.05001368
104	0xbc66fee9	-0.014098861
105	0x3d910628	0.07081252
106	0xbdab6522	-0.08368899
107	0x3dd24e6c	0.10268864
108	0xbc3a8bd3	-0.011385876
109	0x3de84d2d	0.11342845
110	0x3df09b09	0.117483206
111	0xbdd7eac2	-0.105428234
112	0xbd98c6c0	-0.074597836
113	0xbe2ea40a	-0.17054763
114	0xbe0fae59	-0.14031352
115	0xbdf99d1c	-0.12188169
116	0x3e137181	0.14398767
117	0x3d522ec4	0.05131413
118	0xbc90a2ed	-0.017655814
119	0xbd8cd641	-0.06876803
120	0x3dae292e	0.08503948
121	0xbe06ccab	-0.13164012
122	0x3dc8fa78	0.09813398
123	0xbd67a8d4	-0.05655749
124	0xbc9db27e	-0.01925015
125	0xbde8479d	-0.11341784
126	0x3d900f34	0.0703415
127	0xbc8cd793	-0.017192638
128	0xbcf49c52	-0.029859696
129	0x3d466812	0.048439093
130	0x3d49cec0	0.049269438
131	0xbcf7254f	-0.030169157
132	0xbc8d0038	-0.017212018
133	0x3d0c4f5e	0.034255378
134	0x3ce984d7	0.028505726
135	0x3d164896	0.036690317
136	0xbd8ac41e	-0.06775688
137	0x3ddb60ab	0.10711797
138	0xbd2a6662	-0.041601546
139	0xbd9c75c7	-0.07639652
140	0xbd911018	-0.07083148
141	0x3cd59e5d	0.02607649
142	0xbca138f4	-0.019680478
143	0xbd5c7669	-0.053823862
144	0x3d96b617	0.0735895
145	0x3d3362cd	0.043795396
146	0x3d1cb58c	0.038259074
147	0x3c1eb6ef	0.009687169
148	0x3dd1a7fb	0.10237118
149	0xbc432232	-0.011910008
150	0x3e20740b	0.15669267
151	0x3d05d2cd	0.03267174
152	0x3d9595c5	0.07303957
153	0x3d6a42f5	0.05719276
154	0xbb91e905	-0.004452827
155	0xbdf5ee13	-0.120083
156	0x3dbb844d	0.09156094
157	0x3c5ec0c8	0.013595767
158	0x3dd9bd0e	0.106317624
159	0x3e1d4bd9	0.15360965
160	0x3d4d562e	0.050131015
161	0xbd45b581	-0.0482688
162	0x3d897dc2	0.067134395
163	0xbd97c818	-0.07411212
164	0xbdc79256	-0.09744708
165	0x3df2510a	0.11831863
166	0x3d26ec1b	0.04075251
167	0x3d04c0bb	0.032410365
168	0xbc906240	-0.017624974
169	0x3da5973d	0.08085487
170	0xbd356324	-0.044284
171	0xbe1d3eb0	-0.15355945
172	0xbdc769e6	-0.097369954
173	0xbdc77fc4	-0.09741166
174	0xbd006216	-0.031343542
175	0x3dabcf5a	0.083891585
176	0x3d53f624	0.05174841
177	0x3cf7cf66	0.030250262
178	0x3d8d7955	0.06907908
179	0x3e1a6adb	0.15079825
180	0x3da0b079	0.078461595
181	0xbcb915a6	-0.02259333
182	0x3d82f95e	0.06395219
183	0x3d14b669	0.036306772
184	0xbdfecb11	-0.124410756
185	0x3d9151fa	0.07095714
186	0xbe11c17a	-0.14233962
187	0xbcdcd129	-0.026955204
188	0x3d2be623	0.041967522
189	0x3d9dc451	0.0770346
190	0x3de788f6	0.1130542
191	0x3de5bd32	0.11217727
192	0x3af6b9d2	0.0018823689
193	0x3c2f7d44	0.010711018
194	0x3b967801	0.0045919423
195	0xbd1e1c2a	-0.038601078
196	0x3d2a0009	0.04150394
197	0x3dc82add	0.097738005
198	0x3cc50b59	0.024053263
199	0x3dce4c11	0.10073102
200	0x3d437aab	0.047724407
201	0x3d60dde5	0.054899115
202	0x3dce61d7	0.10077255
203	0xbcb26405	-0.021776209
204	0xbdae96eb	-0.08524879
205	0x3d7be7e4	0.061500445
206	0xbdf026bf	-0.1172614
207	0x3cc8ce51	0.024512442
208	0x3d8c0f54	0.06838861
209	0xbbe98f94	-0.0071277115
210	0xbdd27896	-0.10276906
211	0xbdd62c2d	-0.104576446
212	0xbdd1aa48	-0.10237557
213	0xbdca8f38	-0.09890598
214	0x3d9b7359	0.0759036
215	0x3dc78e2a	0.097439125
216	0xbd0ead48	-0.034833223
217	0xbd4dc427	-0.050235894
218	0x3ca1528f	0.019692687
219	0x3d8c3068	0.0684517
220	0x3dc37b0e	0.09544955
221	0x3cc1c20c	0.0236521
222	0xbac9b18c	-0.0015387996
223	0x3d12581e	0.035728566
224	0xbd1d1a4d	-0.03835516
225	0xbce4e7e6	-0.027942609
226	0x3d3b1dc6	0.04568269
227	0xbb8691ac	-0.004106721
228	0xbe0a352a	-0.13496843
229	0x3deff3cd	0.11716423
230	0x3d1c6e81	0.038191322
231	0x3be55763	0.0069989427
232	0xbc0d76fe	-0.008634327
233	0xbe04a804	-0.12954718
234	0x3dc71a16	0.097217724
235	0x3d65a71c	0.05606757
236	0xbd190162	-0.037354834
237	0x3c837696	0.016047757
238	0xbdb8ea39	-0.090290494
239	0xbd795130	-0.060868442
240	0xbb54ae8f	-0.0032452678
241	0xbd636925	-0.055520196
242	0x3c4bdd01	0.012442828
243	0x3c32813d	0.010895071
244	0xbdeeb354	-0.11655298
245	0xbcbaa829	-0.022785263
246	0x3dc1a9ae	0.09456192
247	0x3d29e732	0.04148025
248	0xbd7fd963	-0.062463176
249	0xbc12b938	-0.008955292
250	0xbde370b8	-0.11105484
251	0x3d0f8ddf	0.03504741
252	0x3dbf2787	0.09333711
253	0x3b7f83d3	0.0038988485
254	0xbd567b25	-0.052363534
255	0x3d936cea	0.07198508

lstm.bias_ih_l0 f4 [256]
0	0x3db15086	0.08657937
1	0xbdef7582	-0.11692335
2	0xbdb1332e	-0.0865234
3	0x3c3d8444	0.011567179
4	0x3cd50c48	0.026006833
5	0x3c1a2458	0.009408079
6	0x3d3db116	0.04631146
7	0xbdd5a854	-0.10432497
8	0xbd3f7f11	-0.04675204
9	0xbd513bce	-0.051082425
10	0xbd316991	-0.043313567
11	0xbdfd7d0c	-0.123773664
12	0xbda23126	-0.079195306
13	0xbd9bc83f	-0.07606553
14	0x3c1beee1	0.009517402
15	0xbd2be8cf	-0.04197007
16	0xbded2ae7	-0.115804486
17	0x3dbc2f67	0.09188729
18	0x3d8d3cf8	0.068963945
19	0xbc4b796b	-0.012419085
20	0xbd144800	-0.036201477
21	0x3d87f54e	0.06638585
22	0x3d56baca	0.05242423
23	0xbd2f765b	-0.042837482
24	0x3dfa52bb	0.12222811
25	0x3cbf60ac	0.023361526
26	0x3d66a7be	0.056312315
27	0xbd2d08b8	-0.042244643
28	0x3d60ee3b	0.054914694
29	0xbdc8569c	-0.097821444
30	0x3cccc0ad	0.024994219
31	0x3d263cce	0.04058533
32	0x3dfc3c82	0.123162284
33	0x3d68bfbf	0.05682349
34	0xbd1a85b9	-0.037725184
35	0xbd69b7b7	-0.05705997
36	0x3de88849	0.11354119
37	0x3c9486e0	0.01813072
38	0x3d6170b8	0.055039138
39	0x3d760b12	0.06006915
40	0xbd829e94	-0.063779026
41	0xbbf25f66	-0.0073966263
42	0xbcf17a16	-0.02947716
43	0x3dffe4dd	0.12494824
44	0x3e0918c1	0.13388349
45	0xbcf2cd7a	-0.029638994
46	0xbd4251da	-0.04744134
47	0xbdea8f1b	-0.114530765
48	0x3db8a8d0	0.090165734
49	0xbc1750ba	-0.009235555
50	0x3de5e517	0.11225336
51	0xbdc20736	-0.094740316
52	0x3d5e211e	0.0542308
53	0xbe03cb50	-0.12870526
54	0x3cd610c5	0.026131043
55	0xbdd52eb0	-0.104092956
56	0x3cf22792	0.029559884
57	0xbd5203ec	-0.05127327
58	0x3e098b60	0.13432074
59	0xbd0c9669	-0.03432313
60	0x3d747d09	0.059689555
61	0x3d7269f1	0.059183065
62	0xbc986e2e	-0.018607225
63	0xbda52c00	-0.08065033
64	0xbcb77d27	-0.022398544
65	0xbde9ff1f	-0.114256136
66	0xbda919d8	-0.082568824
67	0xbd924601	-0.071422584
68	0x3d0b3b0f	0.03399187
69	0xbd1e57db	-0.038658004
70	0x3dd4f97b	0.10399147
71	0x3cd9300b	0.026512166
72	0x3cb0ba7d	0.0215733
73	0x3e2e8564	0.17043072
74	0xbd65f622	-0.056142934
75	0xbdc64ff9	-0.09683222
76	0x3d8bb0ce	0.06820832
77	0x3cfb5976	0.030682307
78	0xbd5c16eb	-0.053732794
79	0x3ca1b08e	0.019737508
80	0xbc31ec16	-0.01085951
81	0xbda8785e	-0.08226083
82	0xbc8a479c	-0.01687985
83	0x39556baa	0.00020353371
84	0xbc6d8600	-0.01449728
85	0x3e0b9d3a	0.13634196
86	0xbd03a5c6	-0.032140516
87	0x3e084dba	0.133109
88	0xbd7f42c2	-0.062319525
89	0x3ded60ec	0.11590752
90	0x3d6c032c	0.057620212
91	0xbde6656a	-0.11249812
92	0xbd7dfce5	-0.062008757
93	0xbdbc6da2	-0.09200598
94	0x3c8194cd	0.015818024
95	0xbdb42418	-0.08795947
96	0x3cb8cabb	0.022557607
97	0xbcb4232d	-0.02198943
98	0xbb9e8643	-0.0048377826
99	0x3ddf8ebc	0.10915896
100	0x3d304f34	0.043044284
101	0x3e02fd48	0.12791932
102	0x3e27cb04	0.16386038
103	0xbc78f11a	-0.015194202
104	0xbd46e503	-0.048558246
105	0xbdd6baf9	-0.10484881
106	0xbd0d27bf	-0.034461733
107	0x3d0baf52	0.034102745
108	0x3e05c6c4	0.13064104
109	0x3e0e38bf	0.13888834
110	0x3d448eba	0.047987677
111	0x3d3938c2	0.045220144
112	0x3d6afc1b	0.057369333
113	0x3e1c8512	0.15285137
114	0x3daab5c0	0.08335447
115	0x3d664f2a	0.05622784
116	0x3e0013eb	0.12507598
117	0xbd8fd711	-0.070234425
118	0xbda8773a	-0.08225866
119	0xbdad376d	-0.08457837
120	0x3d7da3be	0.061923735
121	0xbdcf8d66	-0.101343915
122	0x3d38f7d9	0.04515824
123	0x3d91776d	0.07102857
124	0x3d9e60ee	0.077333316
125	0xb9819455	-0.00024715313
126	0x3d87214e	0.06598149
127	0xbd7255e0	-0.059163928
128	0xbd77ac34	-0.06046696
129	0xbd4f6170	-0.050630033
130	0x3db9f813	0.090805195
131	0xbda3f8a7	-0.08006411
132	0xbdfa9391	-0.12235177
133	0xbd4020ff	-0.046906468
134	0x3d816e94	0.06319919
135	0xbc332322	-0.010933669
136	0x3d7917f7	0.06081387
137	0xbdf5a4c8	-0.1199432
138	0x3d18047a	0.037113644
139	0x3bb87b1a	0.005629909
140	0xbd138471	-0.036014978
141	0xbddb73e7	-0.10715466
142	0xbd9ffe22	-0.07812144
143	0x3d964a39	0.073383756
144	0xbd52970f	-0.051413592
145	0x3d5ae7ea	0.053443827
146	0xbbf8e101	-0.007595182
147	0x3df34532	0.11878432
148	0x3c725375	0.0147904055
149	0x3e0242b3	0.12720756
150	0x3ddc41d8	0.10754746
151	0x3d4017b8	0.04689762
152	0x3dd42e4e	0.103603944
153	0xbd94c13e	-0.072634205
154	0x3d8960c2	0.06707908
155	0xbbbc17c5	-0.0057401382
156	0xbdddedf1	-0.10836399
157	0xbcd3a9c1	-0.02583778
158	0x3dbc8e95	0.09206883
159	0x3db50796	0.088393375
160	0xbd46bc82	-0.04851962
161	0x3da8058f	0.08204185
162	0x3df8dc80	0.12151432
163	0x3d52c517	0.05145749
164	0xbd173d02	-0.036923416
165	0x3d3d8583	0.046269905
166	0x3dec9f7f	0.11553859
167	0xbdc57b81	-0.09642697
168	0xbddc8fdc	-0.107696265
169	0x3db08f36	0.08621065
170	0x3dab0c8a	0.08352001
171	0x3d72927f	0.05922174
172	0xbd10608e	-0.03524833
173	0xbe077e73	-0.1323183
174	0xbda5ac85	-0.08089546
175	0x3d9aeb38	0.07564396
176	0x3ddadec2	0.10687019
177	0xbd98c5bb	-0.07459589
178	0xbcb17272	-0.021661017
179	0x3d8cc552	0.06873573
180	0x3d2ab4c9	0.041676316
181	0x3c7110a3	0.014713439
182	0xbd903ff4	-0.07043448
183	0x3ccd98b4	0.025097229
184	0xbdbcae61	-0.09212948
185	0x3b2ce837	0.0026383528
186	0xbb8280df	-0.003982648
187	0x3ddfd034	0.109283835
188	0xbc2ee0db	-0.010673727
189	0xbd73b3ca	-0.059497632
190	0xbd7f110a	-0.06227211
191	0x3dc502ad	0.09619651
192	0xbdb6a483	-0.08918097
193	0xbd89b68d	-0.06724272
194	0xbcaceb0a	-0.02110817
195	0xbdcd8e40	-0.10036898
196	0xbdbe512c	-0.09292826
197	0xbd889824	-0.066696435
198	0xbdd52fe2	-0.104095235
199	0xbde00ae5	-0.10939578
200	0x3dc41642	0.09574558
201	0x3df26c8f	0.11837112
202	0x3d33b70a	0.04387573
203	0xbda04a41	-0.07826663
204	0xbd46c740	-0.048529863
205	0xbbd047e2	-0.0063562253
206	0xbd2e7817	-0.042594995
207	0xbc3ba273	-0.011452305
208	0xbd79854e	-0.060918145
209	0x3dd371de	0.10324453
210	0xbdd2d3d8	-0.10294312
211	0x3da2a1b7	0.07941001
212	0x3b1ef350	0.0024253912
213	0xbd77e838	-0.060524195
214	0xbd452d21	-0.04813874
215	0x3d21443e	0.03937172
216	0x3c9e2a21	0.019307198
217	0x3df4e886	0.11958413
218	0x3d876781	0.06611539
219	0xbc796098	-0.015220784
220	0xbce7ca50	-0.028294712
221	0x3dc7fbe7	0.097648434
222	0x3dee2fce	0.11630212
223	0x3ddbffdf	0.10742163
224	0xbdc7c9ed	-0.09755311
225	0x3d20e5c4	0.03928162
226	0xbb1ea3d0	-0.0024206527
227	0x3d8ae59a	0.06782074
228	0x3d885b82	0.06658079
229	0xbc519620	-0.01279214
230	0xbcfba061	-0.030716123
231	0xbdaeeb15	-0.08540932
232	0x3d3e324a	0.046434678
233	0x3d407f91	0.046996657
234	0x3ce70de5	0.028204868
235	0xbda55e58	-0.08074635
236	0xbd85ed28	-0.065393746
237	0x3d9ae26f	0.0756272
238	0xbcc6f320	-0.024285853
239	0x3c478a76	0.012179008
240	0x3d2de82d	0.04245775
241	0xbcf92753	-0.030414259
242	0xbd582928	-0.052773625
243	0x3c6a0043	0.014282289
244	0x3d93fc9e	0.07225917
245	0xbdd25420	-0.10269952
246	0x3c996782	0.018726114
247	0xbdf7c524	-0.120981485
248	0x3e1567c7	0.14590369
249	0x3d80dce8	0.062921345
250	0xbd3cd793	-0.046104025
251	0xbca58af0	-0.020207852
252	0x3c6c8788	0.01443661
253	0x3e0aa8a9	0.13540901
254	0x3a76f6ce	0.0009420932
255	0xbbbcf17e	-0.005766093

lstm.bias_hh_l0 f4 [256]
0	0x3c3a8d86	0.011386281
1	0xbe009652	-0.12557343
2	0xbc2a2f0c	-0.010387193
3	0x3d674dd2	0.0564707
4	0x3c29c574	0.010362018
5	0xbd36b130	-0.044602573
6	0x3dbb91fd	0.091587044
7	0x3d61219d	0.054963697
8	0xbcb4b3a5	-0.022058317
9	0xbc8f19b1	-0.017468305
10	0x3cd77195	0.026299277
11	0xbd80be94	-0.0628635
12	0x3d99dbc0	0.07512617
13	0x3e14f55a	0.14546719
14	0x3d30672f	0.043067154
15	0xbc313372	-0.010815488
16	0xbbe55ed4	-0.00699983
17	0xbc9c87bb	-0.01910769
18	0x3d90ac31	0.07064093
19	0x3d99a803	0.07502749
20	0x3ded71e8	0.115939915
21	0xbc60526b	-0.013691525
22	0xbd01b125	-0.03166308
23	0x3de88d6b	0.11355098
24	0x3ddb4a13	0.10707488
25	0xbd677f07	-0.056517627
26	0x3d9f99e6	0.07793026
27	0xbdd28cd3	-0.10280766
28	0xbd4b9fe6	-0.049713038
29	0xbdd6979c	-0.10478136
30	0xbcbb58b5	-0.022869447
31	0xbcce1d6a	-0.02516051
32	0xbcb76289	-0.022385852
33	0xbd89310c	-0.06698808
34	0x3bb3ac3a	0.0054831775
35	0x3dfe8722	0.12428118
36	0xbd40bb62	-0.047053702
37	0xbd582f60	-0.052779555
38	0x3ce42f87	0.027854694
39	0x3d81debe	0.06341313
40	0xbcfd7a50	-0.030942112
41	0x3d2eecdf	0.042706367
42	0xbbab7ca0	-0.0052333623
43	0x3ddc51d4	0.10757795
44	0x37aa13f2	2.0274867e-05
45	0xbd31b25b	-0.043382984
46	0x3dfd2d91	0.12362207
47	0x3d085f13	0.033293795
48	0xbbf034e8	-0.0073305257
49	0x3dc4e3a5	0.09613732
50	0x3e0465a7	0.12929402
51	0xbdb8e24c	-0.09027538
52	0x3d6b8f72	0.057509847
53	0xbe0bb2c6	-0.13642415
54	0x3b2db5e9	0.0026506132
55	0x3c857f5e	0.016296085
56	0x3b1a0f5d	0.0023507692
57	0xbdac6801	-0.08418275
58	0xbdd5d361	-0.10440708
59	0x3b208b1a	0.0024496973
60	0x3e0c9013	0.13726835
61	0x3dfc475a	0.12318297
62	0xbd7e839c	-0.06213723
63	0x3dcdc290	0.100468755
64	0xbd8b4231	-0.067997344
65	0x3d22eb78	0.03977534
66	0x3e189c92	0.14903477
67	0xbce53a0d	-0.027981782
68	0x3d87e7c2	0.06636001
69	0x3dc9911e	0.09842132
70	0xbdba9d19	-0.09111995
71	0x3dfc85c3	0.123302005
72	0x3c92c3bf	0.017915605
73	0x3d99c3d9	0.07508058
74	0xbd896827	-0.067093186
75	0xbde7ba5f	-0.11314844
76	0x3de5c56a	0.11219294
77	0xbd9cd225	-0.076572694
78	0x3b243cb2	0.0025060591
79	0xbd68213c	-0.05667232
80	0x3d28d064	0.04121436
81	0x3dacd18c	0.084384054
82	0x3d5573df	0.052112456
83	0x3b895cd5	0.0041919746
84	0x3de9ae5c	0.114102095
85	0x3dedca09	0.11610801
86	0xbd86c19d	-0.065798976
87	0xbd88603d	-0.06658981
88	0xbbb4cd71	-0.0055176546
89	0xbbb82ad3	-0.0056203394
90	0x3baa932d	0.005205533
91	0xbd901524	-0.07035282
92	0x3dc24374	0.09485522
93	0xbd25a25e	-0.04043805
94	0xbcd31684	-0.025767572
95	0x3d8541df	0.065067045
96	0xbdc2bb64	-0.09508398
97	0x3cc2e87f	0.023792503
98	0xbcda2d64	-0.026632972
99	0xbdcf9c24	-0.10137203
100	0xbd00897c	-0.031381115
101	0xbd6934e0	-0.05693519
102	0x3c21ffa1	0.009887607
103	0xbce6127e	-0.02808499
104	0x3ca9e0d5	0.020737091
105	0xbc9472b2	-0.018121097
106	0x3e0d8f08	0.13824093
107	0xbcfd8470	-0.03094694
108	0xbda42a4c	-0.0801588
109	0x3d9b1a1b	0.075733386
110	0xbc28cead	-0.010303182
111	0xbdab4396	-0.083625
112	0xbd5571e1	-0.052110557
113	0x3d3fcec3	0.046828043
114	0xbd2bc903	-0.041939747
115	0xbc7cc79f	-0.015428453
116	0x3e13a23b	0.14417355
117	0x3d144159	0.036195133
118	0x3dc62d4c	0.096766084
119	0x3dabf22b	0.08395799
120	0xbd884f80	-0.066557884
121	0x3de577d8	0.11204499
122	0x3e0f9d94	0.14024955
123	0x3dcece35	0.100979246
124	0x3d98ad28	0.07454902
125	0xb8022294	-3.102662e-05
126	0x3dcb0dea	0.09914763
127	0x3c4aefc2	0.012386264
128	0x3d18cf00	0.037306786
129	0xbd9d53bd	-0.076819874
130	0xbdca2a95	-0.09871403
131	0x3caa8e9b	0.020819953
132	0xbca2b1b1	-0.01986012
133	0xbe008895	-0.12552102
134	0x3dcf7d9a	0.101313785
135	0x3dbf2451	0.09333099
136	0x3da98b6a	0.08278544
137	0x3cb709fa	0.022343624
138	0xbd455ab6	-0.04818221
139	0xbd9b775a	-0.07591124
140	0x3cb18a88	0.021672502
141	0x3d9cd524	0.07657841
142	0xbc48a551	-0.012246446
143	0xbd7013de	-0.058612697
144	0xbc1e5ca2	-0.00966564
145	0xbde565cc	-0.11201057
146	0xbcbbb3b7	-0.022912843
147	0xba9ae50f	-0.0011817532
148	0x3e06231c	0.1309933
149	0xbdcf2255	-0.1011397
150	0x3de4b1ee	0.1116675
151	0xbdd43ff8	-0.103637636
152	0x3dbc04b6	0.09180586
153	0x3c91ad1f	0.017782746
154	0x3d7e2d21	0.062054757
155	0x3cc701b9	0.024292814
156	0xbc101967	-0.008795119
157	0xbda60ea7	-0.081082635
158	0xbd185a7e	-0.037195675
159	0x3d975b16	0.0739042
160	0xbdb3ca97	-0.08778875
161	0xbd1e2e47	-0.038618352
162	0x3dedcf11	0.116117604
163	0x3df49b22	0.11943652
164	0x3dd0f0aa	0.10202153
165	0x3dac9bce	0.08428155
166	0x3db3ba7a	0.08775802
167	0xbd5512cc	-0.05201988
168	0x3d0bebe4	0.03416051
169	0x3d29677f	0.041358467
170	0x3da9f9cc	0.08299598
171	0xbe03b21b	-0.1286091
172	0x3d33ac5d	0.04386555
173	0xbc9afa35	-0.018918136
174	0xbd5f8d4e	-0.054578118
175	0x3da39120	0.07986665
176	0x3dbc8910	0.0920583
177	0x3d8887f7	0.06666558
178	0x3d2e5d84	0.042569652
179	0x3d90d033	0.07070961
180	0xbd22d1c7	-0.03975084
181	0xbdc94b05	-0.09828762
182	0x3b0086af	0.0019611528
183	0x3d11cb68	0.035594374
184	0xbc890331	-0.016725155
185	0xbd9cbe3c	-0.07653472
186	0x3d844d8e	0.06460105
187	0x3d0c6bf0	0.034282625
188	0xbdc269cc	-0.094928354
189	0x3c005995	0.007833858
190	0x3ce344e7	0.027742816
191	0x3d3f6154	0.04672368
192	0x3c97a640	0.018511891
193	0xbe15ebe9	-0.14640774
194	0x3e20c7be	0.15701196
195	0xbd87bcb8	-0.06627792
196	0x3db7ccc6	0.08974604
197	0xbc0db9ce	-0.008650256
198	0x3dbf8a46	0.093525454
199	0x3d042d5b	0.032269817
200	0xbd2cbf2b	-0.0421745
201	0xbd2da6f5	-0.04239555
202	0x3dca330a	0.09873016
203	0x3ca4a4a5	0.02009804
204	0xbcaa4a58	-0.020787403
205	0xbda0d521	-0.07853151
206	0xbd1e92eb	-0.03871433
207	0x3ca5f107	0.020256532
208	0x3c237e56	0.009978851
209	0xbd8e4e08	-0.06948477
210	0xbce0f6d7	-0.027461452
211	0x3dd87836	0.105698034
212	0x3da546ce	0.080701455
213	0xbd2bc4a9	-0.041935597
214	0x3ddf9b0e	0.10918246
215	0xbd4b78fe	-0.049675934
216	0x3d85ec14	0.06539169
217	0xbd44b674	-0.048025563
218	0xbc75d05e	-0.015003292
219	0xbc74de48	-0.014945574
220	0x3d8483e4	0.06470469
221	0x3e0ca4d1	0.13734747
222	0xbd7a64f1	-0.06113142
223	0x3e0b1ccb	0.13585202
224	0xbdc89b65	-0.09795264
225	0x3ddb2da1	0.107020624
226	0xbd034c16	-0.032054983
227	0x3d25238a	0.040317096
228	0xbd7a88da	-0.061165668
229	0x3e05a074	0.1304949
230	0xbd3d3b89	-0.046199355
231	0xbd3ed479	-0.04658935
232	0xbc25b085	-0.010112886
233	0x3c659b14	0.014014024
234	0x3df9d4b7	0.12198775
235	0xbdabbf50	-0.08386099
236	0x3d752f3b	0.059859496
237	0xbd5b9cfc	-0.05361651
238	0xbd9c4912	-0.076311246
239	0x3db358ec	0.08757195
240	0x3d89fd64	0.067377836
241	0xbcfb61bb	-0.03068625
242	0x3dd1eea6	0.10250597
243	0xbbc8d45b	-0.0061288304
244	0xbb451342	-0.0030071293
245	0xbd442fd1	-0.047897164
246	0x3d956cc7	0.07296138
247	0xbde9d414	-0.11417404
248	0x3dad5396	0.084632084
249	0x3ddadb78	0.106863916
250	0xbd6380ed	-0.055542875
251	0xbdcb1399	-0.09915847
252	0xbc80bba2	-0.01571447
253	0x3dd58112	0.10425009
254	0x3e1243d7	0.14283691
255	0xbd8174be	-0.06321095

lstm.weight_ih_l1 f4 [256, 64]
0	0xbd2b86fb	-0.041876774
1	0x3dbb04c1	0.09131766
2	0xbe00a450	-0.1256268
3	0x3e07da31	0.13266827
4	0x3c96d337	0.018411262
5	0x3d8bed7a	0.068324044
6	0x3c875ae0	0.016522825
7	0xbc387273	-0.011257756
8	0x3dd7dbae	0.105399475
9	0x3d69eefc	0.05711268
10	0x3cef7926	0.029232573
11	0x3bc25f33	0.005931759
12	0xbdda849e	-0.10669826
13	0x3d49d93c	0.049279436
14	0xbd0bb760	-0.034110427
15	0xbc8736a3	-0.016505545
16	0x3c5c99d7	0.013464413
17	0xbb81d6a1	-0.0039623533
18	0xbd850f72	-0.064970866
19	0x3c4f515c	0.012653675
20	0x3db6c7b7	0.08924811
21	0x3dade85b	0.08491584
22	0xbcd013df	-0.0254001
23	0xbe06a77a	-0.13149825
24	0xbb6ee5a6	-0.00364528
25	0xbd50fc21	-0.0510217
26	0xbdc20062	-0.09472729
27	0xbdaf2701	-0.08552361
28	0xbd362beb	-0.044475477
29	0x3d1aba08	0.03777507
30	0x3d745bdb	0.059657913
31	0xbd86c5d7	-0.06580704
32	0x3e05a982	0.13052943
33	0x3ddae398	0.10687941
34	0xbd808e59	-0.06277151
35	0x3d94d9a5	0.07268075
36	0x3db6d2ea	0.089269474
37	0xbe0aed20	-0.13567019
38	0x3d410f0e	0.047133498
39	0x3dae6ca3	0.085168146
40	0xbdbe2b5b	-0.09285613
41	0xbdf3923b	-0.118931256
42	0xbc57298c	-0.013132464
43	0x3ddcb596	0.10776822
44	0xbdc49df0	-0.09600437
45	0x3d059775	0.032615144
46	0x3e07a4ac	0.13246411
47	0xbd1f3107	-0.038865115
48	0xbe081165	-0.13287885
49	0x3ba4db0d	0.0050309957
50	0xbd762422	-0.060093053
51	0xbb8bace1	-0.004262552
52	0xbc9b3faf	-0.018951265
53	0x3de85b9c	0.11345598
54	0x3df58fc2	0.1199031
55	0xbc7fa557	-0.015603385
56	0x3da31044	0.07962087
57	0xbd045a87	-0.032312896
58	0x3d7ee8cc	0.06223373
59	0xbda35972	-0.07976045
60	0xbd9ead33	-0.07747879
61	0x3dbb9271	0.09158791
62	0xbdcd6b4e	-0.10030232
63	0xbe0c604e	-0.13708612
64	0x3ce2c203	0.027680403
65	0x3d80fe9a	0.062985614
66	0x3d23069a	0.039801218
67	0x3d3d4e3c	0.04621719
68	0x3db9f4ae	0.09079872
69	0xbd83a6f9	-0.06428332
70	0xbde6e6d7	-0.11274498
71	0x3d370324	0.04468073
72	0xbc192d54	-0.009349186
73	0x3e0280bd	0.12744422
74	0x3d899e4c	0.06719646
75	0x3dba0c0d	0.0908433
76	0x3cde4089	0.027130382
77	0x3cf134f3	0.029444193
78	0x3d643897	0.05571803
79	0xbcf39f1b	-0.029738953
80	0x3dc0aad2	0.094075814
81	0xbdfe0b63	-0.124045156
82	0x3d35ecd4	0.04441531
83	0xbd3ce6f4	-0.04611869
84	0xbdc2caa8	-0.0951131
85	0xbd03378a	-0.032035388
86	0xbd6385d3	-0.055547547
87	0x3e107f60	0.1411109
88	0x3b9db422	0.0048127333
89	0x3d27e988	0.040994197
90	0x3d645aad	0.055750538
91	0x3d0eafe2	0.034835704
92	0x3dc7df3c	0.097593755
93	0xbdf362a9	-0.11884052
94	0x3dd98408	0.10620886
95	0x3d3c6811	0.045997683
96	0xbddaab89	-0.10677249
97	0xbd0a6e1f	-0.033796426
98	0xbdaaa1cd	-0.08331642
99	0xbd802c4b	-0.06258448
100	0xbe3d389e	-0.18478629
101	0x3cfdfaec	0.031003438
102	0xbd0abb6a	-0.03387014
103	0x3c3a0127	0.011352814
104	0x3d477c5f	0.048702594
105	0xbe1783f7	-0.14796434
106	0xbda77abf	-0.08177709
107	0xbc804148	-0.015656129
108	0xbd461deb	-0.048368376
109	0x3cea5adf	0.028607784
110	0xbd27b85a	-0.040947296
111	0x3cb52422	0.022111956
112	0xbd7a69a5	-0.061135907
113	0x3df46079	0.11932463
114	0x3e09389e	0.13400504
115	0xbd8952c2	-0.06705238
116	0xbdda1e91	-0.10650361
117	0x3d88e90d	0.06685076
118	0xbdf91277	-0.12161725
119	0x3de7a614	0.11310974
120	0xbd6fe2d9	-0.05856595
121	0xbd8f4772	-0.06996049
122	0x3c2202fd	0.009888408
123	0x3df07f3d	0.11743019
124	0x3cc30aa4	0.023808785
125	0x3c74a0cf	0.014930918
126	0x3e205e2d	0.15660925
127	0xbd824661	-0.0636108
128	0x3ca87297	0.020562453
129	0xbdaea995	-0.08528439
130	0x3db1b3e0	0.086768866
131	0xbdb05691	-0.08610261
132	0x3ddc0265	0.10742644
133	0xbd5f870c	-0.05457215
134	0x3d84249d	0.06452296
135	0xbcf332a9	-0.029687243
136	0xbda8ace1	-0.08236099
137	0x3e064b2a	0.1311461
138	0x3d05be4c	0.032652184
139	0x3de84b51	0.113424905
140	0x3c634005	0.013870244
141	0xbc9d45f6	-0.019198399
142	0xbda0b417	-0.078468494
143	0xbe004b31	-0.12528683
144	0x3d57292f	0.05252951
145	0xbd3dc020	-0.046325803
146	0x3d99c289	0.07507808
147	0x3d60f983	0.054925453
148	0x3dd0d579	0.10196967
149	0x3df2db6a	0.11858256
150	0x3cab721a	0.020928431
151	0x3e1afdaa	0.15135828
152	0x3de88577	0.113535814
153	0xbd9be447	-0.076119
154	0x3d89dd22	0.06731631
155	0xbdefcb4b	-0.11708697
156	0xbd86c85e	-0.06581186
157	0x3c6cb5b9	0.014447623
158	0xbb6d2a05	-0.0036188376
159	0x3c1c7017	0.009548209
160	0xbdd0f010	-0.10202038
161	0x3dbf6f77	0.09347432
162	0xbdd902df	-0.10596251
163	0x3d9bc2a4	0.07605484
164	0xbe0236d7	-0.12716232
165	0x3d74328e	0.059618525
166	0xbe19c1b1	-0.15015294
167	0x3d94243a	0.07233472
168	0xbda6ac3f	-0.08138322
169	0x3d4a7be4	0.049434558
170	0xbc23783c	-0.009977397
171	0xbbfa11bf	-0.00763151
172	0xbb9703d2	-0.0046086097
173	0x3d90f63d	0.07078216
174	0xbd2a3073	-0.04155011
175	0x3d8c4473	0.06848993
176	0xbdcfa7f6	-0.10139458
177	0x3ca996f8	0.02070187
178	0xbdae9c87	-0.08525949
179	0xbdb8cd32	-0.09023513
180	0x3cbc8e08	0.023016945
181	0x3e037118	0.1283611
182	0xbd1414ee	-0.036152773
183	0xbdc6671c	-0.09687635
184	0xbe11a182	-0.14221767
185	0x3d89f728	0.067365944
186	0xbc032066	-0.00800333
187	0x3e07097a	0.13187209
188	0x3d0f4795	0.034980375
189	0x3b5c0c5d	0.0033576705
190	0x3d95c21c	0.07312414
191	0xbd68f53f	-0.05687451
192	0x3b6dfb66	0.0036313175
193	0xbd697a8f	-0.057001647
194	0xbd678e7d	-0.05653237
195	0x3d5fd349	0.054644857
196	0x3df85231	0.12125052
197	0xbc41896c	-0.011812549
198	0xbd2b7dfc	-0.041868195
199	0x3ddb7e60	0.107174635
200	0x3d8c1e09	0.06841666
201	0xbd5ae1c8	-0.053437978
202	0x3d7145eb	0.05890457
203	0xbd25075a	-0.040290214
204	0xbdd91c2d	-0.10601077
205	0xbcbcdf35	-0.023055652
206	0xbcba2765	-0.022723863
207	0xbd4b9615	-0.049703676
208	0x3d977e6b	0.07397159
209	0x3da907a5	0.08253411
210	0xbcdec9ae	-0.027195778
211	0x3cd2d400	0.025735855
212	0xbdeef889	-0.11668498
213	0x3d49434c	0.049136445
214	0x3d812eb7	0.06307738
215	0x3dc2e315	0.09515969
216	0xbe091566	-0.13387069
217	0x3de88a86	0.11354546
218	0x3be0f00d	0.006864554
219	0x3d993700	0.074811935
220	0x3d08a17c	0.03335713
221	0x3dd1ad9a	0.1023819
222	0xbdf3e272	-0.119084254
223	0xbddb6d80	-0.10714245
224	0xbda9f56e	-0.08298765
225	0x3d086238	0.033296794
226	0x3c9b39b0	0.018948406
227	0xbc3fb886	-0.011701709
228	0x3d35148b	0.044209044
229	0xbd073195	-0.03300627
230	0xbe075b98	-0.13218534
231	0xbcaa2a73	-0.020772194
232	0x3df7d396	0.12100904
233	0xbdf86278	-0.121281564
234	0xbceca8b1	-0.028889032
235	0xbdd98b7c	-0.10622308
236	0x3dbc23c7	0.091865115
237	0xbc696451	-0.014245109
238	0xbdcca4ee	-0.09992395
239	0xbd7b4dd6	-0.061353527
240	0xbdeae499	-0.11469383
241	0x3e01fc67	0.1269394
242	0x3c712808	0.014719017
243	0x3d33bc28	0.04388061
244	0xbdbaffb3	-0.09130802
245	0x3e1416a9	0.14461769
246	0xbde62252	-0.11237015
247	0x3db24c16	0.087059185
248	0xbc9f95d0	-0.019480616
249	0x3dc86f7f	0.09786891
250	0x3da7aa79	0.08186812
251	0x3db280d2	0.08715977
252	0x3dfc2b06	0.123128936
253	0x3d7d81ac	0.061891243
254	0x3c966803	0.018360144
255	0xbdc8f734	-0.09812775

lstm.weight_hh_l1 f4 [256, 64]
0	0x3df6dc51	0.12053741
1	0xbc201645	-0.0097709345
2	0xbdaf0387	-0.08545595
3	0x3cd7eadb	0.026357105
4	0xbd1abded	-0.037778784
5	0x3d1c01e0	0.038087726
6	0x3d97cf57	0.07412594
7	0x3bb70a6e	0.00558596
8	0xbd1afccf	-0.037838753
9	0xbcebb4f4	-0.028772809
10	0x3d884c2b	0.06655153
11	0xbdc06bea	-0.09395583
12	0x3d3429e3	0.04398526
13	0xbd4fd9b7	-0.05074474
14	0x3d62c980	0.055367947
15	0xbd3b291b	-0.045693498
16	0x3d57af14	0.052657202
17	0x3d8ca8c6	0.068681285
18	0xbd8737ef	-0.06602465
19	0xbd077cb7	-0.03307792
20	0xbd206a77	-0.039164033
21	0x3d876926	0.06611852
22	0xbd4b673d	-0.049659003
23	0xbd1fb5a4	-0.038991585
24	0x3dfd7c6f	0.123772494
25	0x3d3622ad	0.044466663
26	0x3c8a9abf	0.016919492
27	0x3b07fcb8	0.0020749997
28	0x3d4614cd	0.04835968
29	0xbdf7175d	-0.12065003
30	0xbd376b1e	-0.04477989
31	0x3d16be97	0.036802854
32	0x3ce0b3c9	0.027429478
33	0x3c7e7a22	0.015532048
34	0xbdb46112	-0.08807577
35	0x3bfff367	0.0078109982
36	0x3daa2547	0.08307891
37	0x3d03c3fb	0.032169323
38	0xbcd735dd	-0.026270801
39	0xbdf9837b	-0.12183281
40	0xbc8ffe71	-0.017577382
41	0x3dd3d368	0.10343057
42	0xbd07b714	-0.03313358
43	0x3aac33bc	0.0013137977
44	0xbc70456a	-0.014664987
45	0x3c66f1e1	0.014095754
46	0xbadf2198	-0.0017023562
47	0x3d6e287e	0.058144085
48	0xbde334b2	-0.11094035
49	0xbda24bc8	-0.079246104
50	0xbe060e88	-0.1309148
51	0x3d90f57e	0.07078074
52	0x3cb19a5d	0.021680051
53	0xbb7514e8	-0.0037396494
54	0xbdef3290	-0.11679566
55	0x3c1386c1	0.009004296
56	0x3d6bb439	0.05754492
57	0x3cbdbf27	0.023162438
58	0xbd2e7f06	-0.042601608
59	0x3c305385	0.0107621
60	0xbdd53c4f	-0.104118936
61	0x3d012065	0.031525034
62	0xbd11631e	-0.035494916
63	0xbd87c500	-0.06629372
64	0x3d74a4c9	0.059727464
65	0xbdcb5c43	-0.09929707
66	0xbd940eb5	-0.07229368
67	0xbdc47724	-0.09593037
68	0xbe03e3e0	-0.12879896
69	0xbb2edcdc	-0.0026681935
70	0xbda6e9e9	-0.081500836
71	0x3d88d77c	0.066817254
72	0x3ddf26e7	0.10896092
73	0xbd07745d	-0.033069957
74	0xbddb5c59	-0.10710973
75	0xbde8e6ae	-0.11372124
76	0xbdf1bedf	-0.11803984
77	0x3d558194	0.05212553
78	0x3de85d56	0.113459274
79	0xbdf79e6b	-0.12090763
80	0x3dd48394	0.10376659
81	0x3b00ebce	0.00196718
82	0xbca6f082	-0.020378355
83	0x3df5bfaf	0.11999451
84	0xbd8cb31f	-0.06870102
85	0xba94a218	-0.0011339812
86	0xbcf06fdc	-0.029350214
87	0x3c0cb07c	0.008586999
88	0xbdd23009	-0.10263068
89	0xbdeababc	-0.11461398
90	0xbdca2298	-0.098698795
91	0xbdeaa4d6	-0.11457221
92	0xbdc1fed3	-0.09472432
93	0x3c39de68	0.01134453
94	0x3c2bee8e	0.010493888
95	0xbdf49b01	-0.11943627
96	0x3d94d173	0.07266512
97	0xbd6651fb	-0.056230526
98	0xbdf84f9d	-0.1212456
99	0xbdc02057	-0.09381168
100	0xbd7c6e9c	-0.061628923
101	0xbd198da3	-0.03748859
102	0x3deaed89	0.114710875
103	0x3d70b1f8	0.058763474
104	0xbd648355	-0.05578931
105	0x3de30814	0.11085525
106	0xbd5d9f32	-0.0541069
107	0xbd96d7a5	-0.0736535
108	0x3db768cf	0.089555375
109	0x3d4f020b	0.050539058
110	0x3dd138bc	0.10215899
111	0x3c44fa86	0.01202262
112	0x3ddba0fa	0.10724063
113	0x3d89ae70	0.067227244
114	0x3ca89ed7	0.020583553
115	0x3c874a44	0.016514905
116	0x3dae2330	0.08502805
117	0x3dd85ca1	0.105645426
118	0x3d2781c4	0.04089524
119	0xbdc2721c	-0.09494421
120	0xbd3d2c35	-0.046184737
121	0xbd8bc172	-0.06824006
122	0x3c75ee32	0.0150104035
123	0x3d889cb6	0.06670515
124	0x3cb16b04	0.021657474
125	0xbd077745	-0.03307273
126	0xbdd7aa31	-0.10530508
127	0xbcc69a45	-0.024243483
128	0x3c6e9b12	0.014563339
129	0x3dbb114a	0.09134157
130	0x3ce87f50	0.02838102
131	0x3df4829a	0.11938973
132	0x3d5ce970	0.05393356
133	0xbce35fe5	-0.027755687
134	0x3dd2b476	0.102883264
135	0x3d7c8f67	0.061660197
136	0x3d120ba3	0.03565563
137	0xbd97de52	-0.07415451
138	0xbd3c63eb	-0.045993727
139	0xbd3a26e8	-0.04544726
140	0x3d664172	0.056214757
141	0xbc9e5e58	-0.019332096
142	0x3db0c9dd	0.08632252
143	0xbc70f91d	-0.014707831
144	0xbc4b8ddb	-0.012423958
145	0xbde6d160	-0.11270404
146	0xbcf32c12	-0.0296841
147	0xbcd8023f	-0.026368259
148	0xbcd4fa9a	-0.025998402
149	0xbd7aea88	-0.061258823
150	0xbd660edb	-0.05616651
151	0x3a930a7d	0.0011218336
152	0x3c9c1bf8	0.019056305
153	0x3c5ae245	0.013359611
154	0xbd556d95	-0.05210646
155	0xbd531cef	-0.051541265
156	0x3cd42e2e	0.025900926
157	0x3bc03721	0.005865947
158	0xbd9c8b18	-0.076437175
159	0xbd3c64e8	-0.04599467
160	0x3dd6e287	0.104924254
161	0xbd1554b6	-0.03645774
162	0xbdd95fa9	-0.10613949
163	0x3d09275c	0.0334848
164	0x3da04836	0.07826273
165	0xbc592630	-0.0132537335
166	0xbdb57c77	-0.088616304
167	0x3df7ad70	0.120936275
168	0xbd8a6bb6	-0.067588255
169	0x3defddb6	0.1171221
170	0x3d82cc03	0.063865684
171	0xbddeda61	-0.10881496
172	0x3def22bf	0.11676549
173	0xbb3bcc56	-0.002865573
174	0xbdcddca2	-0.10051848
175	0x3d88bb3f	0.06676339
176	0x3d922626	0.071361825
177	0xbde3a472	-0.1111535
178	0x3cadcc87	0.02121569
179	0x3cb65562	0.02225751
180	0xbcd1ddfb	-0.025618544
181	0xbca088e2	-0.01959652
182	0xbd832f21	-0.064054735
183	0xbcde9df8	-0.027174935
184	0xbd73d290	-0.05952698
185	0xbb68a996	-0.0035501472
186	0x3dc66b9d	0.09688494
187	0x3df56737	0.11982577
188	0xbdd0649d	-0.101754405
189	0xbd876d60	-0.066126585
190	0xbde14708	-0.10999876
191	0xbda7b911	-0.081895955
192	0x3a8c77a6	0.001071681
193	0x3c469f6b	0.012122969
194	0x3db44fd3	0.08804288
195	0x3c7182df	0.014740675
196	0xbd6622da	-0.05618558
197	0xbbfe9661	-0.0077693914
198	0x3d09da03	0.033655178
199	0xbe01512c	-0.12628621
200	0xbce9dc64	-0.028547473
201	0x3ddeb745	0.108748
202	0xbd75b25e	-0.059984557
203	0x3dc92816	0.09822099
204	0xbb8af7a5	-0.0042409473
205	0x3cdce527	0.026964737
206	0x3da71bb3	0.0815958
207	0xbcf2bb8f	-0.02963045
208	0x3d4998b5	0.0492179
209	0x3d509bd5	0.050929863
210	0x3df087ee	0.117446765
211	0x3de94c25	0.113914765
212	0xbb83f537	-0.0040270346
213	0xbce72c4c	-0.028219365
214	0x3db3799b	0.08763429
215	0x3da2820e	0.07934962
216	0x3cea03a4	0.02856619
217	0xbcdefa12	-0.027218852
218	0x3d43ae71	0.047773782
219	0xbdc8eff6	-0.09811394
220	0x3d80c701	0.06287957
221	0xbc71b3c7	-0.014752335
222	0x3da66c3d	0.081261136
223	0xbda8b696	-0.082379505
224	0x3dd48cc5	0.10378412
225	0x3cba3ed4	0.022735037
226	0x3dd6f27d	0.1049547
227	0xbb66a0c9	-0.003519105
228	0xbd0f7ef0	-0.035033166
229	0xbdda8935	-0.106707014
230	0x3d19f682	0.037588604
231	0xbc1c58a1	-0.009542615
232	0x394d1f40	0.00019561965
233	0xbc4d2d62	-0.012523027
234	0x3d8d6e56	0.069058105
235	0x3e00d5d7	0.12581573
236	0x3de14d13	0.11001029
237	0x3d1bef5c	0.038070068
238	0xbd90e1a4	-0.070742875
239	0xbb72baf9	-0.0037037714
240	0xbcfc3023	-0.030784672
241	0x3d9c0751	0.07618583
242	0x3d23a284	0.03994991
243	0xbda71e2e	-0.08160053
244	0xbd40a159	-0.047028873
245	0xbd6cb03a	-0.05778525
246	0xbdd27c24	-0.10277584
247	0xbce44692	-0.027865682
248	0xbcba67a8	-0.022754505
249	0xbbecdbfa	-0.0072283717
250	0xbdaa1f87	-0.083067946
251	0x3cd16ca7	0.025564505
252	0xbde220ad	-0.11041389
253	0xbc76d212	-0.015064733
254	0x3d075c02	0.03304673
255	0xbd2cb9b1	-0.042169277

lstm.bias_ih_l1 f4 [256]
0	0x3cd02d11	0.025412114
1	0x3d9c4198	0.076296985
2	0xbdf6a58b	-0.120432936
3	0xbdc3c5da	-0.095592216
4	0xbc099f2c	-0.008399766
5	0x3dcf3580	0.10117626
6	0xbc496f7f	-0.012294649
7	0xbdcfb27d	-0.10141466
8	0x3dbd4289	0.09241206
9	0x3e0969d3	0.13419275
10	0xbda57311	-0.08078588
11	0x3ddac456	0.10681979
12	0x3e075b41	0.13218404
13	0xbda424ea	-0.08014853
14	0x3ce9c7ed	0.028537715
15	0x3c051462	0.008122535
16	0xbab586fd	-0.0013849434
17	0x3df10c0e	0.117698774
18	0x3d850812	0.0649568
19	0xbd78f000	-0.060775757
20	0xbade64da	-0.0016967312
21	0xbdc9c7b3	-0.09852543
22	0x3cd5a4d2	0.026079569
23	0x3d014657	0.031561222
24	0xbd4269a6	-0.047464035
25	0x3d94001a	0.07226582
26	0x3dcd4970	0.10023773
27	0x3d8f8b98	0.07009047
28	0x3deb679f	0.114943735
29	0x3de6857c	0.11255929
30	0x3da5567e	0.08073138
31	0xbd86f89d	-0.06590388
32	0xbd8cf32a	-0.06882317
33	0x3dba8ea2	0.09109236
34	0x3c6c4bb4	0.014422346
35	0x3ccaf417	0.024774594
36	0x3d7240b3	0.059143733
37	0xbdd6379e	-0.10459827
38	0xbdc9dc70	-0.09856498
39	0x3d589c91	0.05288369
40	0x3dbacff1	0.09121693
41	0x3d3f99a0	0.046777368
42	0x3db762f8	0.08954424
43	0x3db5d400	0.088783264
44	0x3dd2f43e	0.10300492
45	0xbdd357f6	-0.103195116
46	0xbc0951d3	-0.008381325
47	0xbc7cb756	-0.01542457
48	0xbda8e981	-0.08247662
49	0xbd48792a	-0.048943676
50	0x3df579ed	0.11986146
51	0x3df18065	0.117920674
52	0x3da1bdce	0.078975305
53	0x3d546e86	0.051863216
54	0x3d6e4131	0.05816764
55	0x3d6ee0da	0.058319904
56	0x3d4f965f	0.050680514
57	0x3dc27c50	0.09496367
58	0x3dbef0a9	0.09323246
59	0x3d94e99c	0.0727112
60	0x3dc64eef	0.09683024
61	0x3c507625	0.01272348
62	0xbd9f2083	-0.07769873
63	0xbd7c6126	-0.061616085
64	0x3c904e52	0.017615471
65	0x3e0056d1	0.12533118
66	0x3d0e08c8	0.034676343
67	0xbce6816a	-0.028137881
68	0xbdcc873e	-0.09986733
69	0xbdecb117	-0.11557215
70	0xbc791d15	-0.015204688
71	0xbd930e61	-0.07180477
72	0x3ab59b14	0.0013855421
73	0x3d87d40d	0.06632242
74	0xbcdc709e	-0.026909169
75	0xbd8609d0	-0.0654484
76	0x3d403002	0.046920784
77	0x3d4c5436	0.049884997
78	0xbd792916	-0.0608302
79	0xbdc2db84	-0.095145255
80	0xbdef3059	-0.116791435
81	0x3dbd63aa	0.09247525
82	0x3d3ef2be	0.046618216
83	0xbab3b692	-0.0013711026
84	0xbd7a8790	-0.06116444
85	0x3dc0abdb	0.09407779
86	0x3c3e5819	0.011617684
87	0xbc2744ba	-0.010209257
88	0x3dce8a2b	0.10084947
89	0x3dd5b83a	0.10435529
90	0xbc842a95	-0.016133586
91	0x3d11be65	0.035581965
92	0x3d8e028e	0.06934081
93	0xbce20106	-0.027588379
94	0x3db01813	0.08598342
95	0x3dddd282	0.10831167
96	0x3da9da8b	0.08293637
97	0xbc10c82f	-0.00883679
98	0x3d497f3d	0.04919361
99	0x3dcf3333	0.10117187
100	0x3d49ba58	0.049249977
101	0x3db6b61e	0.08921455
102	0xbdb78442	-0.08960773
103	0xbc901437	-0.017587764
104	0xbd8d1352	-0.06888451
105	0xbcca1c1f	-0.024671612
106	0x3dd066d0	0.1017586
107	0xbda23262	-0.07919766
108	0x3d81c823	0.06337001
109	0xbdfeb974	-0.12437716
110	0xbcd6ed1d	-0.026236111
111	0x3d3a9645	0.045553464
112	0x3d69a466	0.05704155
113	0x3bf68c99	0.0075240848
114	0xbdecdd22	-0.11565615
115	0xbc0505a3	-0.00811902
116	0xbdb09c83	-0.08623602
117	0xbd9f9379	-0.077918
118	0x3cad2e41	0.02114022
119	0x3e0281ac	0.12744778
120	0xbdbeba25	-0.09312848
121	0xbcb0d3ec	-0.021585427
122	0x3d56549b	0.05232678
123	0xbd3e7874	-0.04650159
124	0xbdb1aeef	-0.08675944
125	0xbe08c8e8	-0.1335789
126	0xbda0af8e	-0.078459844
127	0xbdb76247	-0.08954292
128	0x3dd07fcb	0.101806246
129	0xbcf64d70	-0.030066222
130	0xbdc3484a	-0.095352724
131	0xbda12f6a	-0.07870372
132	0xbd171bae	-0.03689163
133	0xbd88f1f7	-0.06686776
134	0xbd6f178e	-0.058372073
135	0x3d40fe13	0.047117304
136	0xbdad1024	-0.08450344
137	0xbcaea965	-0.021321008
138	0x3d604705	0.05475523
139	0x3d8c2cf2	0.0684451
140	0xbcfabdb1	-0.03060803
141	0xbd7dcb72	-0.0619616
142	0xbdfe64de	-0.12421583
143	0x3dbc396b	0.09190639
144	0xbd1191db	-0.03553949
145	0xbe0c0105	-0.13672264
146	0x3c84a9b2	0.016194198
147	0x3b75dac1	0.003751442
148	0xbe110da0	-0.14165354
149	0xbdeac403	-0.114631675
150	0x3d12eaae	0.03586834
151	0xbd11f362	-0.0356325
152	0xbdccae59	-0.09994192
153	0xbdbc0123	-0.09179904
154	0xbdd2d568	-0.1029461
155	0xbd325d2f	-0.043545898
156	0x3dddfddb	0.10839435
157	0x3de1b906	0.110216185
158	0x3de8fbce	0.11376153
159	0xbdf13345	-0.11777357
160	0x3d8582ea	0.065191105
161	0x3dc69f50	0.09698355
162	0xbd16fef3	-0.036864232
163	0x3e05f462	0.13081506
164	0xb9e42363	-0.00043513914
165	0xbdb2808d	-0.08715925
166	0xbdf7c73d	-0.120985486
167	0x3d2de6bd	0.042456377
168	0x3cbd08c0	0.023075461
169	0xbd7dd5fe	-0.061971657
170	0xbddc9185	-0.10769943
171	0xbdc80267	-0.09766083
172	0xbd93bd4f	-0.07213842
173	0xbc3a6c61	-0.011378379
174	0x3dcd4e63	0.10024717
175	0xbdaf9ccf	-0.08574831
176	0x3e08bb37	0.13352667
177	0xbd012c92	-0.031536646
178	0x3d5055c0	0.050863028
179	0xbcc77f75	-0.024352768
180	0x3de4e6b1	0.111768134
181	0x3daddd18	0.08489436
182	0xbcf0a849	-0.02937712
183	0xbd07322a	-0.033006825
184	0x3e097272	0.13422564
185	0xbd95ab65	-0.073080815
186	0xbd4a3c2e	-0.049373798
187	0x3cfb59fe	0.03068256
188	0x3dc5a056	0.09649722
189	0xbcb52649	-0.022112982
190	0x3d4ebb14	0.05047138
191	0xbdba9142	-0.09109737
192	0x3d9f7ca5	0.07787446
193	0xbd747646	-0.059683107
194	0x3c98a859	0.018634962
195	0xbddaa85d	-0.10676644
196	0xbdce16d1	-0.10062946
197	0x3dc56cdf	0.09639906
198	0xbbb301a6	-0.005462843
199	0xbca7891f	-0.020451127
200	0xbdbeb6b3	-0.09312191
201	0xbd32b462	-0.043629058
202	0x3e0a5f63	0.1351295
203	0x3df85ead	0.12127433
204	0x3d0a1854	0.033714607
205	0xbdb0f407	-0.086402945
206	0x3dc41791	0.095748074
207	0xbdec8fc2	-0.11550857
208	0x3d8221d2	0.06354107
209	0xbc0d32b6	-0.008618047
210	0x3e0183ae	0.12647888
211	0x3b927313	0.0044692843
212	0x3cb79283	0.02240873
213	0xbd5fcbdd	-0.05463778
214	0xbd8f1120	-0.06985688
215	0xbdc9e1bd	-0.09857509
216	0x3c18932a	0.00931243
217	0xbda9dc11	-0.082939275
218	0xbd88878c	-0.066664785
219	0xbe009df8	-0.1256026
220	0x3dbfbfd8	0.09362763
221	0x3ca814fd	0.02051782
222	0x3de570fd	0.112031914
223	0xbd0333e8	-0.032031924
224	0x3df23c1c	0.11827871
225	0x3e013d44	0.12621027
226	0xbdb7f8be	-0.08982991
227	0x3d588af2	0.052866884
228	0x3dd5f53f	0.104471676
229	0x3d962324	0.07330921
230	0x3e0f3872	0.13986376
231	0x3d689f14	0.056792334
232	0x3dc05894	0.09391895
233	0x3d872a26	0.06599836
234	0x3d92c822	0.071670786
235	0x3e0095df	0.12557171
236	0xbce07317	-0.02739863
237	0xbdf2b652	-0.11851181
238	0xbd9aa6d5	-0.07551352
239	0xbd8edffb	-0.06976315
240	0xbddc1aa8	-0.10747272
241	0x3dcc72c3	0.099828266
242	0xbd916c0c	-0.071006864
243	0xbdc2dc47	-0.09514671
244	0x3d54ed2e	0.051984005
245	0xbe042aa0	-0.12906885
246	0x3e09f492	0.13472202
247	0xbdbb80cc	-0.091554254
248	0x3d403705	0.04692747
249	0xbda18332	-0.07886352
250	0x3d8522c6	0.06500773
251	0xbd91f6f6	-0.07127182
252	0xbc9f6bdc	-0.019460611
253	0xbd960246	-0.073246524
254	0x3cbdc230	0.023163885
255	0x3d5852f9	0.052813504
